trial_weights_r.pt (torch, 146408 bytes, 10 tensors)

graphlayers.0.weight f4 [512, 64]
000000 a5 d0 f7 bd 2a 1d 1b 3d 8b 7c 33 3e dc a7 0d 3e
       -0.12100343 0.03786961 0.17527978 0.13833565
000010 ce c5 ec 3d 70 bb 94 3d 67 b1 f2 3d 50 2e db 3d
       0.11561166 0.07262313 0.11850243 0.10702193
000020 d0 f5 0d 3e ff b3 c8 3d 94 84 b2 bc d7 d0 2c be
       0.13863301 0.097999565 -0.021791734 -0.16876541
000030 0c c0 64 3d 65 5f 51 3d 76 49 f0 bc df f4 94 3d
       0.055847213 0.051116366 -0.029331904 0.07273268
000040 58 0d 09 3d a3 4d 8c 3b 46 02 3a 3e a1 15 4f 3e
       0.03345999 0.004281716 0.1816493 0.20223095
000050 ac 86 d2 bc 92 7f 17 3e 80 c3 0f be f6 63 63 bd
       -0.025698982 0.14794758 -0.14039421 -0.055515252
000060 a3 92 42 3d 02 0e bd 3d 6b a0 36 bd d7 8a dd bc
       0.047503125 0.092311874 -0.04458658 -0.027043743
000070 43 43 cb bc 36 f6 10 be da b0 ef 3d bf e1 2d 3e
       -0.024812346 -0.14156422 0.11703654 0.16980647
000080 c3 5e f8 3d a0 b9 c2 3c 80 84 3d be 52 0b ac bd
       0.12127449 0.023770154 -0.18507576 -0.08400597
000090 e3 bf 58 3d 01 cd e1 3c 92 22 19 bc b4 5e 1a 3d
       0.052917372 0.027563574 -0.009346621 0.037687972
0000a0 1a d5 37 be 12 13 ab 3d 55 24 f1 3d 31 d9 55 bc
       -0.17952386 0.08353247 0.11774508 -0.013052271
0000b0 57 f2 39 3b 1d 42 33 bd 45 02 a9 3c 9a a1 8a 3d
       0.0028373206 -0.043764222 0.020630965 0.06769104
0000c0 74 6c 90 bd ad 73 e2 3c 38 f5 08 3e a8 6b ed 3d
       -0.07051936 0.02764305 0.13374794 0.115927994
0000d0 cf 15 41 3b 4f 91 31 3e dd 8e 2c 3d d1 9a 5b 3b
       0.0029462462 0.17340587 0.042128433 0.0033509026
0000e0 d3 74 11 3e e4 07 02 bd 5b 1d ae 3d bb f1 04 3d
       0.14204721 -0.031745806 0.08501693 0.032457095
0000f0 6c 25 7d bd d0 8d 08 be 23 31 ab bc e4 8b b8 3d
       -0.061803266 -0.13335347 -0.020897454 0.09011057
000100 7b 95 2f bd 35 a3 3a 3c 0a 06 16 bd e9 ca ea bc
       -0.042867165 0.011391451 -0.036626853 -0.028661208
000110 69 ba e3 3b d8 11 83 3d 02 f3 f4 3d 12 22 eb bb
       0.006949712 0.06399888 0.119604126 -0.0071756924
000120 63 70 c6 3c e2 ba ed bd 85 74 ea bc 51 4f 23 be
       0.024223512 -0.11607911 -0.028620014 -0.15948226
000130 12 b6 c8 bc 5a 0d d8 3d e6 a1 b0 bc 37 62 0e 3c
       -0.02450088 0.105494216 -0.021561574 0.008690408
000140 62 ea ae bd a2 5a 9e 3d 95 92 d3 bd d1 f2 f3 3d
       -0.08540799 0.077321306 -0.10330693 0.11911548
000150 c9 dd 31 3d d0 11 7a 3c f0 7e 9d bc 4c 8f 69 bd
       0.0434244 0.015263036 -0.019225568 -0.057021424
000160 4c d5 05 3e 78 70 83 3d d2 1f ad 3d 08 34 a4 3d
       0.13069648 0.06417936 0.08453335 0.08017737
000170 83 64 85 3c 6f 1c 4f 3d d0 63 3f bb cc 5a a8 3c
       0.01628328 0.050564226 -0.002920378 0.020551108
000180 e3 9d 06 be 7d fa cb 3d 4d af ad bb b8 e2 33 3b
       -0.13146167 0.09959886 -0.0053004385 0.0027448367
000190 fc b9 93 3c b4 27 16 3e 4d b2 dd bb 08 5a e7 bd
       0.01803302 0.14663583 -0.00676564 -0.11296469
0001a0 d2 9f 17 3e ed 82 1e bd 59 81 08 3e 6c f2 76 3d
       0.1480706 -0.03869908 0.13330592 0.060289785
0001b0 27 5b fb bd c7 94 ac bd a1 e2 0c bd aa 39 46 bd
       -0.12273245 -0.084268145 -0.034395818 -0.048394836
0001c0 88 d8 0d be 86 e2 d2 bd 5c 28 ad bc d8 bf 8b bd
       -0.13852131 -0.10297112 -0.021137409 -0.06823701
0001d0 92 3a a0 bc 8a 3d d5 3c 16 25 d7 bd 22 86 c4 3d
       -0.019559179 0.02603032 -0.105051205 0.09595896
0001e0 46 30 7a 3d 48 06 39 3d a3 ff 94 3d 8c 08 e8 bd
       0.061081193 0.045172006 0.07275321 -0.11329755
0001f0 05 63 2c 3d bc 58 36 3e 33 f1 34 3d 85 1d bb bb
       0.04208662 0.17807287 0.044175338 -0.005710306
000200 aa fc ce 3a 8f c4 51 bd 6a ae f8 bd 98 38 84 bd
       0.0015791852 -0.051212844 -0.12142642 -0.06456107
000210 38 f0 a6 3d 4d c5 7e 3d 05 5b 1a be 27 3a c8 bc
       0.08151287 0.06219988 -0.15073784 -0.024441792
000220 a1 82 4b bc 54 aa a8 3d 5b 69 01 3e ae e7 07 bd
       -0.012421281 0.082356125 0.12637846 -0.03317993
000230 a4 da 3e bd 35 a7 18 be 1b b0 4a 3c db 10 c4 3c
       -0.04659523 -0.14907534 0.012371088 0.023933819
000240 43 bf 65 3c f7 8f 58 be c5 9d 00 be c3 f3 17 3e
       0.014022651 -0.21148668 -0.12560184 0.14839081
000250 07 e2 8e 3c f5 5f d3 3d 8c 14 2d bd 61 a7 2f be
       0.017441763 0.10321037 -0.042255923 -0.17153694
000260 cc ca 88 3d 88 f3 da 3c 9c b7 26 be c4 c4 e4 bc
       0.066793054 0.026727453 -0.16280979 -0.027925856
000270 0f 75 c0 3c 35 24 ce bd 22 f6 35 3c 61 36 8c bd
       0.023493318 -0.100655 0.011106046 -0.068463095
000280 a4 49 07 3d d7 00 88 bd a3 51 22 3e 90 ae 72 3b
       0.033029214 -0.06640785 0.15851454 0.0037030317
000290 6e 12 2a be 1c 48 46 bd 78 92 36 bd 7c bd ab bd
       -0.16608593 -0.048408613 -0.044573277 -0.08385751
0002a0 83 8c 1a 3d d0 0b 7a 3d b2 3e ce bd 06 8d 12 be
       0.03773166 0.06104642 -0.10070552 -0.14311609
0002b0 56 ab 2a 3e 5d 3f 78 3d 39 10 71 3d 45 53 bd bd
       0.16666922 0.060607303 0.05885336 -0.09244398
0002c0 60 93 8c 3d 43 8e 49 3e 2c 57 32 bd ee 33 32 3d
       0.06864047 0.19683175 -0.043540165 0.043506555
0002d0 1b 03 35 3e 5f d0 99 3c 23 a1 b3 bc 37 90 ad 3d
       0.17676966 0.018776117 -0.021927422 0.084747724
0002e0 15 0b ab 3d dd ad 72 3d 3d 15 15 be 89 63 16 bd
       0.08351723 0.05924784 -0.14558883 -0.036716018
0002f0 17 ca 99 bd c5 00 dd bd fc f5 3d be 11 fc 42 be
       -0.07509249 -0.107911624 -0.18550867 -0.19041468
000300 83 77 c7 3d f0 27 47 3d 91 ba d2 bc fd 20 07 bc
       0.09739592 0.04862207 -0.025723727 -0.008247611
000310 98 b2 7f bd b6 59 16 be 77 51 cc bc 89 79 e5 bb
       -0.06242618 -0.1468266 -0.02494119 -0.0070030135
000320 11 3f f7 bc 71 1d 46 be e4 f1 cb bd 0c 4d d6 3d
       -0.03018144 -0.19347169 -0.09958246 0.10463914
000330 46 e9 0e 3c 84 60 48 bd 88 64 f3 3c 92 de 15 3b
       0.008722609 -0.04892017 0.029711023 0.0022868258
000340 92 e1 05 be ed 26 85 bc 3a 9a 7f 3c f2 0b 45 be
       -0.1307433 -0.016253913 0.015600735 -0.19242838
000350 0b bd 9e 3d b6 f8 8e 3d 8d f4 4f 3d 45 c3 e3 3c
       0.07750901 0.069810316 0.05077033 0.027803073
000360 43 24 f3 3b 1f 46 65 3c 7d 23 eb 3d 6a 95 bb 3c
       0.007420094 0.013993769 0.11481378 0.022898395
000370 33 b7 48 be f5 42 c3 3d 2d 7a 00 be 62 36 4f bd
       -0.19601135 0.095342554 -0.12546606 -0.050588973
000380 a3 52 3a be 1e 07 e6 3d 1a d1 64 bd 59 5b 4f 3d
       -0.18195586 0.11231826 -0.055863477 0.050624225
000390 f8 4e d8 bc de aa f4 3c b7 87 6d bd 99 f3 d3 bd
       -0.026404843 0.029866632 -0.057990756 -0.10349197
0003a0 4d 7f 84 3b a8 f5 1c be fa d7 24 3c 96 fa b6 bd
       0.0040434957 -0.15328085 0.010061258 -0.08934514
0003b0 43 36 d5 3c 11 f1 c0 3c 8f 6c 05 3e 15 36 3a be
       0.02602685 0.02355245 0.13029693 -0.18184693
0003c0 e0 da 22 3e ed cd 4d be 97 7f 1b be 4e 3b 2b be
       0.15903807 -0.20098086 -0.1518539 -0.16721842
0003d0 46 f9 e5 3a 68 a8 29 3c 2f 4e ea 3c 0b f1 8e 3d
       0.0017545603 0.010355093 0.028601734 0.06979569
0003e0 0d be c6 bd 7d 48 f7 bb 62 16 b4 bb ff ed aa 3c
       -0.09704218 -0.007546483 -0.0054958323 0.020865439
0003f0 f8 64 01 3e 46 80 14 be 9b 15 cb bd 95 3b ed bb
       0.12636173 -0.14502057 -0.0991623 -0.0072397687

graphlayers.0.bias f4 [64]
000000 89 10 5d bd c8 b6 48 3c 8e e1 77 bb 54 00 18 bd
       -0.053970847 0.01225061 -0.003782365 -0.037109688
000010 19 00 20 3d d8 43 d2 3c ed b9 58 3d 42 48 0e 3e
       0.039062593 0.025667116 0.052911688 0.13894752
000020 63 c4 3b 3e 35 b3 17 3e 8e 5b 34 3e 1b 88 31 be
       0.18336634 0.14814456 0.1761305 -0.17337076
000030 e0 8f 6e 3d 7c 7c 08 bc 84 74 88 bd 45 4f 4e bc
       0.05824268 -0.008330461 -0.066628486 -0.0125921415
000040 9b 42 c3 bc e5 d8 a7 3d cc ee 14 bd dd b1 df 3d
       -0.02383547 0.08195666 -0.036360547 0.109225966
000050 de a2 40 3d 21 60 05 3e 5f cb 93 bd 8f 06 95 3d
       0.047030322 0.13024952 -0.07216524 0.072766416
000060 ec 76 44 3c 7e 34 46 3e 5a bf e3 bc b9 26 07 3e
       0.011991244 0.19355962 -0.027801204 0.13198365
000070 d3 8d 0b 3e 74 75 72 bd 14 5f a9 3d cc aa e9 3d
       0.1362832 -0.059194043 0.08270088 0.1140953
000080 78 66 26 3e 49 94 1d be 15 c0 a3 bd 04 59 92 bc
       0.16250026 -0.15388598 -0.07995621 -0.017864712
000090 91 d4 0a be 5d 54 c7 3d 8f f0 86 3d 83 e0 49 3e
       -0.1355765 0.09732888 0.06588852 0.1971455
0000a0 35 8f c4 3c fc d5 56 3e 1b e6 62 bd be 45 97 3d
       0.023994068 0.20980066 -0.055395227 0.07386349
0000b0 4e 8c 47 bd 96 84 24 bd 44 1b 42 3d df 7f f6 3d
       -0.04871779 -0.040165506 0.047389284 0.12036108
0000c0 f5 57 87 bd c0 c4 3b 3e 24 2b 0c 3e c9 06 34 3e
       -0.06608573 0.18336773 0.13688332 0.17580713
0000d0 5f d5 12 bd 42 12 6d 3d 08 9c 3a 3e e0 12 c6 bc
       -0.035848018 0.05787874 0.18223584 -0.024178922
0000e0 b1 7f 31 3e 8e 00 62 bd b8 a3 4b 3e 00 e5 e7 bc
       0.17333867 -0.05517631 0.19886672 -0.028307438
0000f0 72 f9 24 bd 8e 81 d0 bd 23 02 27 3e ca 98 8f bd
       -0.040276952 -0.101809606 0.16309409 -0.07011564

graphlayers.1.weight f4 [64, 32]
000000 7f da 01 3e a8 b1 96 3c 4a 8c 97 bd 9b 48 be bd
       0.12681006 0.01839526 -0.07399805 -0.09291192
000010 79 0b ec 3d 0e 31 dc 3c 7e 8a 27 3e fd 67 30 3e
       0.11525626 0.02687886 0.16361424 0.17227168
000020 fb 3d 56 bd a6 11 2c be 24 d7 81 bb f6 06 dc bc
       -0.052305203 -0.16803607 -0.0039624143 -0.026858788
000030 0c 00 f6 bc df 92 35 be ed f9 4e 3d 80 7e 37 be
       -0.03002932 -0.17731808 0.050531317 -0.1791935
000040 e9 af 2e be 36 39 95 bd c0 8b 08 3e 0b 83 2a 3e
       -0.17059292 -0.07286303 0.1333456 0.16651551
000050 22 a6 5a be 67 29 cb bd a8 62 8a b9 e4 4d 83 bd
       -0.21352437 -0.09920006 -0.00026394916 -0.06411341
000060 80 cc ae bd b1 f7 35 bd 89 0a 76 3e 24 20 80 bb
       -0.08535099 -0.04442567 0.24027456 -0.0039100815
000070 4a aa 00 3c b9 87 81 3d 84 e5 5a be 7f 52 8e 3d
       0.0078531 0.06324715 -0.21376616 0.06949329
000080 9d 75 24 3c c5 70 63 bd 97 f1 80 bb 28 db e3 3d
       0.010037807 -0.055527467 -0.0039350498 0.11125785
000090 16 2e ca 3d 80 2f bd bc b8 c8 cb 3d c6 b1 31 bc
       0.098720714 -0.023093939 0.099503934 -0.010845607
0000a0 3b b5 30 bd 8a 25 9d 3c 86 92 f7 bc e7 de b0 b6
       -0.043141585 0.01918294 -0.030221235 -5.271158e-06
0000b0 21 d1 31 3c f1 46 86 bd 65 d3 41 3c bf 06 d4 bd
       0.010853083 -0.065565 0.011830186 -0.10352849
0000c0 ad 42 a7 bc d0 4e 62 3c 4b 21 96 3d 93 b4 73 bd
       -0.020417536 0.013812736 0.07330569 -0.05949838
0000d0 69 2e 01 bd c7 7c 9b 3d c6 a2 b9 3d d9 aa ac bb
       -0.0315384 0.07592159 0.0906425 -0.00526939
0000e0 06 81 ce bd 52 3d 6b 3d 62 0e 36 3c 7c d6 be bd
       -0.10083203 0.057431526 0.011111828 -0.093182534
0000f0 cf 6d a0 3c 64 96 c2 3c 23 0b 62 bd 62 c8 72 bd
       0.01958361 0.023753352 -0.055186402 -0.05927313
000100 b8 ff 3c be 76 6d 5c 3d cb 7e 01 3c b0 8a a2 bd
       -0.18456924 0.053815328 0.007903765 -0.07936609
000110 46 c0 97 3d a3 11 90 3e 1b 84 1b bd ac f8 67 3e
       0.0740972 0.28138456 -0.037967782 0.22653455
000120 b1 9f 31 3e 18 e9 20 bd 8e a3 58 bd 2b 51 93 bd
       0.17346074 -0.039284796 -0.052890353 -0.07193216
000130 a4 78 f8 bd 17 09 7c bd b9 21 be bd 61 4f 9c bd
       -0.121323854 -0.061532106 -0.09283776 -0.07632328
000140 1d cc 02 3e 3d 68 d4 bd 01 89 88 3e 03 d2 81 bd
       0.12773176 -0.103714444 0.26667026 -0.06338885
000150 e4 88 ca 3d 24 4e 36 3d 2d da 52 3e 4e 46 28 3e
       0.09889391 0.044508114 0.2059104 0.16433069
000160 e4 ec 24 3e a8 76 a5 bc 60 76 58 be 73 4d 47 bd
       0.16105992 -0.020198181 -0.21138906 -0.048657846
000170 9f 41 c7 3c d7 3d 41 3d df c9 97 bd 28 36 2b 3e
       0.024323283 0.047178116 -0.07411551 0.16719878
000180 f3 0f 2c 3d fd 5c 05 be 53 63 37 3e e3 a9 79 bd
       0.042007398 -0.13023753 0.17908983 -0.060953032
000190 e7 ca ff bd 62 08 77 3b 3d 6b ab 3d 6a 24 93 3b
       -0.124898724 0.0037694206 0.083700635 0.004490425
0001a0 03 eb d9 3d 15 09 6f 3e b9 fb 92 bd 9e 2b f3 bd
       0.10640528 0.23343308 -0.071769185 -0.11873554
0001b0 11 2a 04 3e 75 f0 3f be 0c e6 ce bc 3d 5e d7 bd
       0.12906672 -0.18744071 -0.02525618 -0.105160214
0001c0 c5 f2 70 3e a6 47 60 bd 0a d1 72 3e 8d d8 0b 3d
       0.23530109 -0.05475583 0.23712555 0.034142066
0001d0 e8 29 ae 3d 88 f3 e1 3d 05 f5 18 3e 00 97 66 3e
       0.08504087 0.11032778 0.14937218 0.2251854
0001e0 1a 90 f4 3d b5 a9 e5 3b eb 77 2d be ac a6 55 bd
       0.11941548 0.007008756 -0.16940276 -0.052160904
0001f0 0f bb 39 3e cd 4a 0e 3d f0 a0 6f be 2f 9b 6d 3e
       0.18137763 0.034739304 -0.23401237 0.23203729
000200 1a 64 84 bd 67 40 6a be 3d 6c 45 be cb a2 fe bb
       -0.06464405 -0.2287613 -0.19279571 -0.0077708713
000210 48 8b 64 3e 0d 24 85 3d 30 e5 18 be a0 cc a3 3d
       0.22318757 0.06501017 -0.14931178 0.079980135
000220 5b e0 36 be 86 66 d5 bd e5 6e 09 bd 18 cd 1b bd
       -0.17859022 -0.104199454 -0.033553023 -0.03803739
000230 b5 95 38 3e 05 4a 1f bd e0 29 b0 3d 2b 21 49 3d
       0.18025859 -0.03888895 0.08601737 0.049103897
000240 37 bc 06 bd 9b c3 a5 3d b8 75 20 3d e7 ca f8 3d
       -0.03289434 0.080939494 0.039174765 0.121480756
000250 a6 d0 53 be 60 31 5c be be 87 7b be f4 62 8c bd
       -0.20685062 -0.2150321 -0.245635 -0.06854811
000260 3d 14 aa bd b0 4f 52 3d a9 a3 85 3e 74 f1 e3 bd
       -0.083046414 0.051345527 0.26101425 -0.11130038
000270 c8 35 ec 3d 66 3a 16 be 4e 64 9e bd 05 e2 99 bd
       0.115336955 -0.14670715 -0.07733975 -0.07513813
000280 14 ba 14 be 2a 6a 89 bd bb 3a 4a be 9b f1 41 3e
       -0.14524108 -0.06709702 -0.19748966 0.18939821
000290 c0 a7 e5 3c c2 11 37 be 62 0d e2 bd 94 af 35 be
       0.028034091 -0.17877868 -0.11037709 -0.17742759
0002a0 e8 ae 16 be 5c 1f bb bd 6d 00 71 bd 5a d2 3a bd
       -0.14715159 -0.09136841 -0.058838297 -0.045610763
0002b0 80 a1 11 3e 45 b7 49 be 8a 43 6d 3c 21 45 72 3d
       0.14221764 -0.19698818 0.014481435 0.059147958
0002c0 71 f6 93 3c 4c 1c cb bc 08 a5 39 3e 1b f9 23 3e
       0.018061848 -0.024793766 0.1812936 0.16012995
0002d0 dc eb 94 3b b5 2a 0d 3d c7 22 e2 bd ce f3 bd bd
       0.004544718 0.034464557 -0.110417895 -0.09275018
0002e0 c9 8a f2 bd f8 05 19 be d4 d3 59 3e 95 f9 e5 3b
       -0.118428774 -0.14943683 0.21272212 0.007018278
0002f0 92 0e 16 3e 6d a3 04 3d 3f 65 6d be ff 42 72 be
       0.14653996 0.032382417 -0.23183154 -0.2365837
000300 2f 70 e1 bd c5 7c ed bd 0e 7a ac 3d 74 f3 b7 bd
       -0.110077254 -0.115960635 0.084217176 -0.08981982
000310 7c b7 5a bd 78 e0 e8 bc 2f e5 cb 3d f4 dd 45 3e
       -0.05339764 -0.028427348 0.09955823 0.1932295
000320 54 e0 79 3d 6d 1d 81 3e 1d 90 42 be 02 e1 34 be
       0.06100495 0.25217763 -0.19000287 -0.17663959
000330 1d ee 6f bd 6f c3 9a 3a a6 90 89 bd c3 58 a9 3d
       -0.058576692 0.0011807511 -0.067170426 0.08268883
000340 90 9d 04 3e d6 4b 0e 3c 86 47 88 3e fc af 03 3e
       0.1295073 0.008685073 0.26617068 0.12860101
000350 28 da 12 bc 6c 86 1e 3e 8b 20 42 3e ef 86 75 3e
       -0.008963145 0.15480965 0.18957727 0.23977254
000360 c6 4a 07 bc db 06 a2 bd 32 d6 67 3d 96 09 c2 bd
       -0.0082575735 -0.07911464 0.056600757 -0.094744846
000370 be 1a 84 bb ff 44 82 bd 31 ac 09 be c9 07 2b 3e
       -0.004031508 -0.06360816 -0.13444592 0.16702189
000380 32 6b a9 3d 66 52 0c 3d f9 cf 14 bb fe 92 79 3e
       0.08272399 0.03425827 -0.002270697 0.2437248
000390 c2 ff 3a 3e 2b f5 21 be 03 35 03 3d 68 15 3e be
       0.18261626 -0.1581618 0.032032978 -0.18562853
0003a0 b9 86 d9 3d ee d0 68 bd 93 b5 32 3e 55 90 58 3d
       0.106213994 -0.056839876 0.17452078 0.05287202
0003b0 d6 e1 8f 3d e0 c5 a9 3d e5 87 19 3e 30 f6 2e 3e
       0.07025497 0.08289695 0.14993246 0.170861
0003c0 02 f6 eb bd 22 89 47 bd 1b 31 3d 3d 72 54 7c 3e
       -0.11521532 -0.048714764 0.04618941 0.24641588
0003d0 4f 7d 6b 3a 4e 5d 3d be b1 ec 41 bd 7d 7d 81 3d
       0.0008983211 -0.18492624 -0.047344867 0.06322763
0003e0 77 1b 97 bd 84 b4 f1 bd 83 09 4b 3e b5 cc b8 3c
       -0.073782854 -0.11802009 0.19827847 0.02255855
0003f0 4b e1 99 3d 31 d7 39 be 26 65 5c 3e 84 10 51 bd
       0.07513674 -0.18148495 0.2152296 -0.05104114

graphlayers.1.bias f4 [32]
000000 ab e3 0e 3d bc f0 d8 bd 2e 21 2f bd 83 97 84 3a
       0.03488509 -0.105927914 -0.042756252 0.0010115955
000010 e3 d3 c7 3b be 86 9f bd c9 ee 8f bd 3d 9a 9e bc
       0.006098257 -0.07789372 -0.070279665 -0.019360656
000020 f5 70 ae 3d 69 a0 37 3e 2a 67 31 be 82 c7 70 be
       0.085176386 0.17932285 -0.1732451 -0.23513606
000030 46 d8 a0 bc 41 9d 5e be 19 3c 16 3e 43 e3 5b bd
       -0.019634377 -0.21739675 0.14671363 -0.05368353
000040 06 3b 79 3d 1a 50 d2 bc cb 3c 80 3e 94 89 66 3e
       0.060847305 -0.025672961 0.2504638 0.2251342
000050 13 d3 31 3c b7 65 ed 3d c0 83 f3 3c a5 55 b2 bd
       0.010853547 0.11591666 0.02972591 -0.08707742
000060 11 46 84 bd 8e 50 1a be b0 b3 75 3c c5 2e 8e bc
       -0.064586766 -0.15069792 0.014996454 -0.017356286
000070 49 c1 1c bc 4a ac 34 be c0 f3 b1 3d 58 30 7f 3e
       -0.009567567 -0.17643848 0.0868907 0.24920785

graphlayers.2.weight f4 [32, 16]
000000 43 4d e5 bd b5 61 4b 3e ad e0 3c 3d 6e 41 89 be
       -0.11196377 0.19861491 0.046112705 -0.2680773
000010 4f c3 0c be d4 72 65 be 15 26 cd 3d 05 6e 21 bc
       -0.1374638 -0.22407085 0.10017029 -0.009852891
000020 81 53 a9 3d 45 bb 9d bd bb 75 22 3d e3 d8 7a 3d
       0.0826788 -0.077017345 0.039663058 0.061241996
000030 b8 20 33 3e 13 91 47 3e ad ca 5c 3d 8b 52 bb 3d
       0.1749295 0.19488935 0.053904224 0.09146603
000040 d0 4b e0 bd c0 48 2f 3e 4a 98 20 3e cb a5 d4 bd
       -0.1095196 0.17117596 0.15683094 -0.10383185
000050 51 45 a2 bc 49 05 b5 bd 26 ea 77 bd 12 78 d7 3d
       -0.019808443 -0.08838899 -0.060526036 0.105209485
000060 83 fe 9a 3d 95 e7 8a bd 4d 06 ae ba 25 04 72 bc
       0.075680755 -0.06782452 -0.0013277024 -0.014771496
000070 cb b9 a2 3b f9 2d a2 be 28 94 e3 3b 9e 65 03 bd
       0.004965996 -0.316757 0.006945152 -0.03207933
000080 91 a9 f5 3c 72 f3 8c 3e 96 7f 6c 3e d1 c6 4c 3c
       0.029988082 0.27529484 0.23095545 0.012498573
000090 23 cd 44 bd b2 41 6e 3d ca 64 e0 3d cf 99 04 3e
       -0.048047196 0.05816812 0.10956724 0.12949298
0000a0 fc cf 07 3e f7 1f 0a be 58 19 53 3c 72 64 96 3e
       0.13262933 -0.13488756 0.01288446 0.2937351
0000b0 d9 e1 8d bd 37 31 a6 3e 99 05 81 be 58 b8 a6 bd
       -0.06927843 0.32459423 -0.25199583 -0.081406295
0000c0 18 17 48 bd 96 91 8c be c9 63 eb bc 65 1c e3 3c
       -0.04885015 -0.27454823 -0.028734105 0.0277235
0000d0 1f 4f 3b 3e e0 0c bc 3d 8f 5a 25 3e 72 56 45 be
       0.18291901 0.09182143 0.16147827 -0.19271258
0000e0 6e f7 65 3c aa 9b 83 3d e3 b3 33 bd a4 4a a6 be
       0.014036043 0.06426175 -0.043872725 -0.3247882
0000f0 6e ad 47 3e 84 60 53 be 47 9c 81 3e a9 ce dd 3c
       0.19499752 -0.20642287 0.25314543 0.027076082
000100 1c f9 8f 3c 90 51 cf bd 83 09 0a be 1d 8a c7 bd
       0.01757484 -0.10122979 -0.13480191 -0.0974314
000110 db 8e 0b be ee 85 f8 3d e5 a8 2c be a9 a5 bd bc
       -0.13628714 0.1213492 -0.16861303 -0.023150282
000120 f2 b1 63 3e 60 fc 05 3e 0f 72 dc bc 44 ed 90 bc
       0.2223585 0.13084555 -0.026909856 -0.017691262
000130 ea 6e 80 3e 55 d1 7f 3d f5 3b 8f 3e e0 0a 4d bd
       0.2508462 0.062455494 0.2797543 -0.0500592
000140 64 32 07 3e 67 87 9c 3e 75 cd 14 3e 81 56 fe bc
       0.13202816 0.30572054 0.145315 -0.031047108
000150 31 34 ce 3d ff 67 51 3e d9 e3 20 bd 66 cb 79 38
       0.100685485 0.20449828 -0.039279792 5.9555656e-05
000160 10 a6 43 bd f0 4b 44 bd e2 4b c7 bd 52 44 ac 3d
       -0.04776579 -0.047923982 -0.097312704 0.084114686
000170 cd 04 15 be 54 db a0 3d 17 e0 65 be 48 94 66 be
       -0.14552613 0.078543335 -0.22448765 -0.22517502
000180 46 cf e8 3c a2 3e fa 3d 59 d9 91 3d 0c f5 55 be
       0.028419148 0.122189775 0.07121534 -0.20894259
000190 08 65 5d bd a5 be 8b 3d b7 72 28 3e 45 95 af bc
       -0.05405143 0.06823472 0.1645001 -0.021433482
0001a0 87 c1 3c 3e 53 71 a2 bc da e7 04 3c 26 ad 6e 3e
       0.184332 -0.019829428 0.008111918 0.23308238
0001b0 6a f7 63 3e 54 48 85 3d 4f 5f 66 3d 52 54 89 3d
       0.2226235 0.06507936 0.056243237 0.06705536
0001c0 23 bd ac 3d 33 ae 96 3e 61 4b 13 bc 42 bb f2 3b
       0.084345125 0.29429778 -0.00899014 0.007407577
0001d0 2a 17 39 3d e9 75 af 3c 08 86 6e be c5 db 8d bd
       0.045188107 0.021418529 -0.23293316 -0.06926683
0001e0 6a f5 77 3d 3f 2e 05 bd 88 9c 49 3d 87 cd 4d 3d
       0.06053678 -0.032514807 0.049221545 0.050244834
0001f0 d5 83 a1 be fe 39 b5 3e 5e 4d 93 bd 8a 14 8c 3d
       -0.31545892 0.35395807 -0.07192491 0.06839855
000200 a0 57 a3 bd 63 8d 9c bd 07 b8 8c 3e 23 e7 0f be
       -0.079756975 -0.07644155 0.27484152 -0.14053015
000210 64 04 22 bd 30 b6 4e 3e e2 ad 28 3d e4 c9 13 3d
       -0.03955497 0.20186687 0.041181453 0.03608121
000220 1e d7 ef 3d 89 92 95 3e bd eb 19 be 31 28 fe 3d
       0.11710952 0.2921336 -0.15031333 0.1241001
000230 73 42 a2 bc 16 2e 99 3e b1 76 04 be dd c0 1f 3e
       -0.019807076 0.29917973 -0.12935902 0.15600915
000240 7f af d7 bc 78 85 65 3e d0 6c 0b 3e 3b 6d ff 3c
       -0.0263288 0.22414196 0.13615727 0.031180015
000250 d3 83 0f 3e 2e 10 3a 3e a4 ee 15 bd 48 86 8c be
       0.1401513 0.18170235 -0.03660454 -0.27446198
000260 3d cb 3f bd f1 4b ba bd 63 04 30 3e 80 5d 7b 3d
       -0.046824683 -0.09096516 0.17189173 0.061368465
000270 2f 6d 5f bd 3c be 92 3e 10 2b 62 3d 7f 5c 72 3d
       -0.054547485 0.28660762 0.05521685 0.059170242
000280 68 84 ed 3c db 0a 0f 3e 0d 21 05 be d9 c2 8d 3d
       0.0289938 0.13968985 -0.13000889 0.0692193
000290 e5 06 0b bc a2 35 05 3e 65 1e 56 3d 68 49 cf 3d
       -0.0084855305 0.1300874 0.05227508 0.10121423
0002a0 c1 f0 58 3e 4d 72 4e be 49 40 0f 3e 9e 92 f2 bb
       0.2118559 -0.2016079 0.13989367 -0.007402732
0002b0 c7 ec 20 3d 68 cf a9 bd d6 d6 4f be 3b c2 e4 bb
       0.03928831 -0.08291513 -0.20296797 -0.006981162
0002c0 b8 9b 07 be ca e2 90 38 6a b0 6e 3e 76 9b 1a bd
       -0.13242996 6.908698e-05 0.23309484 -0.037745915
0002d0 88 86 30 3e 00 83 b3 bd 20 0f 44 be e5 78 6c bd
       0.1723882 -0.08765221 -0.19146395 -0.05773248
0002e0 50 5f 89 3e 2d de 3f be 15 84 b9 3d ac 98 c0 3d
       0.2683053 -0.18737097 0.09058396 0.0940412
0002f0 a0 c7 48 3c 13 c2 10 be ae 74 15 be 32 4c f8 bc
       0.012254626 -0.14136533 -0.14595291 -0.03030977
000300 b2 ed ae bd 10 a0 01 3e 71 23 3c 3e 82 45 f7 3c
       -0.085414305 0.12658715 0.18372895 0.030184511
000310 05 e9 29 be 34 52 d9 3c 7a ae df bd a1 9f 18 be
       -0.16592796 0.026528455 -0.10921951 -0.14904644
000320 87 0f 30 3c bc c7 51 3e 42 56 a2 3d 5c 98 99 be
       0.0107458895 0.20486349 0.079266086 -0.29999053
000330 f4 bf 5b 3e 96 6e 75 bd 6a 30 93 3b 56 16 ab 3e
       0.21459943 -0.059919916 0.0044918554 0.33415478
000340 cd b9 d5 bd 4d 66 00 be 27 d0 3c bd e9 1f 4d be
       -0.10435829 -0.12539025 -0.046096947 -0.20031704
000350 f8 c4 06 bd d8 4a c2 bd 02 f6 14 3b 69 f7 b3 bc
       -0.032902688 -0.094869316 0.002272964 -0.02196856
000360 49 08 27 be 40 93 f8 bd ed cd b6 bd af c0 2d be
       -0.16311754 -0.12137461 -0.08925996 -0.16968034
000370 b3 7e 1e be 71 cb f2 bd 54 4d 46 3e 51 d7 ab bd
       -0.1547802 -0.118552096 0.19365436 -0.08390678
000380 09 ad 2d 3e a9 90 94 be 9f b3 72 bd e7 b6 65 be
       0.16960539 -0.29016617 -0.05925333 -0.22433053
000390 49 a2 f1 bb ae 5a 9a bc 4b f0 6c bd 9c 23 25 bd
       -0.007374082 -0.018842068 -0.05784635 -0.040317163
0003a0 01 88 c7 3d f3 53 f3 3c fb b1 37 3d a4 42 94 bd
       0.097427376 0.029703116 0.04484747 -0.07239273
0003b0 5b 44 2d 3e 7f 81 92 be 41 55 23 3e 20 f1 ba bc
       0.16920607 -0.28614423 0.1595049 -0.022820055
0003c0 70 c3 cf 3c 59 af 1e bd 73 09 0f 3e 17 2e 94 3d
       0.025361747 -0.038741443 0.13968448 0.072353534
0003d0 e3 7f 02 3e ac af a0 3e da e9 2f be c8 36 c9 3d
       0.12744097 0.31384027 -0.17179051 0.09824902
0003e0 0d 6b 7a bc e3 91 8e be 70 ed 17 3e 11 88 1b 3e
       -0.015284312 -0.27845678 0.14836669 0.15188624
0003f0 69 06 1c 3e f1 2f 53 be 20 cb 87 3d 55 d7 0f bd
       0.1523682 -0.20623757 0.0663054 -0.035117466

graphlayers.2.bias f4 [16]
000000 23 c2 f1 bd 95 df 3b 3d 78 db 22 3e 6e 01 18 bd
       -0.11804607 0.04586752 0.15904033 -0.03711074
000010 91 ac 4f bc f6 ed f2 3d 1a c7 90 be 28 bb 86 be
       -0.01267542 0.11861794 -0.28276902 -0.26314664
000020 f6 63 6e 3e f7 8d e1 bd 2d d3 8f 3e b5 d6 21 3e
       0.2328032 -0.11013406 0.28090802 0.1580456
000030 ae 9f 42 3e 19 50 60 3e 01 4c 3d 3e fc 74 76 3d
       0.19006225 0.21905555 0.18486024 0.06017016

linlayers.0.weight f4 [8, 16]
000000 aa 48 a0 3c 4c 19 4c 3e 61 ec 05 3d ee 77 f6 bd
       0.019565899 0.19931525 0.03269613 -0.120345935
000010 73 f3 26 be 03 2a 6e 3e dd 94 ee bd 43 70 8b 3d
       -0.16303806 0.23258214 -0.11649487 0.068085216
000020 0f f2 0f 3c 1c fe 05 3e 1b 94 09 3d 7f 78 9b 3e
       0.008785739 0.13085216 0.03358851 0.3036537
000030 a9 79 eb bc 22 8c 5a 3e eb 3d 84 be 25 de b2 bd
       -0.028744536 0.21342519 -0.2582849 -0.08733777
000040 8d 38 36 3e b6 d1 e3 bc 54 82 e6 3d 8b b5 18 be
       0.1779501 -0.027809959 0.11255327 -0.14913003
000050 29 42 98 bc a3 4e 8a 3d 2d a6 03 38 ba 11 bb bd
       -0.018586235 0.0675328 3.1387597e-05 -0.091342404
000060 36 ef cf 3c 24 08 6c be 73 50 4a 3e 1c ff 16 be
       0.02538262 -0.2304998 0.19757251 -0.14745754
000070 f4 21 8f 3e 4e 55 ca 3d 88 32 82 bd c0 ad 08 3d
       0.27955592 0.09879552 -0.06357294 0.033368826
000080 a8 6d 1c 3e c0 a6 1c be d2 65 68 be a0 92 95 bd
       0.15276206 -0.15297985 -0.22695091 -0.07303357
000090 2a b0 16 be 9d 54 8b 3e 5c 8b 71 be 21 60 75 b8
       -0.14715639 0.27212992 -0.23588318 -5.850208e-05
0000a0 87 fe 0d 3e 2d d6 ae 3d 76 13 61 3e 68 da ed bc
       0.13866626 0.085369445 0.2198008 -0.029034808
0000b0 29 fc 9d 3d 93 53 87 be 87 7d 93 3e 5e 19 93 3e
       0.07714111 -0.2643095 0.28806707 0.2873029
0000c0 ee 8d a4 bd b8 20 0c 3d d8 38 93 be d9 07 ee 3c
       -0.080348834 0.03421089 -0.28754306 0.029056476
0000d0 cf 98 fb bd 8d 5e 2e 3d 76 3a c8 bb da 8d b2 bc
       -0.12285005 0.04257064 -0.0061104847 -0.021796156
0000e0 c2 a9 a9 be 4c 92 07 3e bb 2e 41 3e c0 e3 37 bd
       -0.33137327 0.13239402 0.18865483 -0.044894934
0000f0 f5 1a 93 3d fa e7 82 be 75 60 0d 3e 91 81 e6 bc
       0.07182876 -0.2556761 0.13806327 -0.028137954
000100 f2 33 3c bc 70 6c 93 3c d6 f9 4a bd 0f e3 81 be
       -0.011486994 0.017996043 -0.04955467 -0.25368544
000110 7a 67 7d 38 1f d2 33 bd d6 65 8e 3c 07 c8 ac bd
       6.041627e-05 -0.04390156 0.017382544 -0.0843659
000120 18 31 87 bc f4 63 85 be 04 0f b1 3c 7f 24 37 be
       -0.016502902 -0.2605282 0.021613605 -0.17885016
000130 0f cf 67 be 36 2a e2 bd c0 fd 36 3e 5c 25 94 be
       -0.2263758 -0.11043207 0.17870235 -0.28934753
000140 16 8c e7 36 b4 63 48 3a 06 98 77 b8 53 a0 de b6
       6.9006446e-06 0.00076442515 -5.9030972e-05 -6.6347798e-06
000150 7a a1 fb bc 4e 70 1e be 66 23 9b b7 5f be 2c bc
       -0.030716646 -0.15472528 -1.8493924e-05 -0.010543435
000160 4e 48 f9 bc 93 c6 2a b9 9c 02 2e ba c6 f8 3e 3d
       -0.030429985 -0.00016286438 -0.0006637962 0.046623968
000170 01 f0 00 be 95 a7 96 bc 1c 08 46 3d 12 d8 a5 bd
       -0.12591554 -0.018390456 0.048347577 -0.08097853
000180 8e 17 18 3d 5f 91 2e 3e 0a 46 3b 3e 65 17 13 3e
       0.03713184 0.17047642 0.18288437 0.14364393
000190 e5 fa aa 3d 97 af cf bd 0b f1 13 3d 36 d7 0e bd
       0.083486356 -0.10140913 0.03611855 -0.03487321
0001a0 54 6a 8e 3d 5a 2f bf 3d 7d a4 20 3e 79 3e da 3d
       0.06953874 0.093352035 0.15687747 0.10656447
0001b0 9f 0f ab be ea 7d 90 3d 3b d2 8d 3d a6 84 d9 bd
       -0.33410355 0.07055266 0.06924864 -0.10621004
0001c0 6b 71 52 3d f3 c5 63 be 6a b5 80 bd 07 d2 7e 3e
       0.051377695 -0.2224348 -0.06284602 0.24884807
0001d0 98 97 05 be 28 7c 4c be 69 76 06 3e ef 26 17 3e
       -0.1304611 -0.19969237 0.13131107 0.14760946
0001e0 7b 0e fc 3d bf 16 64 3c 83 a6 95 3e 43 29 03 be
       0.123074494 0.013921439 0.292286 -0.12808709
0001f0 0e 48 9a 3e 51 af d9 3d 47 6b 96 3e 07 36 2f be
       0.30133098 0.10629142 0.2937872 -0.17110454

linlayers.0.bias f4 [8]
000000 26 de 25 3e 45 e9 37 3e 69 40 29 3e 08 aa 2c be
       0.16198024 0.17960079 0.16528477 -0.16861737
000010 a0 f5 d4 bd 49 70 1d be 54 3e ca bd 5b b9 14 be
       -0.10398412 -0.15374865 -0.098751694 -0.14523832

linlayers.1.weight f4 [2, 8]
000000 6b 49 66 be 6c 91 94 3d 4b 95 c5 3e e7 bc 45 bd
       -0.22488944 0.072542995 0.38590464 -0.048275854
000010 30 66 9f b9 47 7f 78 3e 68 10 73 be 17 54 b9 3d
       -0.0003040298 0.24267302 -0.23736727 0.09049242
000020 6f ef 83 3e 37 3a 23 bc 84 3b 91 be 86 8b 4c be
       0.2576861 -0.00996261 -0.2836572 -0.19975099
000030 20 18 bb bc 6b 6f 42 3e 21 0e f5 3d 42 81 53 be
       -0.022838652 0.18987815 0.119655855 -0.20654777

linlayers.1.bias f4 [2]
000000 8c 3c ec bd 40 ed 7c 3e
       -0.11534986 0.24699879
