trial_weights.pt (torch, 138436 bytes, 6 tensors)

graphlayers.0.weight f4 [512, 64]
000000 ce ef fd bd 42 2d 16 3e 0d 3d b7 3d 28 13 37 38
       -0.12399255 0.14665702 0.089471914 4.364844e-05
000010 e2 6c 17 be 8f d9 13 bc b8 e8 e1 bb 60 f3 52 3d
       -0.14787629 -0.009024038 -0.0068941973 0.05150163
000020 39 1d 41 3d 91 3f 82 bd 3a a4 7b 3d e0 52 04 be
       0.04714701 -0.063597806 0.061435916 -0.1292224
000030 2f 54 81 bd 78 6e 77 bc ab 96 d4 bc 19 54 00 bb
       -0.06314885 -0.015102021 -0.02595075 -0.0019581376
000040 30 b3 78 bd 36 ed 1c bb a2 e7 17 be 23 93 17 be
       -0.06071776 -0.00239451 -0.14834455 -0.14802222
000050 33 99 d0 3c 76 4c 3b 3d e8 60 0e 3e d9 23 a8 3d
       0.025463676 0.045727216 0.13904154 0.082099624
000060 d2 92 86 3d 39 ec 87 bd da af e8 3c cc 7f a8 3c
       0.065709725 -0.06636853 0.028404165 0.02056875
000070 88 58 bd bd 5e 25 bb 3d 9f 96 7a 3c 5c 01 99 bd
       -0.092454016 0.091379866 0.0152947 -0.074709624
000080 60 a6 4f bc a2 81 77 3d 68 69 5f 3d 12 33 ce 3c
       -0.012673944 0.06042636 0.054543883 0.025170837
000090 fc da a9 3d 67 5f 3f 3c 54 33 9d bd b3 f6 aa bd
       0.08293721 0.011680461 -0.07675806 -0.083478354
0000a0 f2 f9 ac 3d cd f7 61 3c ef 61 72 bd 3c c1 15 3c
       0.08446111 0.0137919905 -0.059175428 0.009140309
0000b0 fb 18 c7 bd ab e0 d3 3c 77 8f 9c 3d 72 36 3c bb
       -0.097215615 0.025863966 0.07644551 -0.0028718975
0000c0 10 88 dd 3d 29 78 1a bd f2 c9 b3 3c 59 58 6f bb
       0.108169675 -0.03771225 0.021946881 -0.0036521165
0000d0 5b f7 1e bd cd ac 88 bd 7e e8 a7 3c c8 58 61 bd
       -0.038810115 -0.06673584 0.020496603 -0.05501631
0000e0 f3 c4 a5 3d 50 ba fa bd 29 1f 51 3c 32 56 db bd
       0.08094206 -0.122425675 0.012763777 -0.107098
0000f0 fc 68 ac 3d b9 69 2d 3d fd 5f fe 3d 60 7f 37 bd
       0.08418462 0.042337153 0.12420652 -0.04479921
000100 09 c9 ff bc c0 96 16 bd 4c 0b 34 3d c9 08 69 3c
       -0.03122379 -0.03676486 0.043956086 0.014223286
000110 d2 2d 37 bc 44 2b 38 3d e2 63 af 3c be 5f d5 3c
       -0.011180358 0.044963136 0.021409933 0.02604663
000120 8d 7e a5 3d 84 a1 2c bd ea eb 12 bd 95 d1 d6 3d
       0.08080778 -0.04214622 -0.035869516 0.10489193
000130 ff 9b 5a 37 41 60 88 bc 9c fd 57 bd b9 31 6a bd
       1.3030133e-05 -0.01664746 -0.052732095 -0.057176325
000140 e4 f0 a4 bd 45 e1 f8 3c 4d 24 40 3d 4d a2 e7 3d
       -0.08053759 0.030380854 0.04690962 0.11310253
000150 3d 03 bf bc a9 96 d9 bd f5 5f f0 bd c0 db d6 bb
       -0.023316974 -0.10624439 -0.11737052 -0.006556958
000160 00 89 cc 3d 27 f0 1f 3d 78 12 0b bc 78 c2 b3 3d
       0.09987068 0.039047386 -0.00848829 0.08777326
000170 f5 fc a6 bc 87 97 cf bc 46 5d df bd 54 79 9a 3d
       -0.020384291 -0.025340809 -0.10906462 0.07542673
000180 17 5b f0 bd 78 76 00 bd df 5b b9 bd 3f 10 92 bd
       -0.11736124 -0.03136298 -0.09050726 -0.07132005
000190 45 d9 07 bd 41 38 9d bd 86 e3 df 38 34 64 71 bd
       -0.03316619 -0.07676745 0.00010675848 -0.05893345
0001a0 0a 77 9c 3d 13 1d 85 3d 86 1b 30 3d 86 2e 6f 3d
       0.076398924 0.06499686 0.042995 0.058393978
0001b0 d2 fd da bd 8b d0 0c 3d 9b c4 52 3d db 3b a3 bd
       -0.10692944 0.03437857 0.05145703 -0.07970401
0001c0 da f3 db 3c f6 48 fb bd e2 56 86 bd d3 33 98 3c
       0.026849676 -0.122697756 -0.0655954 0.0185794
0001d0 c7 ff 84 3d ac 45 c6 bd da 14 21 bc a7 d3 cd bd
       0.06494098 -0.096812576 -0.009831632 -0.10050135
0001e0 dd 5e 2c be 9d 8c 22 bb 38 cc 1e be a2 6e 00 bc
       -0.16833062 -0.002480305 -0.15507591 -0.007838877
0001f0 37 3a a3 bb fc 7a 22 bd a2 a7 ff bd db 7c 9f bd
       -0.004981305 -0.03966807 -0.12483145 -0.07787486
000200 9f 48 81 3d b4 25 17 bd 07 67 9a 3d c3 15 12 bd
       0.063126795 -0.03690119 0.07539182 -0.035665285
000210 94 68 cd 3c 2e 25 ff 3d 7f 24 39 3d a2 10 0a bd
       0.02507428 0.12458263 0.04520082 -0.03370727
000220 c0 96 f6 3d 87 53 17 bd d5 b4 8a bd 5f 1a 5c bd
       0.12040472 -0.036944892 -0.06772772 -0.053736087
000230 76 a3 fa bc 1e cb 8d 3d 8c d5 f8 3d bc 91 5b 3c
       -0.030595522 0.06923507 0.12150106 0.013401445
000240 17 f5 46 3d 6c 4d 3f 3c 57 00 aa bd b3 b0 a7 3c
       0.04857358 0.011676174 -0.08300846 0.020469999
000250 a6 ca c7 bd 2d e9 cc bb a9 83 85 3d 17 b7 0e bd
       -0.09755449 -0.0062533827 0.06519253 -0.034842577
000260 49 d6 ae bd 6b 1a ed bc fb 3c 78 3d 36 60 c9 39
       -0.085369654 -0.028943261 0.06060503 0.0003840939
000270 98 38 a7 bd a0 74 ef bd 87 52 d7 3d 19 29 cd 3c
       -0.08165091 -0.11692166 0.10513788 0.025044011
000280 c5 7c 11 3e a0 26 98 bc ef 92 fd 3d 0a b2 98 3d
       0.14207752 -0.018573105 0.12381541 0.07455833
000290 0f a4 a2 bd 90 f0 c5 bd 10 92 ad bd 87 b5 57 bd
       -0.07941448 -0.09665024 -0.08475125 -0.052663352
0002a0 a7 c8 05 be 1e fb 20 be ee a5 c2 3d 5c 52 0b bd
       -0.13064824 -0.15720794 0.09504305 -0.03401409
0002b0 88 75 c1 3d 41 21 dc 3b 10 4f c5 3d 8e a0 5a 3d
       0.094462454 0.0067178314 0.096342206 0.053375773
0002c0 ba 14 1d be af 4d 5b 3c af 84 96 3d 69 03 29 3e
       -0.15339938 0.01338522 0.07349526 0.16505207
0002d0 72 01 d1 bb e0 0f 16 3e 4b 9b ba 39 c2 e2 42 3c
       -0.006378346 0.14654493 0.00035592387 0.011894884
0002e0 b6 18 44 3d e0 3d 71 bd fa ea 34 bd 24 f3 7b bd
       0.04787513 -0.0588969 -0.044169404 -0.061511174
0002f0 ba 07 7b bc 0d b9 2b 3d 08 2c 80 3d 1e 3f 02 be
       -0.015321666 0.041924525 0.06258398 -0.1271939
000300 c2 72 0b 3d 8d 61 46 3c f1 95 f1 3c fe a4 55 bd
       0.03404499 0.012108219 0.029490443 -0.052159302
000310 94 51 f3 3d 64 06 94 bd f4 d5 c4 3d 5c 83 f0 3d
       0.11880794 -0.072277814 0.09611121 0.11743805
000320 fe 81 40 bd 70 c6 5a b9 c2 43 2a bd 75 cf 53 bd
       -0.04699897 -0.00020864024 -0.041568525 -0.05171152
000330 09 1e 21 bd 3b 9d da bd 6d 87 d4 bc ed 58 08 3b
       -0.039335284 -0.106745206 -0.025943482 0.0020804957
000340 ca f2 39 3d e8 ea ce 3c e2 30 26 bd bb 73 84 3d
       0.045397557 0.025258496 -0.040573962 0.06467386
000350 fc 79 4a 3b d9 1b 2e bd dc df 2b bd a9 55 92 3d
       0.0030895462 -0.042507026 -0.041961536 0.07145245
000360 c0 9c 3c 3d 7c d8 c7 ba 40 6c ef 3c fb c4 7f 3c
       0.046047926 -0.0015247012 0.029226422 0.015610929
000370 b4 0f 34 bd d4 0e a3 bd bb 16 85 bd f5 6d 9a bc
       -0.04396029 -0.079618126 -0.06498476 -0.01885126
000380 d0 76 43 3c 48 6f a0 3d ec 8c 04 be d5 59 5b bc
       0.011930183 0.07833725 -0.12944382 -0.013388117
000390 a8 39 30 be e5 3c 19 be 31 36 d1 3c ff 35 5f bc
       -0.17209494 -0.14964636 0.025538536 -0.0136237135
0003a0 f8 38 f8 bb 6a 07 54 3c 64 51 15 3e e5 94 d5 bd
       -0.0075751506 0.012941221 0.1458183 -0.1042879
0003b0 ea a7 39 bd 26 12 1f 3d e8 e0 f3 bd 2d b1 9b 3c
       -0.04532615 0.038835667 -0.11908132 0.019005382
0003c0 8a 03 ce bd 2f 1f ce bc b2 20 2d be b7 ef 1f be
       -0.10059269 -0.025161354 -0.16907004 -0.15618788
0003d0 49 fe 90 36 e4 81 0a bd e9 a8 97 b9 44 af 16 be
       4.321137e-06 -0.03381528 -0.00028926812 -0.14715296
0003e0 be e3 c1 bd 3a f9 ff 3b 20 77 31 3d 79 a4 69 bc
       -0.094672665 0.0078116925 0.043326497 -0.014260405
0003f0 1c 81 85 bd b8 52 96 3d 0a 53 2d 3d de c1 de 3d
       -0.06518766 0.07339996 0.04231552 0.10876821

graphlayers.0.bias f4 [64]
000000 a1 c9 12 be 6b 4d e9 3b 51 39 44 3d bf 80 5b bd
       -0.14334728 0.0071198246 0.047906224 -0.05358958
000010 19 ef 39 bc 29 35 0d 3e e4 7d cc bd 2d f8 cc 3d
       -0.011348509 0.1378981 -0.09984949 0.10008273
000020 a4 f9 02 3d 84 68 f7 3b 14 0d 99 bd 15 d0 5f bc
       0.031976357 0.007550301 -0.074731976 -0.0136604505
000030 f7 f1 71 bc d9 fa ad 3d 94 b1 47 3d 80 91 2e 3d
       -0.014767162 0.08495111 0.048753336 0.04261923
000040 1e 7d 85 bd da 89 dd 3d ab c1 9b bb 4b 54 ce bd
       -0.06518005 0.10817309 -0.0047533116 -0.10074671
000050 65 bd 9b 3d c9 87 7d bd 66 c0 ab 3d 6b 36 25 be
       0.076044835 -0.061897073 0.083863065 -0.1613404
000060 67 21 e4 bc 6e 86 ec bd 63 01 34 3d ac 20 09 3e
       -0.027847959 -0.11549078 0.043946635 0.1339137
000070 f0 14 1e be 17 fd a6 bc bc 50 75 bc 7a 75 21 3d
       -0.15437675 -0.020384355 -0.014972862 0.039418675
000080 aa 14 19 3e 98 5f 13 be 4f 88 a8 3d a5 8e bc 3c
       0.14949289 -0.14391935 0.08229124 0.023017237
000090 d0 1d 8c 3d 71 d3 1d 3e b0 f4 b2 bd 46 c8 e0 bd
       0.06841624 0.1541269 -0.08738077 -0.10975699
0000a0 3f a3 99 bd af 26 24 be 6b 93 00 3d 57 7b a1 bb
       -0.0750184 -0.16030382 0.03139059 -0.0049280333
0000b0 29 61 ce 3b af f8 03 bd e1 d6 f9 3d a2 18 6b bd
       0.0062982035 -0.032219585 0.12199188 -0.05739654
0000c0 97 e3 04 bd e7 45 8a 3d 24 d5 2b 3e 09 15 12 bd
       -0.03244361 0.06751614 0.16780525 -0.035664592
0000d0 4c 1a b2 bd 70 bd 42 bd a2 01 81 3d 75 23 cc bc
       -0.08696422 -0.047543943 0.062991396 -0.024919251
0000e0 14 9f 85 bc 98 6c 02 be 1b d7 be 3d d0 05 5c bd
       -0.016311206 -0.12736738 0.09318372 -0.05371648
0000f0 6c a5 a2 bd 46 5b d5 3d 0a 80 79 bd 0b 9c 98 bd
       -0.07941708 0.104178 -0.060913123 -0.07451638

graphlayers.1.weight f4 [64, 16]
000000 99 22 70 be 61 c8 d5 bc 19 4d 64 3d ab 29 06 bd
       -0.23450698 -0.026096525 0.05573759 -0.03275458
000010 7f 77 0e bd 32 81 39 3e d4 b3 20 3e 0d 6b 3e 3e
       -0.03478193 0.1811569 0.15693599 0.18595524
000020 cc e7 99 3d 91 c0 86 3d 00 a9 61 bb c1 9e 64 3c
       0.07514915 0.06579698 -0.0034433007 0.0139538655
000030 f4 94 4f 3e 6e 5a de bc 7d 94 65 bc 2d 57 53 3e
       0.20271665 -0.02714273 -0.014012453 0.20638724
000040 0c 0f f9 39 b5 4b 87 3b 05 fa 72 be 80 7e 86 3e
       0.00047504192 0.004128898 -0.23728187 0.26268387
000050 06 dd 52 3d 5a f3 88 bd 8a f1 2f 3e b5 b7 30 be
       0.051480316 -0.066870406 0.17181984 -0.17257579
000060 2a 68 f1 bd 6d da 17 3d 8b eb f7 bc 5e e9 01 3e
       -0.11787446 0.03707354 -0.030263683 0.12686679
000070 2b f5 23 3e cf 5e 82 be 5c 1c 6e be f7 80 e6 3a
       0.16011493 -0.25462958 -0.23253006 0.0017586042
000080 9d 9d 9d 3c e3 21 7d be e8 71 bb 3d 07 4e 2a 3d
       0.019240195 -0.24719958 0.09152585 0.04157832
000090 83 62 95 bd 41 71 50 3e ef 19 35 3e 65 fe 69 3e
       -0.0729418 0.20355703 0.17685674 0.2285095
0000a0 10 4c 29 3e ad 1b a3 bd 54 fa 24 be 8c 83 f7 3d
       0.16532922 -0.07964263 -0.16111118 0.120856375
0000b0 b5 66 48 3e 1e 05 5b bd a6 cb 41 3e 85 72 21 bb
       0.1957043 -0.053471677 0.18925342 -0.002463491
0000c0 3a fa 33 3e 1f 2d 9f 3d c2 94 44 3d 6e a2 36 3e
       0.17575923 0.07772278 0.04799343 0.178354
0000d0 a4 59 48 be da d2 9e bd 87 3e 1f be 2a b5 45 3e
       -0.19565445 -0.077550605 -0.15551196 0.1930739
0000e0 7b ee c4 3d 9b dc 35 be 7b e9 fb bd 00 01 00 39
       0.09615799 -0.17759936 -0.12300392 0.00012207404
0000f0 77 9c 18 3d 0a 9f b4 b8 93 ef b8 3d 5c 22 2b be
       0.03725859 -8.612692e-05 0.0903007 -0.16712326
000100 af e3 3d 3d df e4 5c 3d e7 90 60 3b a1 db 4c be
       0.046359714 0.053929206 0.0034266056 -0.20005657
000110 23 3b 50 3e 01 b2 13 be 19 7b ff 3d 1a a2 68 3d
       0.20335059 -0.14423372 0.12474651 0.056795217
000120 f2 b3 d6 b8 68 69 c0 3d 20 7b ac bd f8 63 37 be
       -0.000102378326 0.09395105 -0.08421922 -0.17909229
000130 19 b9 39 3d b4 be 43 be 9f c4 08 3e 2d d1 f3 3d
       0.04534254 -0.19115716 0.13356255 0.119051315
000140 80 0c 4c 3e 2f d2 92 3e 77 17 3a 3e fe fd 91 3e
       0.19926643 0.28675982 0.18173014 0.28514093
000150 8e a5 39 3d 7a ab 10 be 42 b6 85 bd 87 74 8f 3e
       0.0453239 -0.14127913 -0.065289035 0.2801859
000160 67 c4 1c be 48 af c0 3d 0e 40 43 be e9 b6 70 3e
       -0.15309297 0.09408432 -0.19067404 0.23507275
000170 11 fe 03 be e8 7e 48 be 58 74 85 3d 60 f0 0d bd
       -0.12889887 -0.19579661 0.065163314 -0.034653068
000180 a9 37 85 be 3e 50 18 3e 00 2a d0 3d 3d 66 9e bd
       -0.26019028 0.1487436 0.10164261 -0.07734344
000190 1d ba c5 bd ce 73 03 3e c6 4b 28 be 30 01 3f be
       -0.09654639 0.12837145 -0.16435155 -0.18652797
0001a0 e0 fc 07 be 58 24 23 3e 08 7c b5 39 dd 90 9a b9
       -0.13280058 0.15931833 0.0003461542 -0.000294811
0001b0 d9 96 ed 3d 8a 52 87 3e 1c 3f 2d 3e e7 8a 51 be
       0.116010375 0.2643016 0.16918606 -0.20463143
0001c0 1e 1b 22 3e d2 4b e0 3d a7 57 76 be 78 97 61 be
       0.15830657 0.109519616 -0.24056874 -0.22030437
0001d0 6e 96 42 3e f3 7a aa bd 59 0c 28 be 39 b4 5c 3e
       0.19002697 -0.08324232 -0.1641096 0.21553124
0001e0 e7 0e f2 3d b8 8a 26 bd 72 9c 07 be d2 52 10 3d
       0.11819249 -0.040659636 -0.13243273 0.035235234
0001f0 2b 6a 13 be c3 f7 0e 3e ab fc 52 bc cf d9 3c 3d
       -0.14395969 0.13961701 -0.012877624 0.046106156
000200 3d 18 41 3e b9 02 00 3e b5 88 16 be 10 e1 2d bd
       0.18856902 0.12501039 -0.14700587 -0.042450964
000210 ee f4 8a 3c 55 d4 37 3d 6d 3c 6e 3e 18 b7 34 bd
       0.016962495 0.04488023 0.23265238 -0.044119924
000220 c3 a5 1a bc 81 86 11 3e fe 8b dc 3d ed 24 20 3e
       -0.009438935 0.14211465 0.10768889 0.15639086
000230 e6 a9 01 bd ee 7f 19 3e a7 2d a8 3d a2 69 5d 3c
       -0.03165617 0.14990208 0.082118325 0.013513954
000240 c7 2b be bd 86 aa c0 bd 01 29 4e bd 87 e0 1c 3d
       -0.092856936 -0.09407525 -0.050332073 0.038300063
000250 7b fb f1 3d 3e 73 d9 3d 39 a2 99 bc a7 ae d8 3b
       0.11815544 0.10617684 -0.018754112 0.006612617
000260 3d c9 40 3e b3 b1 d1 3d be 12 83 bc 18 22 15 bc
       0.18826766 0.102389716 -0.016000148 -0.009102367
000270 8f 21 4d 3d 42 e4 31 bd 33 30 55 3e 34 91 00 bd
       0.050080832 -0.043430574 0.20819168 -0.031388476
000280 c6 47 66 3e 6f 7d 32 3e 0c c1 f2 bc 6b b3 54 be
       0.22488317 0.17430662 -0.029633068 -0.20771568
000290 e1 08 c5 bb 78 30 35 3e f8 b7 30 be ab d9 74 3e
       -0.0060130213 0.1769427 -0.17257679 0.23911159
0002a0 e2 29 3d bc 8a 55 20 bd 41 f4 92 3d 1e 53 7e 3e
       -0.01154563 -0.039144076 0.07175494 0.24836394
0002b0 88 e9 eb 3d 8a b6 a5 bd fd ad 0b 3d b6 6b de bd
       0.11519152 -0.08091457 0.034101475 -0.10860388
0002c0 95 10 21 be 22 b9 ab bd fc 02 3c be 23 37 b5 3d
       -0.15728982 -0.08384921 -0.18360513 0.08848407
0002d0 ec 7f 47 be 66 bf 6c be 92 80 8f 3e 4f 59 d5 bc
       -0.19482392 -0.23119888 0.2802778 -0.026043562
0002e0 da 2f 15 be f4 1d 10 be 18 6a 1e b8 94 34 56 bc
       -0.14569035 -0.14073926 -3.7768943e-05 -0.013074059
0002f0 76 07 a3 3d 4a fb 36 3e 8e 45 d0 3d 54 52 15 be
       0.079604074 0.17869297 0.101695165 -0.14582187
000300 91 2e 2b bd 16 b3 4d be 2b c5 95 bd 45 1b 09 be
       -0.041792456 -0.20087847 -0.073129974 -0.13389309
000310 f9 47 55 3d 89 a5 17 be 5d 41 59 3d 93 63 8f bd
       0.05207059 -0.1480924 0.05304085 -0.07001414
000320 56 ed 8c 3d 4a 02 85 3d ca d5 52 be f6 0b 82 3d
       0.06881206 0.06494577 -0.20589367 0.063499376
000330 6b af b9 3d e6 7c 7e 3d 20 74 8e b8 b0 b6 38 be
       0.090666614 0.06213083 -6.7927176e-05 -0.1803844
000340 39 42 7d be 59 90 43 be 77 59 42 3d 1a 5f 1b 3d
       -0.24732293 -0.19098033 0.0474486 0.037932493
000350 30 70 45 3e 17 b6 a4 bd dc 56 f0 bd 6f 85 3f 3e
       0.19281077 -0.080425434 -0.11735317 0.18703245
000360 43 17 1a be 24 59 03 be 78 5b 38 bd af a7 2c 3e
       -0.15047936 -0.12826973 -0.045009106 0.16860841
000370 3a 68 2c 3e 51 dd 69 3e 66 59 d4 bc 81 20 e1 bd
       0.16836634 0.22838332 -0.025921535 -0.10992528
000380 6f 75 36 bd fc 87 2c 3e 6f 67 44 3e a9 b9 b7 bd
       -0.044545587 0.16848749 0.19180082 -0.08970959
000390 e5 d1 f1 bd 67 47 45 3b 31 fc 08 3e cf 4a 18 3e
       -0.11807612 0.0030102374 0.13377453 0.14872287
0003a0 bc c1 ca bc cd 60 06 b7 d4 83 f0 bd c8 f1 3a be
       -0.024750583 -8.009561e-06 -0.11743894 -0.18256295
0003b0 6f 60 fd 3d cd 4e 1b be b5 88 84 bd 71 91 c8 3d
       0.12371909 -0.15166779 -0.06471387 0.09793366
0003c0 dc c9 12 be c9 69 41 3e b9 83 fa bd 27 1c f4 3d
       -0.14334816 0.1888801 -0.12232155 0.11919432
0003d0 c9 ba 4e be b1 e2 28 3e e2 83 4c 3e 04 79 af bd
       -0.2018844 0.16492726 0.19972184 -0.08568004
0003e0 4a e5 1a 3e e1 c0 09 3e eb 0e 70 3a 02 83 e8 bd
       0.1512653 0.13452484 0.00091574964 -0.11353113
0003f0 11 c7 13 bd 0e df 1c be ce 78 3d 3e e5 ad aa bb
       -0.036078516 -0.15319464 0.18503115 -0.005208718

graphlayers.1.bias f4 [16]
000000 01 11 d9 3d 8d 51 14 3e b8 b0 08 be 68 b2 cb 3d
       0.10598946 0.14484234 -0.13348663 0.09946138
000010 6d f2 1b be f9 00 19 3e 3e 87 5a 3e fd 50 90 3d
       -0.15229197 0.14941777 0.21340653 0.07046697
000020 b2 ce ef bc 0d e6 37 3d fa ab 4b be c1 bb 4e be
       -0.029273365 0.044897128 -0.19889823 -0.2018881
000030 9e ab 01 be fc 43 f8 3d a4 96 be bd 9e 0e 4e be
       -0.12663123 0.12122342 -0.09306076 -0.20122764

linlayers.0.weight f4 [2, 16]
000000 59 1a 10 be 6a dd ea bd d9 9b 09 be d7 c2 35 be
       -0.14072551 -0.11468013 -0.13438357 -0.17750107
000010 e1 98 50 3e 19 ca 15 3e 40 43 08 be 67 9c 34 3e
       0.20370819 0.14627875 -0.13306904 0.17637788
000020 b0 35 02 be f1 10 51 3d eb be 93 ba 5f 7f 1f 3e
       -0.12715793 0.051041547 -0.0011272108 0.15575932
000030 e0 01 89 3e e4 42 ae 3d d2 34 23 3e b5 63 f8 3d
       0.26759243 0.08508852 0.15938118 0.121283926
000040 94 d3 39 3e b9 6f 02 3e f4 f8 68 be 41 f0 97 3e
       0.18147117 0.12737931 -0.22751218 0.29675487
000050 d0 45 81 3d b6 2d 58 be 7c d8 1d 3e fe 45 0f 3e
       0.06312144 -0.21111187 0.15414613 0.13991544
000060 67 b2 45 3e 09 99 ca bd 67 0f e4 bd 93 5a 69 be
       0.19306336 -0.098924704 -0.1113575 -0.22788458
000070 5a 14 85 3c 4a 99 42 3d ac 7f f5 bd 47 9e 04 3e
       0.016245056 0.04750947 -0.11987242 0.12951003

linlayers.0.bias f4 [2]
000000 3f f1 65 3e 7a 57 71 3d
       0.2245531 0.058921315
