trial_weights_rand.pt (torch, 146450 bytes, 10 tensors)

graphlayers.0.weight f4 [512, 64]
-0.08767223 0.064887434 0.111420155 0.07889191 0.050915226 0.012274168 0.037563436 0.07364407
0.0687976 0.01932756 -0.08586627 -0.108766995 0.010439414 0.112635076 0.02617514 0.062119335
-0.040453363 -0.055215746 0.13404106 0.10942679 0.03240823 0.11057784 -0.085904755 -0.08560539
-0.0075605307 0.0051177093 -0.11881555 -0.06742963 -0.07381616 -0.08034244 0.04909366 0.12257735
0.038269386 0.0809052 -0.12444241 -0.028926503 0.109170265 -0.05578271 -0.10090271 -0.039932396
-0.12295638 -0.0058535575 0.09876381 -0.08303681 -0.050773423 -0.080757365 0.0755247 -0.02379583
-0.015378214 -0.052274723 0.09330076 0.04435884 -0.054619342 0.1240511 -0.02877921 0.0652592
0.06373935 -0.08701466 0.022097223 -0.031579312 0.00048414653 -0.07057641 -0.09624746 0.03441121
-0.01660766 0.0080811875 -0.07576393 -0.06060732 0.050727513 0.109901376 0.08905175 0.06308204
-0.04852838 -0.092786044 0.058639348 -0.099214844 -0.0073741293 0.055940785 -0.07637388 0.014285756
-0.0999733 0.050944723 -0.08895813 0.112791926 0.09401188 0.089892454 -0.07204315 -0.08454529
0.070362374 0.033414487 0.0628955 0.09152081 0.07340774 -0.01152036 0.07372608 -0.03359186
-0.09345996 0.036103833 0.05450883 0.05848699 0.061759654 0.12835085 -0.070333034 -0.12365737
0.08581849 -0.061920058 0.094761476 0.037490167 -0.090034574 -0.057646032 -0.08899673 -0.08034623
-0.082915016 -0.07050489 0.021831771 0.0034474935 0.025149263 0.058611337 -0.07363311 0.12410792
0.06575589 0.093566306 0.011869907 -0.073346406 0.112288065 0.11611606 0.08581862 0.00070454954
-0.018593103 -0.08060237 -0.028611897 0.027667131 0.0017846425 -0.004441243 -0.057127785 -0.1061421
0.017915454 -0.009318652 0.0327745 -0.093004495 -0.11072162 -0.09755999 0.0053839968 0.10930507
0.08130627 -0.12855044 -0.036588002 0.060347456 -0.03692248 0.010172182 -0.096844986 -0.076495156
0.06757514 0.11458069 -0.07179388 0.054510444 -0.061121162 -0.037959453 -0.07994406 0.023466475
-0.027005775 -0.0045766793 0.09886008 -0.052057628 -0.11049099 -0.029466458 0.042916056 0.013104397
0.101543084 0.1043856 -0.05061135 -0.05746787 0.0787291 0.029698538 0.007297045 -0.017460585
0.0130663095 0.10880996 0.010607431 -0.043864638 0.119803146 -0.020823106 0.07138552 0.022329152
0.06396892 0.0019579146 -0.05592227 -0.10019673 -0.02925018 -0.057320192 -0.0993885 -0.099547155
0.065771945 0.10172431 0.009777092 -0.005845226 0.01887499 -0.08112839 -0.02470749 0.017618412
0.047043547 -0.10859188 -0.012290246 0.04462542 0.06931541 -0.10960863 -0.025585914 -0.023622008
-0.06966794 0.018533263 0.054784298 -0.097469814 0.022182563 0.11289108 0.10370838 0.0055351234
0.06401093 0.10580384 0.11946572 0.026923751 -0.11178354 0.038203135 -0.047486674 -0.06486774
-0.09726246 0.054035474 -0.116793506 0.10434257 -0.08232716 0.10872949 0.034231625 -0.049657594
-0.057031002 -0.06423794 0.03370744 -0.070839845 0.10228092 0.06685856 0.07711556 -0.09002504
0.108328804 -0.12091869 -0.09782311 -0.09120328 0.063841514 0.066495895 0.0757726 0.006811313
-0.020253789 0.04112819 0.0027721403 0.09784545 0.07155937 -0.08591964 -0.05556366 0.07033512
00000000: 808d b3bd b4e3 843d 4030 e43d 1592 a13d
00000010: 7c8c 503d 9819 493c 1edc 193d b4d2 963d
00000020: c2e5 8c3d d554 9e3c a8da afbd 3bc1 debd
00000030: 130a 2b3c 38ad e63d 3f6d d63c d870 7e3d
00000040: 6db2 25bd e829 62bd 0f42 093e 271b e03d
00000050: 7ebe 043d a276 e23d d5ee afbd e151 afbd
00000060: 54be f7bb 75b2 a73b 9155 f3bd 8c18 8abd
00000070: ed2c 97bd 948a a4bd 6f16 493d d509 fb3d
00000080: 5cc0 1c3d a0b1 a53d aadb febd 46f7 ecbc
00000090: a994 df3d 697c 64bd 14a6 cebd 2790 23bd
000000a0: 8ed0 fbbd 33cf bfbb ae44 ca3d 340f aabd
000000b0: cbf7 4fbd 1e64 a5bd b2ac 9a3d 79ef c2bc
000000c0: e8f4 7bbc 051e 56bd 7814 bf3d 9db1 353d
000000d0: 88b8 5fbd 810e fe3d 61c2 ebbc 9ea6 853d
000000e0: c789 823d be34 b2bd 3c05 b53c 4f59 01bd
000000f0: 0cd5 fd39 5d8a 90bd 631d c5bd c5f2 0c3d
00000100: ca0c 88bc f566 043c 1f2a 9bbd 623f 78bd
00000110: a7c7 4f3d f913 e13d c460 b63d 2831 813d
00000120: b2c5 46bd 9c06 bebd d02f 703d 2731 cbbd
00000130: aea2 f1bb 2a22 653d e969 9cbd ce0e 6a3c
00000140: cdbe ccbd 6aab 503d ae2f b6bd 74ff e63d
00000150: 4d89 c03d 8919 b83d 5c8b 93bd 1526 adbd
00000160: 261a 903d a1dd 083d 5bcf 803d 436f bb3d
00000170: cc56 963d e4bf 3cbc b3fd 963d 9e97 09bd
00000180: ef67 bfbd 9de1 133d a744 5f3d 0e90 6f3d
00000190: b1f7 7c3d 686e 033e c40a 90bd 1340 fdbd
000001a0: 9bc1 af3d e39f 7dbd 4e12 c23d 4a8f 193d
000001b0: 0c64 b8bd 3f1e 6cbd eb43 b6bd 908c a4bd
000001c0: 59cf a9bd de64 90bd 8bd8 b23c 58ef 613b
000001d0: d405 ce3c 7112 703d f5cc 96bd 4b2c fe3d
000001e0: 06ab 863d b19f bf3d 007a 423c a436 96bd
000001f0: 49f7 e53d 42ce ed3d acc1 af3d 85b1 383a
00000200: 9050 98bc db12 a5bd 7f63 eabc 2ea6 e23c
00000210: aaea e93a d987 91bb d3fe 69bd 0861 d9bd
00000220: 6ec3 923c 42ad 18bc 8e3e 063d 2479 bebd
00000230: 04c2 e2bd 88cd c7bd 3d6c b03b 56db df3d
00000240: e783 a63d baa2 03be 4ddd 15bd e52e 773d
00000250: 073c 17bd 39a9 263c aa56 c6bd 7ea9 9cbd
00000260: d664 8a3d 48a9 ea3d ab08 93bd 5846 5f3d
00000270: 2f5a 7abd 5f7b 1bbd b6b9 a3bd c43c c03c
00000280: 373b ddbc f8f7 95bb 2777 ca3d 613a 55bd
00000290: 1a49 e2bd a463 f1bc bfc8 2f3d d3b3 563c
000002a0: d2f5 cf3d 1ec8 d53d d94d 4fbd 6e63 6bbd
000002b0: b93c a13d 594a f33c 0d1c ef3b 8009 8fbc
000002c0: 1314 563c c2d7 de3d caca 2d3c 68ab 33bd
000002d0: 5a5b f53d 3895 aabc 9232 923d a0eb b63c
000002e0: 2302 833d 5b50 003b c00e 65bd f133 cdbd
000002f0: 139e efbc 94c8 6abd 338c cbbd 61df cbbd
00000300: 71b3 863d d654 d03d 1930 203c 4f89 bfbb
00000310: b99f 9a3c a426 a6bd 5d67 cabc 7d54 903c
00000320: bcb0 403d 6b65 debd 075d 49bc 25c9 363d
00000330: 3df5 8d3d 7d7a e0bd 8d99 d1bc f182 c1bc
00000340: 11ae 8ebd 12d3 973c 8065 603d 419e c7bd
00000350: 35b8 b53c 7033 e73d 0f65 d43d fb5f b53b
00000360: 2a18 833d afaf d83d 72aa f43d 338f dc3c
00000370: c5ee e4bd e47a 1c3d 6381 42bd 61d9 84bd
00000380: 8a31 c7bd 4d54 5d3d 6f31 efbd 8fb1 d53d
00000390: 249b a8bd 91ad de3d 7636 0c3d c365 4bbd
000003a0: 5799 69bd 2e8f 83bd d010 0a3d 7b14 91bd
000003b0: a978 d13d 24ed 883d c3ee 9d3d 0c5f b8bd
000003c0: 7edb dd3d 38a4 f7bd 7c57 c8bd c9c8 babd
000003d0: 57bf 823d 002f 883d aa2e 9b3d 6f31 df3b
000003e0: 46eb a5bc 0876 283d ccac 353b 3263 c83d
000003f0: b88d 923d a3f6 afbd b896 63bd dc0b 903d

graphlayers.0.bias f4 [64]
-0.015268145 0.0006222653 -0.07306944 -0.11120493 -0.023763668 -0.032495204 -0.028471246 0.10534899
0.115681335 0.06839325 0.113519095 -0.11332993 0.011903559 0.053381357 -0.0108455615 -0.026523001
-0.09803409 0.018619673 -0.109582715 0.017464159 0.10554755 0.091942884 -0.017160412 0.030232817
-0.034675304 0.106141545 -0.11483853 0.073208466 0.09306676 0.0023187583 0.017570334 0.079542205
0.08328054 -0.097763054 -0.01920086 0.03809346 -0.07927822 0.016749507 -0.026543794 0.11004373
0.08291347 0.12076713 -0.08423325 -0.007864789 -0.1001099 0.00983998 0.10247667 0.027240627
-0.010143951 0.10492224 0.088716775 0.10491795 -0.09006004 0.01425768 0.10646639 0.03769059
0.09997725 -0.11566579 0.12943952 -0.08520215 0.028787203 -0.038893767 0.07704137 -0.120910004
00000000: 3e27 7abc 841f 233a 6ea5 95bd 69bf e3bd
00000010: 06ac c2bc b119 05bd 883c e9bc 36c1 d73d
00000020: 56ea ec3d c311 8c3d b37c e83d 8619 e8bd
00000030: 2507 433c 69a6 5a3d 95b1 31bc c446 d9bc
00000040: 19c6 c8bd 4988 983c e76c e0bd ff10 8f3c
00000050: 5029 d83d 8d4c bc3d fe93 8cbc d0aa f73c
00000060: b107 0ebd bd60 d93d 7730 ebbd 52ee 953d
00000070: c999 be3d 4ff6 173b a9ef 8f3c 06e7 a23d
00000080: fd8e aa3d ff37 c8bd 1f4b 9dbc e307 1c3d
00000090: 9f5c a2bd 4336 893c 5f72 d9bc 9b5e e13d
000000a0: 8ace a93d c254 f73d 7b82 acbd 51db 00bc
000000b0: 6b06 cdbd de37 213c 4adf d13d bc27 df3c
000000c0: d032 26bc 79e1 d63d 24b1 b53d 39df d63d
000000d0: 6671 b8bd 0b99 693c 0d0b da3d 7361 1a3d
000000e0: dfc0 cc3d 30e2 ecbd cb8b 043e 777e aebd
000000f0: 24d3 eb3c 124f 1fbd dec7 9d3d aa9f f7bd

graphlayers.1.weight f4 [64, 32]
0.16444235 0.07690492 -0.14207189 -0.15742494 0.041351218 -0.054059926 0.15216002 0.108758844
-0.1342429 -0.15095231 -0.0640447 0.03388537 -0.07410788 -0.117237896 -0.031842545 -0.11311188
-0.117072575 -0.15122819 0.11149246 0.084429346 -0.14033447 -0.09531 0.020949248 -0.03697012
-0.11911415 -0.04743287 0.1817821 -0.033624586 -0.06705325 0.12579662 -0.15002452 0.11160725
0.045221295 -0.10149552 0.0368012 0.14493866 0.13184324 -0.045536373 0.13479994 0.0148555385
-0.07124922 0.068432406 -0.07250677 0.0014055535 0.00014709182 -0.11245099 0.022682248 -0.15271796
-0.041517258 0.028838927 0.12785175 -0.1132522 -0.0740945 0.13058959 0.14592297 0.034266096
-0.14986068 0.103589505 -0.00029834686 -0.14184575 0.040056407 0.064491175 -0.101119556 -0.08958036
-0.10521887 0.11123272 -0.08619669 0.012686636 0.075104244 0.18462893 -0.1262353 0.13133234
0.08048442 -0.13469674 0.021375299 -0.0033760602 -0.05106742 0.0073339464 -0.042313814 -0.090119876
0.038777635 -0.081394866 0.17202349 -0.13884535 0.16788565 -0.047826633 0.11043162 0.072317466
0.158467 0.00882319 -0.1448013 -0.085698485 0.017433695 0.11065722 -0.016760683 0.07254298
0.12049803 -0.15955716 0.08282791 0.021232547 -0.11886794 -0.09656532 -0.002831727 -0.09339287
0.012079671 0.14394902 0.0023474218 -0.04278301 0.15295814 -0.1189303 -0.029338317 -0.050724708
0.13969469 -0.047966607 0.13979743 -0.03638888 0.16044319 0.017999988 0.053376388 0.13485558
0.112187184 0.053960677 -0.100070804 -0.089663565 0.16045949 0.098228656 -0.16239287 0.1351928
-0.047475524 -0.17048362 -0.13448529 -0.09648995 0.1288706 0.111614354 -0.11964661 0.14814992
-0.11936337 -0.061775636 -0.09384034 0.04197486 0.14313993 0.023291014 0.00045656075 -0.00058556185
0.04983971 -0.010964153 0.10187106 0.025701733 -0.14286087 -0.13623387 -0.16187368 0.000100056866
-0.017703703 0.12050037 0.17030077 -0.15294118 0.020546218 -0.08992482 -0.014680003 0.003367223
-0.075564586 -0.009397457 -0.14319237 0.104417115 -0.061794188 -0.15099964 -0.09072551 -0.13723512
-0.098293774 -0.059229713 -0.104327105 0.029813576 0.1136931 -0.13052984 -0.05711777 0.06049967
0.09350517 -0.108711064 0.16282347 0.066168785 0.07473096 0.11734243 -0.035757672 -0.021812303
-0.1002527 -0.13308582 0.13292418 0.00068098644 0.054480974 0.07510533 -0.16707876 -0.16863962
-0.03894415 -0.058389734 -0.010716049 -0.011045038 -0.057652246 -0.12806779 0.01315725 0.096601814
-0.032426663 0.16435607 -0.1042548 -0.08961702 0.009266653 0.06978619 -0.0768461 0.10170082
0.036619 -0.0022566312 0.1694103 0.057669632 0.06364914 0.062535085 0.0949663 0.14916316
-0.03303672 -0.149796 0.1251197 -0.13612053 -0.032930262 -0.046951424 -0.0686693 0.07139769
0.07370888 0.09155791 0.058079213 0.17273101 0.106738485 -0.11028 0.06659793 -0.15915635
0.17811711 -0.0006908813 0.113036506 0.131619 0.07154365 0.0823986 0.10628845 0.13979521
-0.047063656 -0.12966399 0.05231989 0.16088031 0.017395314 -0.10801102 0.014207507 0.13067423
-0.049456622 -0.08425245 0.13416776 0.066308 -0.008814637 -0.120403096 0.15231986 0.012567421
00000000: 9363 283e 5480 9d3d 4b7b 11be 0134 21be
00000010: e55f 293d f16d 5dbd d6cf 1b3e f5bc de3d
00000020: f976 09be 3e93 1abe de29 83bd 63cb 0a3d
00000030: dfc5 97bd 6c1a f0bd 546d 02bd 34a7 e7bd
00000040: bfc3 efbd 90db 1abe 2956 e43d 4be9 ac3d
00000050: d7b3 0fbe e431 c3bd c29d ab3c fb6d 17bd
00000060: 1ff2 f3bd f848 42bd 1625 3a3e efb9 09bd
00000070: 3753 89bd d4d0 003e 07a0 19be 5892 e43d
00000080: f739 393d e2dc cfbd dbbc 163d cd6a 143e
00000090: ea01 073e 5984 3abd ff08 0a3e a564 733c
000000a0: 1ceb 91bd 4a26 8c3d 6e7e 94bd 8d3a b83a
000000b0: a93c 1a39 b44c e6bd 1fd0 b93c 1962 1cbe
000000c0: 000e 2abd 9d3f ec3c 92eb 023e c5f0 e7bd
000000d0: dbbe 97bd 47b9 053e d56c 153e 9b5a 0c3d
000000e0: 1475 19be bc26 d43d 706b 9cb9 0340 11be
000000f0: 3012 243d f313 843d c517 cfbd e875 b7bd
00000100: fe7c d7bd fbcd e33d e487 b0bd 9cdb 4f3c
00000110: 41d0 993d 5e0f 3d3e d443 01be fc7b 063e
00000120: 04d5 a43d f1ed 09be 401b af3c e440 5dbb
00000130: 122c 51bd 9a51 f03b 4051 2dbd c590 b8bd
00000140: 4cd5 1e3d 5ab2 a6bd ed26 303e 7a2d 0ebe
00000150: 37ea 2b3e dce5 43bd f929 e23d 2e1b 943d
00000160: 2c45 223e 248f 103c cb46 14be b082 afbd
00000170: 1cd1 8e3c 41a0 e23d b34d 89bc 6a91 943d
00000180: acc7 f63d f462 23be aea1 a93d e1ef ad3c
00000190: 0971 f3bd 0ac4 c5bd 7f94 39bb c344 bfbd
000001a0: d0e9 453c 5f67 133e 34d7 193b 3d3d 2fbd
000001b0: 0fa1 1c3e bb91 f3bd e956 f0bc b6c4 4fbd
000001c0: 200c 0f3e a278 44bd 0f27 0f3e 820c 15bd
000001d0: 384b 243e b674 933c 33a1 5a3d 9517 0a3e
000001e0: 65c2 e53d df05 5d3d ecf1 ccbd 88a1 b7bd
000001f0: 7e4f 243e 1b2c c93d 514a 26be fb6f 0a3e
00000200: b275 42bd 4293 2ebe 83b6 09be 869c c5bd
00000210: a8f6 033e 1196 e43d 4809 f5bd 9db4 173e
00000220: c874 f4bd 7308 7dbd 5d2f c0bd d5ed 2b3d
00000230: 4693 123e cccc be3c 8c5e ef39 6480 19ba
00000240: b924 4c3d fea2 33bc c6a1 d03d 718c d23c
00000250: 1f4a 12be e480 0bbe 37c2 25be 9fd5 d138
00000260: 5b07 91bc e6c8 f63d 5363 2e3e 9d9c 1cbe
00000270: 8b50 a83c 812a b8bd 6584 70bc a1ac 5c3b
00000280: 9bc1 9abd cbf7 19bc 05a1 12be a4d8 d53d
00000290: e71b 7dbd a69f 1abe 4cce b9bd 5d87 0cbe
000002a0: 3f4e c9bd db9a 72bd 73a9 d5bd 9a3b f43c
000002b0: eed7 e83d 9da9 05be 53f4 69bd 81ce 773d
000002c0: a37f bf3d e8a3 debd 32bb 263e 8083 873d
000002d0: 8c0c 993d 3a51 f03d a376 12bd b7af b2bc
000002e0: 4a51 cdbd a647 08be 471d 083e 3a84 323a
000002f0: 7127 5f3d d3d0 993d b216 2bbe ddaf 2cbe
00000300: e783 1fbd 132a 6fbd 5e92 2fbc 3ff6 34bc
00000310: c324 6cbd 3424 03be 8291 573c 2cd7 c53d
00000320: d2d1 04bd f54c 283e 8a83 d5bd 2189 b7bd
00000330: 29d3 173c 10ec 8e3d 7d61 9dbd 8548 d03d
00000340: cefd 153d fde3 13bb e579 2d3e fe36 6c3d
00000350: 7b5a 823d 6512 803d b17d c23d 3abe 183e
00000360: 8351 07bd 1f64 19be 611f 003e 2e63 0bbe
00000370: e2e1 06bd 2350 40bd 7da2 8cbd f438 923d
00000380: aef4 963d b782 bb3d 78e4 6d3d 66e0 303e
00000390: b599 da3d 7bda e1bd 7f64 883d e2f9 22be
000003a0: 5564 363e 421c 35ba af7f e73d 22c7 063e
000003b0: 7a85 923d 99c0 a83d c2ad d93d 7a26 0f3e
000003c0: d2c5 40bd a3c6 04be 624d 563d cfbd 243e
000003d0: 9e80 8e3c e234 ddbd 9ac6 683c 77cf 053e
000003e0: 0793 4abd 8c8c acbd 4663 093e 7dcc 873d
000003f0: 446b 10bc e695 f6bd bdf9 1b3e 96e7 4d3c

graphlayers.1.bias f4 [32]
0.10645524 -0.047580402 -0.123071425 -0.04509848 -0.06311288 -0.17461762 -0.15074448 -0.113045365
0.00141231 0.09590143 -0.10020322 -0.15336908 0.006906069 -0.15725298 0.08255267 -0.034182712
0.009658209 -0.091796555 0.15547547 0.13853423 0.081501566 0.05119029 -0.025844673 -0.09928077
-0.053694256 -0.15168436 -0.036025424 -0.047555894 -0.09028916 -0.113049455 0.15804167 0.16557227
00000000: 3405 da3d abe3 42bd df0c fcbd 2fb9 38bd
00000010: 5341 81bd f6ce 32be c35c 1abe 5484 e7bd
00000020: 431d b93a f867 c43d 5937 cdbd c90c 1dbe
00000030: 4e4c e23b ed06 21be 6011 a93d 2c03 0cbd
00000040: 773d 1e3c d5ff bbbd f634 1f3e ebdb 0d3e
00000050: 4bea a63d e9ac 513d 35b8 d3bc b753 cbbd
00000060: 82ee 5bbd 2553 1bbe 658f 13bd f8c9 42bd
00000070: 86e9 b8bd 7986 e7bd add5 213e c78b 293e

graphlayers.2.weight f4 [32, 16]
-0.16145755 0.11986543 0.012058515 -0.20926891 -0.18780212 -0.25363842 0.1491689 0.05859344
0.0793139 -0.11585029 -0.01564882 -0.020162875 0.24517943 0.11682713 0.11865053 0.1648482
-0.15891731 0.22973822 0.21197417 -0.04538219 -0.059365425 -0.14303197 -0.10697597 0.15442967
0.017181594 -0.125943 -0.059875924 0.04353236 -0.053653806 -0.25835818 -0.05158779 -0.09033324
-0.023791598 0.17825668 0.18762416 0.04907112 -0.09318057 0.009148611 0.181982 0.20288748
0.12538604 -0.222065 -0.008853303 0.19948271 0.012058569 0.22664738 -0.19278808 -0.041357443
-0.12704532 -0.18660225 -0.098215245 0.089302555 0.23428546 0.0012428794 0.23174879 -0.13014269
-0.07956712 0.11304559 -0.06462065 -0.24869753 0.11201709 -0.11644365 0.1599284 -0.06334737
-0.05742347 -0.027107287 -0.21280943 -0.035479136 -0.18659185 0.0436937 -0.117236435 0.048218325
0.1278431 0.19734837 -0.021577287 0.038086925 0.19557959 0.13803364 0.19682643 -0.13776784
0.12904164 0.2067009 0.09674298 0.0267764 0.14970753 0.17513159 -0.11087893 -0.013520224
-0.07877929 -0.1303149 -0.06761262 -0.013725931 -0.052662984 -0.021578534 -0.13465492 -0.1846292
-0.04346949 0.093516156 0.0034281046 -0.14754876 -0.099866435 0.0120401 0.23710409 0.052290265
0.096048616 0.03203173 0.04273946 0.18401302 0.21359666 0.031050736 -0.0035694782 -0.002676547
0.082958 0.19535296 -0.08033526 0.0649425 0.08995859 -0.021705478 -0.18092611 0.0005023016
0.03439385 -0.104219034 0.048789237 -0.046661723 -0.22904083 0.25358215 0.015108252 0.12143444
-0.15621288 -0.17336825 0.22282496 -0.08145658 -0.08352158 0.13963623 0.11367232 0.10970811
0.041524623 0.23510346 -0.16590674 0.030234603 0.06993572 0.20046562 -0.07635248 0.17581275
-0.09385483 0.12865205 0.063254006 0.07366375 0.19056474 0.12796366 0.034896873 -0.21034338
-0.12680587 -0.10983404 0.18884559 -0.030283902 0.021094978 0.19014889 0.102713615 0.064647
0.071015105 0.060517285 -0.19066037 0.13175482 -0.04262845 0.07084829 0.09789875 0.15026009
0.15290546 -0.14431559 0.16401507 -0.0830571 0.106951155 -0.15759978 -0.14599523 0.044846043
-0.18262133 0.0822537 0.18661281 0.021979049 0.22355527 -0.17038375 -0.14840247 0.009519683
0.19662213 -0.13552321 0.10359529 0.17672239 -0.06732989 -0.058147695 -0.23001301 -0.10427246
-0.16411263 0.21118873 0.11898895 0.091126636 -0.21696271 -0.060788225 -0.062258363 -0.09239316
-0.07903303 0.25036696 0.09979667 -0.23988217 0.1295996 0.022934418 -0.08186091 0.2485266
-0.15354215 -0.06729025 0.009903998 -0.14211434 -0.07572604 -0.1376942 0.029325197 -0.062199306
-0.22649877 -0.16892907 -0.14747007 -0.2328789 -0.21311052 -0.06258443 0.13545656 -0.14182039
0.14926924 -0.23700675 -0.14319588 -0.16523224 -0.0406665 -0.059663396 -0.0042193583 0.030737044
0.021519711 0.073252305 -0.0063887 -0.004229709 0.12541506 -0.22673592 0.073298305 -0.09264887
-0.045248184 0.010974076 0.071112655 0.13149576 0.17747803 0.23016676 -0.12850413 0.16694061
-0.105740435 -0.18757674 0.13545106 0.19054964 0.112522826 -0.16393599 0.018451547 -0.09786278
00000000: 2155 25be 027c f53d 1491 453c 974a 56be
00000010: 334f 40be e5dc 81be bbbf 183e adff 6f3d
00000020: 536f a23d eb42 edbd f431 80bc 9d2c a5bc
00000030: 5110 7b3e 1043 ef3d 0dff f23d f7cd 283e
00000040: 38bb 22be 7f40 6b3e c20f 593e ade2 39bd
00000050: 2929 73bd f976 12be 3816 dbbd d022 1e3e
00000060: 6ac0 8c3c 34f7 00be 7540 75bd fd4e 323d
00000070: 18c4 5bbd 8647 84be b84d 53bd a200 b9bd
00000080: 99e6 c2bc eb88 363e 8c20 403e ccfe 483d
00000090: 74d5 bebd 0ee4 153c 7d59 3a3e bcc1 4f3e
000000a0: 3365 003e 0265 63be 720d 11bc 3245 4c3e
000000b0: 4e91 453c 4016 683e 3d6a 45be 6c66 29bd
000000c0: 2b18 02be a914 3fbe 1325 c9bd 42e4 b63d
000000d0: 87e8 6f3e 1de8 a23a 8e4f 6d3e 2044 05be
000000e0: 16f4 a2bd 7284 e73d d557 84bd 91aa 7ebe
000000f0: 3769 e53d 027a eebd 45c4 233e 44bc 81bd
00000100: df34 6bbd 1a10 debc b7ea 59be 9252 11bd
00000110: ef11 3fbe 2af8 323d a819 f0bd 9480 453d
00000120: 4de9 023e b115 4a3e dac2 b0bc 0901 1c3d
00000130: 0446 483e b158 0d3e de8c 493e 0313 0dbe
00000140: 7e23 043e 67a9 533e 2f21 c63d 2e5a db3c
00000150: ee4c 193e b255 333e 7e14 e3bd ee83 5dbc
00000160: 0957 a1bd 4571 05be 7c78 8abd bae2 60bc
00000170: 24b5 57bd 77c5 b0bc fbe2 09be 700f 3dbe
00000180: 100d 32bd 6685 bf3d 0daa 603b 0617 17be
00000190: c686 ccbd d743 453c 6acb 723e 512e 563d
000001a0: 23b5 c43d b433 033d 920f 2f3d e96d 3c3e
000001b0: 15b9 5a3e 1d5e fe3c e8ed 69bb 0269 2fbb
000001c0: e2e5 a93d 9b0a 483e d086 a4bd 9300 853d
000001d0: 363c b83d b0cf b1bc b244 39be e4ac 033a
000001e0: 91e0 0c3d ca70 d5bd 39d7 473d 5d20 3fbd
000001f0: ae89 6abe 85d5 813e 9a88 773c 9fb2 f83d
00000200: 45f6 1fbe 7287 31be 3a2c 643e b5d2 a6bd
00000210: 5d0d abbd cdfc 0e3e 09cd e83d a5ae e03d
00000220: b915 2a3d f6be 703e 75e3 29be 8fae f73c
00000230: 753a 8f3d dc46 4d3e b05e 9cbd 4208 343e
00000240: f636 c0bd 5dbd 033e 518b 813d 05dd 963d
00000250: 6723 433e e808 033e 06f0 0e3d 4164 57be
00000260: 66d9 01be abf0 e0bd bd60 413e f215 f8bc
00000270: 60cf ac3c 64b6 423e 845b d23d a565 843d
00000280: 5e70 913d f9e0 773d 793c 43be bcea 063e
00000290: 2b9b 2ebd e918 913d 247f c83d c8dd 193e
000002a0: 4093 1c3e 77c7 13be 91f3 273e d719 aabd
000002b0: 3509 db3d d661 21be c67f 15be 7cb0 373d
000002c0: 1601 3bbe a174 a83d 6e17 3f3e 680d b43c
000002d0: aceb 643e 1479 2ebe d1f6 17be 72f8 1b3c
000002e0: 5057 493e 99c6 0abe c429 d43d b7f6 343e
000002f0: 41e4 89bd 472c 6ebd 8888 6bbe cd8c d5bd
00000300: 240d 28be dc41 583e 7bb0 f33d 9aa0 ba3d
00000310: 792b 5ebe 13fd 78bd a002 7fbd a038 bdbd
00000320: 12dc a1bd 1930 803e 3262 cc3d aca3 75be
00000330: c2b5 043e f6e0 bb3c b1a6 a7bd c27d 7e3e
00000340: 273a 1dbe 78cf 89bd 6144 223c 6c86 11be
00000350: 4116 9bbd b5ff 0cbe 653b f03c b3c4 7ebd
00000360: 4bef 67be befb 2cbe 6502 17be ce77 6ebe
00000370: a539 5abe 442c 80bd 20b5 0a3e 5d39 11be
00000380: 09da 183e e6b1 72be f1a1 12be a432 29be
00000390: ea91 26bd 9b61 74bd 8b42 8abb 41cc fb3c
000003a0: 1b4a b03c 4e05 963d 4d58 d1bb 5f99 8abb
000003b0: ce6c 003e 762d 68be 6c1d 963d b1be bdbd
000003c0: 2956 39bd 9ccc 333c 83a3 913d d3a6 063e
000003d0: cdbc 353e d6b0 6b3e 9696 03be 7bf2 2a3e
000003e0: 718e d8bd 1e14 40be afb3 0a3e 721f 433e
000003f0: 5e72 e63d d6de 27be b327 973c 486c c8bd

graphlayers.2.bias f4 [16]
-0.197208 0.03917035 0.08807801 0.023893427 -0.049337957 0.039752293 -0.23056021 -0.19976841
0.1403962 -0.057993867 0.25980738 0.11087185 0.1699385 0.21367046 0.12492251 -0.009944235
00000000: e5f0 49be 1771 203d 3e62 b43d 26bc c33c
00000010: 9916 4abd 4dd3 223d fa17 6cbe 1790 4cbe
00000020: 05c4 0f3e fa8a 6dbd 7905 853e c810 e33d
00000030: 5c04 2e3e 6ecc 5a3e 5fd7 ff3d 25ed 22bc

linlayers.0.weight f4 [8, 16]
0.06546966 0.10342404 -0.06550188 -0.05682957 -0.21401091 0.17692557 -0.18803619 -0.0027132179
-0.03516874 0.059273038 0.115900934 0.20833161 0.05957522 0.11817573 -0.17965008 -0.049284004
0.15793318 0.032449454 0.17260785 -0.21068831 -0.05772821 0.055497013 -0.016231397 -0.13991116
0.012008574 -0.24026717 0.1098633 -0.10024623 0.18931633 0.1524859 -0.15078929 0.012360689
0.13192199 -0.097351246 -0.13466506 -0.13651304 -0.19775549 0.2087651 -0.19598745 0.013356975
0.07027721 0.020028124 0.12752494 0.018453896 -0.016762732 -0.20749055 0.19858868 0.2310306
-0.057744518 0.12359286 -0.19480507 -0.034464385 -0.17273676 0.13484801 0.054381978 0.046689585
-0.2400338 0.22450165 0.23976496 0.046083074 0.120250374 -0.1647626 0.19295484 0.066186875
-0.04752125 0.0752669 0.005434547 -0.1986558 -0.01369551 -0.08849947 0.056088373 -0.13255073
0.040826693 -0.20312993 0.07895013 -0.12152583 -0.16898464 -0.053095415 0.23609444 -0.23245189
-0.003399399 0.023629315 0.014709053 0.009944631 -0.07310547 -0.20551005 -0.007829945 -0.04603551
-0.07275923 -0.01944049 -0.023094514 0.091580085 -0.1759037 -0.05746344 0.09351752 -0.12896045
0.08436086 0.07258078 0.08590984 0.20665783 0.1316196 -0.16880026 -0.034081947 -0.108408466
0.031614143 0.05224858 0.23481171 0.008326441 -0.25138834 -0.027519424 0.14928053 -0.09863542
0.0188291 -0.15389268 0.011758884 0.18529555 -0.18059272 -0.22830418 0.19263262 0.19822006
0.09175784 0.0011283624 0.20382684 -0.056683406 0.20964554 0.17969711 0.20310101 -0.23077951
00000000: f514 863d fccf d33d da25 86bd 20c6 68bd
00000010: ad25 5bbe fa2b 353e 8f8c 40be 3ed0 31bb
00000020: 190d 10bd 49c8 723d 785d ed3d e254 553e
00000030: 2505 743d 1e06 f23d 31f6 37be 06de 49bd
00000040: 3cb9 213e b8e9 043d 1dc0 303e adbe 57be
00000050: 6a74 6cbd d650 633d b5f7 84bc df44 0fbe
00000060: 9cbf 443c 9908 76be 0300 e13d e54d cdbd
00000070: 24dc 413e 4425 1c3e 8268 1abe 7d84 4a3c
00000080: 8f16 073e 1760 c7bd a3e5 09be 13ca 0bbe
00000090: 6a80 4abe 85c6 553e efb0 48be 37d7 5a3c
000000a0: 7fed 8f3d 0512 a43c e695 023e a02c 973c
000000b0: ff51 89bc 6778 54be d55a 4b3e 4993 6c3e
000000c0: 8485 6cbd 411e fd3d fb7a 47be 872a 0dbd
000000d0: e8e1 30be 9915 0a3e a3bf 5e3d 943d 3f3d
000000e0: 6ccb 75be c3e3 653e f284 753e 9bc1 3c3d
000000f0: d445 f63d 87b7 28be f495 453e fc8c 873d
00000100: a4a5 42bd 8825 9a3d 4914 b23b 6d6c 4bbe
00000110: 2263 60bc 363f b5bd ecbc 653d 61bb 07be
00000120: e439 273d 4b01 50be 9bb0 a13d 89e2 f8bd
00000130: 4f0a 2dbe 947a 59bd bec2 713e de07 6ebe
00000140: 74c8 5ebb 4492 c13c 3dfe 703c ceee 223c
00000150: 52b8 95bd 3a71 52be 2b49 00bc bb8f 3cbd
00000160: cb02 95bd aa41 9fbc b530 bdbc 578e bb3d
00000170: 1920 34be c95e 6bbd 1d86 bf3d 350e 04be
00000180: 63c5 ac3d 3ba5 943d 80f1 af3d 1c9e 533e
00000190: 4ac7 063e fad9 2cbe 8399 0bbd 4205 debd
000001a0: d57d 013d 9b02 563d 7b72 703e a06b 083c
000001b0: f9b5 80be 6a70 e1bc ffdc 183e 5e01 cabd
000001c0: 7c3f 9a3c 0b96 1dbe 56a8 403c 1ebe 3d3e
000001d0: 4ced 38be 92c8 69be 7c41 453e 33fa 4a3e
000001e0: 89eb bb3d 8fe5 933a fcb7 503e dc2c 68bd
000001f0: 52ad 563e 8502 383e b6f9 4f3e 7751 6cbe

linlayers.0.bias f4 [8]
0.13161412 0.17917334 0.097146995 -0.07857412 -0.046616536 -0.20451026 -0.08660634 -0.16170584
00000000: dac5 063e 3779 373e 01f5 c63d 78eb a0bd
00000010: fbf0 3ebd 236b 51be aa5e b1bd 3796 25be

linlayers.1.weight f4 [2, 8]
-0.3077604 0.0006579581 0.3286384 -0.1337267 -0.020736506 0.29489297 -0.3077796 0.030653842
0.16186008 -0.08756469 -0.30407998 -0.14574358 0.034281727 0.24136643 0.02493894 -0.16881743
00000000: c592 9dbe d27a 2c3a 4b43 a83e a7ef 08be
00000010: 9bdf a9bc 36fc 963e 4a95 9dbe c41d fb3c
00000020: a6be 253e 1e55 b3bd 5fb0 9bbe ce3d 15be
00000030: ff6a 0c3d c328 773e bf4c cc3c 7ade 2cbe

linlayers.1.bias f4 [2]
-0.2004579 0.15806103
00000000: d644 4dbe c0da 213e
