w_single_large.pt (torch, 30612 bytes, 8 tensors)

graphlayers.0.weight f4 [64, 64]
0	0xbc2112b5	-0.00983112
1	0xbde98e47	-0.114040904
2	0x3e302088	0.1719991
3	0x3bac7233	0.005262637
4	0xbd837d99	-0.0642044
5	0xbe4bf1f0	-0.1991651
6	0x3d13c4c7	0.036076333
7	0x3d3f2524	0.04666628
8	0x3d9f58b8	0.07780594
9	0x3dce5eec	0.10076699
10	0x3e3bad28	0.18327773
11	0x3d90a502	0.07062723
12	0xbca40ccd	-0.020025635
13	0xbcb21776	-0.021739703
14	0x3de6ffac	0.11279234
15	0x3d81955d	0.06327317
16	0xbb119cda	-0.0022218735
17	0xbdbc9f42	-0.092100635
18	0x3c8f1a84	0.017468698
19	0x3e37b488	0.17939961
20	0x3e0f45d8	0.13991487
21	0xbd65d570	-0.056111753
22	0x3ccdd572	0.025126193
23	0x3c6d563a	0.01448589
24	0xbd47fcbe	-0.048825018
25	0xbe46b205	-0.19403847
26	0x3d9e96ec	0.0774363
27	0x3e056cc0	0.13029766
28	0x3de42ae3	0.111409925
29	0x3ddacedf	0.10683989
30	0xbe1b13bc	-0.15144247
31	0xbe12f912	-0.14352825
32	0x3d8f1b4e	0.0698763
33	0x3c8978f1	0.016781302
34	0x3d2d2920	0.042275548
35	0x3e0c4f7b	0.13702194
36	0xbd41ab90	-0.047282755
37	0x3c62a5f3	0.013833511
38	0x3d274cea	0.040844835
39	0x3df68d14	0.12038627
40	0xbd8dac1d	-0.06917594
41	0xbe3e92dc	-0.1861071
42	0xbc746e94	-0.014918942
43	0x3c73a0c0	0.014869869
44	0xbb8c58aa	-0.0042830305
45	0xbe14f573	-0.14546756
46	0x3d0b0b73	0.033946466
47	0xbc41e4e1	-0.011834354
48	0x3e051595	0.12996514
49	0x3dcaaf8f	0.098967664
50	0xbcd449ac	-0.025914036
51	0x3dcf1ebf	0.10113286
52	0x3dd56785	0.104201354
53	0xbe24b25a	-0.1608366
54	0xbcdaf481	-0.026727917
55	0xbd1c45e4	-0.03815259
56	0x3e4df8d4	0.20114452
57	0xbda10e4a	-0.078640535
58	0xbd46e89d	-0.04856168
59	0xba9b7429	-0.001186018
60	0x3e29cf76	0.16583046
61	0xbc9c88da	-0.019108225
62	0x3da10ca2	0.07863738
63	0x3e2b13d2	0.1670678
64	0xbd211e6b	-0.03933565
65	0xba806a06	-0.0009797222
66	0xbd055c4b	-0.03255872
67	0xbbb9a6ac	-0.005665621
68	0xbd37bc34	-0.04485722
69	0x3ce0b351	0.027429255
70	0x3780c7f6	1.5351903e-05
71	0x3538c4b2	6.883157e-07
72	0x382b7c5a	4.088539e-05
73	0x3d2c06d8	0.041998714
74	0x3c01feb3	0.00793426
75	0xbc96a701	-0.01839018
76	0x39dfc38b	0.00042679565
77	0x3abed837	0.0014560287
78	0xb9581c46	-0.00020609898
79	0xbc4abca9	-0.012374082
80	0xb5eaf023	-1.7504248e-06
81	0xbd42b135	-0.04753228
82	0x3c74d831	0.014944122
83	0xbd09adcd	-0.033613015
84	0x3d4a2b9a	0.049357988
85	0xbbeba44c	-0.0071912166
86	0xbc099102	-0.008396389
87	0xba8ea45e	-0.0010882725
88	0x36b817c3	5.4863935e-06
89	0xb9dcc158	-0.00042105722
90	0xbc048a1a	-0.008089567
91	0x37945144	1.7680817e-05
92	0xbce090aa	-0.027412731
93	0x3d8851b6	0.0665621
94	0xbcfa3852	-0.030544434
95	0xbd0cea7b	-0.034403306
96	0x3c640f14	0.0139196105
97	0x3ab59571	0.0013853741
98	0xbd56ef05	-0.05247404
99	0xbcd0d99e	-0.025494393
100	0x3d46dd27	0.04855075
101	0x3b4c8626	0.0031207888
102	0x39d42174	0.00040460716
103	0xbc2cf8f4	-0.010557402
104	0x3d86e966	0.06587486
105	0x3784833a	1.5796733e-05
106	0x3ce597cb	0.028026482
107	0xbc9f3b3c	-0.019437425
108	0xbd0a2683	-0.033728134
109	0xbd6bc573	-0.05756135
110	0x3d810660	0.06300044
111	0x3c45dae4	0.012076113
112	0xbba9fedb	-0.005187852
113	0xbd71d412	-0.059040137
114	0xb5a04357	-1.1940527e-06
115	0xbc300f07	-0.01074577
116	0x3d90d2d0	0.07071459
117	0x3c5cbf91	0.013473407
118	0x3d1aa696	0.037756525
119	0xbce978c9	-0.028499978
120	0xbd66bb76	-0.05633112
121	0xbd1efa37	-0.038812842
122	0x3d30c4ad	0.043156315
123	0x3d252332	0.040316768
124	0x3d688445	0.056766767
125	0x3d81e5c9	0.06342656
126	0xb96ed2d3	-0.00022775987
127	0x3c96b1cb	0.018395325
128	0xbd709936	-0.058739863
129	0xbe3c84a3	-0.18409972
130	0x3e03a800	0.12857056
131	0x3d0785b3	0.03308649
132	0x3df2d5f8	0.118572176
133	0xbd87142d	-0.06595645
134	0x3d7760ac	0.060394928
135	0x3e4270ed	0.1898839
136	0x3e062788	0.13101017
137	0x3df8f8c5	0.12156824
138	0x3e1f36ae	0.15548202
139	0x3e039761	0.12850715
140	0x3d68dc5a	0.05685077
141	0xbe219fc2	-0.15783599
142	0x3d13de16	0.03610047
143	0xbcb9b7ed	-0.02267071
144	0xbd7f3d8f	-0.062314566
145	0xbde81ee8	-0.1133402
146	0x3c0dbec2	0.008651437
147	0x3cd84a6c	0.026402675
148	0x3d35f775	0.044425447
149	0x3bd7a52d	0.00658097
150	0x3dc706d6	0.09718101
151	0x3e2e810e	0.17041418
152	0xbddd933f	-0.108191006
153	0xbddea838	-0.10871929
154	0x3e1908bf	0.14944743
155	0x3cd43fa4	0.025909252
156	0x3be4a550	0.0069777146
157	0x3da75a82	0.0817156
158	0xbdc8ad7f	-0.09798717
159	0x3c034824	0.008012805
160	0x3dbbc689	0.09168727
161	0x3d8a9ac3	0.067678
162	0x3cbc299a	0.022969056
163	0xbd0667af	-0.032813724
164	0xbe2b3e0c	-0.16722888
165	0x3e10fe12	0.1415942
166	0x3dcf98fe	0.10136603
167	0xbcdbe00c	-0.026840232
168	0x3d88d035	0.06680337
169	0xbba829c7	-0.0051319334
170	0x3dda2ea1	0.10653425
171	0x3de6206c	0.11236653
172	0xbcaf7b68	-0.02142115
173	0xbcf56970	-0.029957503
174	0x3caa84f0	0.020815343
175	0xba531482	-0.0008052067
176	0x3ce2575d	0.027629549
177	0x3db6ef9e	0.08932422
178	0x3d5e403a	0.05426047
179	0x3d696bc3	0.056987535
180	0x3e2bc14e	0.16772959
181	0xbe00be85	-0.12572677
182	0x3df5655d	0.11982224
183	0xbb31664f	-0.0027069037
184	0x3e061d62	0.13097146
185	0xbe4bda6f	-0.19907545
186	0xbda9f508	-0.08298689
187	0xbe4accb7	-0.19804655
188	0x3db55f6f	0.08856093
189	0xbdda35ec	-0.10654816
190	0x3dd418f2	0.103563204
191	0x3deed6ea	0.11662085
192	0x3d6f4f3b	0.05842517
193	0x3d71fa5f	0.059076663
194	0xbd73e6b7	-0.0595462
195	0xb7b3948a	-2.1407632e-05
196	0x3cd3a86c	0.025837146
197	0xbd49e3e9	-0.049289618
198	0xbd864530	-0.06556165
199	0x36de72ed	6.6294947e-06
200	0xb76735a8	-1.3781166e-05
201	0x3b667ca3	0.0035169504
202	0x39cdc777	0.0003924926
203	0xb712c9b8	-8.749244e-06
204	0x383d81dd	4.5182056e-05
205	0x383dc5d2	4.5245346e-05
206	0x3ca302e5	0.019898841
207	0xbc220a9e	-0.009890227
208	0x3c546fe7	0.012966133
209	0x35082b3a	5.072685e-07
210	0xbd39f136	-0.045396052
211	0x352fcd45	6.5491287e-07
212	0x365b4d70	3.2678618e-06
213	0x38366093	4.3482123e-05
214	0xbd60699a	-0.05478821
215	0xb83d7254	-4.5167588e-05
216	0x3cf9a88e	0.030475881
217	0xbd5d8844	-0.05408503
218	0xbd84e84e	-0.06489621
219	0xbd51f07b	-0.05125473
220	0x3c5a0f2a	0.013309279
221	0xbc65f69d	-0.014035848
222	0xb69627da	-4.4749877e-06
223	0xbb9ed3d9	-0.0048470316
224	0x3d88d1bb	0.06680628
225	0xb76f85c8	-1.42766585e-05
226	0xbd198f55	-0.037490208
227	0xbd10a780	-0.03531599
228	0x3ce05dcb	0.027388474
229	0xb784885a	-1.579912e-05
230	0xbbe56e19	-0.00700165
231	0x37bec3d3	2.2740953e-05
232	0xb687c6f1	-4.0464734e-06
233	0x362119a2	2.400579e-06
234	0x3cd1f80c	0.025630973
235	0xbd1bfd44	-0.03808333
236	0x3d8b33dd	0.067970015
237	0x3d747118	0.059678167
238	0xbbe44e01	-0.0069673066
239	0xbd183651	-0.037161175
240	0xbd7d0047	-0.061767843
241	0x376ca984	1.4106165e-05
242	0xbbfd8560	-0.007736847
243	0x3c09a7e3	0.008401844
244	0x3c838a79	0.01605724
245	0xbbf070c6	-0.0073376624
246	0x3b37aba8	0.00280259
247	0xbd10daa2	-0.035364754
248	0xbcd87314	-0.026422061
249	0x3b6b53f7	0.0035908201
250	0xbd7f3ebf	-0.0623157
251	0x3b275ef6	0.002553878
252	0xb5cf1a47	-1.543035e-06
253	0xbd3f7279	-0.04674003
254	0x35e5fbff	1.713517e-06
255	0xbd6fbc60	-0.058529258

graphlayers.0.bias f4 [64]
0	0xbd8ebbee	-0.069694385
1	0x3d9e452b	0.077280365
2	0x3e07af56	0.13250479
3	0x3e4a3f6c	0.19750756
4	0x3e2691d7	0.16266571
5	0x3d96c156	0.07361095
6	0x3d8e1188	0.069369376
7	0x3e13c938	0.14432228
8	0x3da2b361	0.0794437
9	0xbdcf420e	-0.10120021
10	0x3d933e93	0.071896695
11	0x3dfd9bea	0.12383254
12	0x3df45570	0.119303584
13	0x3d99ff26	0.07519369
14	0x3dfe6c46	0.12422995
15	0x3db23efd	0.0870342
16	0xbda3e2a8	-0.080022156
17	0x3dea892b	0.11451944
18	0x3c7d9264	0.015476797
19	0x3d3a0b27	0.045420792
20	0x3e3be412	0.1834872
21	0xbdac6048	-0.08416802
22	0x3d03e320	0.032199025
23	0x3e38cc15	0.18046601
24	0x3d248659	0.040167186
25	0x3d3afbbd	0.045650233
26	0x3d5c9b1d	0.053858865
27	0x3e018e1c	0.12651867
28	0x3e0041ca	0.12525097
29	0x3d63ffc0	0.055663824
30	0x3cb8952a	0.022532064
31	0xbcf4b822	-0.029872958
32	0x3d5ef319	0.054431055
33	0x3e1f7d47	0.15575133
34	0xbd492c69	-0.04911462
35	0x3e0ab8b2	0.13547018
36	0x3db5fa6b	0.08885654
37	0x3ae67ec8	0.0017585391
38	0x3e397229	0.18109955
39	0x3cb9099c	0.02258759
40	0x3cfed675	0.03110812
41	0x3dbffa32	0.09373893
42	0x3e1e3900	0.15451431
43	0xbd272bcf	-0.040813264
44	0x3dbda51e	0.09260009
45	0x3d1390db	0.036026817
46	0x3e09c645	0.1345454
47	0xbe1a84d6	-0.15089735
48	0x3d3052f8	0.043047875
49	0x3e109220	0.14118242
50	0x3b9499fb	0.0045349575
51	0xbc84366a	-0.016139228
52	0x3db9b7ff	0.090682976
53	0x3c8aa088	0.01692225
54	0x3db18bd3	0.086692475
55	0x3e16e78d	0.14736767
56	0x3dfe6ef8	0.12423509
57	0x3dab2d3d	0.08358238
58	0x3dd9b910	0.10631001
59	0x3e1aa5ec	0.15102357
60	0x3d95a0f2	0.073060885
61	0x3e3cd352	0.18439987
62	0x3db5eb34	0.08882752
63	0x3e0a532e	0.13508293

graphlayers.1.weight f4 [64, 32]
0	0x3d8fd212	0.070224896
1	0x3d9f6401	0.07782746
2	0xbda365aa	-0.07978375
3	0x3da09584	0.07841018
4	0x3dbc04b2	0.09180583
5	0x3760f550	1.3408557e-05
6	0xb986d40f	-0.00025716468
7	0x3dbef58f	0.0932418
8	0x3dafef00	0.085905075
9	0x3c6f100f	0.014591231
10	0x3bfd00a2	0.0077210227
11	0x3cee4ab3	0.029088354
12	0x3a64abeb	0.00087231275
13	0x39d25066	0.00040114223
14	0x3c942a89	0.018086689
15	0xb53bdbde	-6.998288e-07
16	0x3734b082	1.07699325e-05
17	0xbd74cfed	-0.059768606
18	0x3da9c2db	0.08289119
19	0x3b8635c8	0.0040957667
20	0x37641f4f	1.3597149e-05
21	0xbd8f8924	-0.070085794
22	0xbbaecbfe	-0.0053343764
23	0xbdec3e3a	-0.11535306
24	0x3d9887b4	0.07447758
25	0xb7c585f6	-2.354661e-05
26	0xbd3c2e58	-0.045942634
27	0x3d6c1108	0.05763343
28	0x3d8574c9	0.065164156
29	0x3c950e7c	0.018195383
30	0x3de0430f	0.109502904
31	0x3cfe36a7	0.03103192
32	0xbde074b8	-0.10959762
33	0x3dbd9691	0.09257234
34	0x3a186761	0.00058137445
35	0x3d80fd76	0.06298344
36	0x3dff069b	0.12452432
37	0x3dc7c4ee	0.09754358
38	0x3d0b975c	0.034079894
39	0x3d42d379	0.047564957
40	0x3d0b7b7c	0.03405331
41	0x381f3550	3.7958205e-05
42	0x3d8560e6	0.065126225
43	0xb781920c	-1.5446007e-05
44	0xbe34eb26	-0.17667827
45	0x3d3e42cb	0.046450417
46	0xbda2767e	-0.07932757
47	0x3dcf523a	0.10123105
48	0x3d4bab6a	0.04972402
49	0xbe02d687	-0.12777148
50	0x3e289097	0.16461407
51	0xbda3e6b0	-0.080029845
52	0xbd2738a9	-0.04082552
53	0x3e0d8b2c	0.13822621
54	0x3dae7a87	0.08519464
55	0x3e159368	0.14607012
56	0x3be613bb	0.007021395
57	0x3e2a0016	0.16601595
58	0x3db1b38a	0.086768225
59	0x3d3bc396	0.045840822
60	0xbe014b5b	-0.12626402
61	0x3e5531e8	0.20819819
62	0x3d84413a	0.064577535
63	0x3e01756d	0.1264245
64	0x3dd79d02	0.10527994
65	0x3e7511a3	0.23932509
66	0xbdadae3d	-0.08480499
67	0x3d8b8fad	0.06814513
68	0x3d704fb8	0.058669776
69	0x3e7477ef	0.23873876
70	0x3aab53d9	0.0013071253
71	0x3d3f193c	0.046654925
72	0x3e205761	0.15658332
73	0x3c8ea0e9	0.017410712
74	0xb763edc5	-1.3585614e-05
75	0x3a2833eb	0.0006416428
76	0x3e5313c0	0.20613003
77	0xbd9b65c0	-0.07587767
78	0xbdbac698	-0.0911991
79	0xb9dee6c9	-0.00042515088
80	0x3dac5be5	0.08415965
81	0xbda2c3c6	-0.07947497
82	0x3d442124	0.047883168
83	0xbcbca154	-0.023026146
84	0x3d8107af	0.06300294
85	0xbd049caf	-0.032375988
86	0xbb9a6911	-0.004712232
87	0xbe27f038	-0.1640023
88	0x3e84896d	0.25886098
89	0xbe402064	-0.18762356
90	0xbc8d5dac	-0.01725658
91	0xbda1087d	-0.07862947
92	0x3d07bc0c	0.03313832
93	0x3d613964	0.054986373
94	0xbe383ab3	-0.17991142
95	0xbde8aa0c	-0.11360559
96	0xb7b1856b	-2.1162172e-05
97	0x3cba566a	0.022746284
98	0xbd192c1f	-0.037395593
99	0xbdbdd3d5	-0.092689194
100	0x3d513e7b	0.051084977
101	0xbd5e2bcf	-0.054240998
102	0xbda841b3	-0.08215656
103	0x3e50dba9	0.20396294
104	0x3db19581	0.08671094
105	0xbd5f03e6	-0.054447077
106	0xbdcb63a9	-0.09931118
107	0xbcf8afe0	-0.030357301
108	0x3d12b461	0.035816554
109	0xbdcbbfe5	-0.0994871
110	0x3dfc2e44	0.12313512
111	0xbe69be06	-0.22826394
112	0x3e10138a	0.14069954
113	0x3db733d9	0.08945436
114	0xbd98e045	-0.07464651
115	0x37856894	1.5903533e-05
116	0x3c5d990d	0.01352526
117	0x3e1a029a	0.15040055
118	0x3d1dde1c	0.038541898
119	0x3e678faa	0.22613397
120	0xbded40ca	-0.11584623
121	0x3e32f3a4	0.17475754
122	0x3e5dd7c7	0.21664344
123	0x3dd030a0	0.101655245
124	0xbe111fd1	-0.14172293
125	0xbdc112fb	-0.09427448
126	0x3e13373f	0.14376543
127	0xbd693a62	-0.056940444
128	0x3d538e7e	0.051649563
129	0x3e458d1e	0.19292113
130	0x3d30181b	0.04299174
131	0xbcf3e91b	-0.02977424
132	0x3d1701db	0.036867004
133	0x3e066c7a	0.13127318
134	0x3d56efb7	0.052474704
135	0xbdf98801	-0.12184144
136	0xbce6e174	-0.028183676
137	0x3d3a541d	0.045490373
138	0xbcb7a07e	-0.022415396
139	0x3d113eea	0.03546039
140	0x3dfff9c7	0.12498813
141	0x3d9f21c5	0.07770113
142	0x3e331733	0.17489319
143	0xbe5675d8	-0.20943391
144	0x3ce6cf0f	0.028174905
145	0x3d5ef03a	0.054428317
146	0x3e1f169b	0.15535967
147	0x3cf7a777	0.03023122
148	0xbd49e5f0	-0.04929155
149	0xbb34f9af	-0.0027614643
150	0x3d9d1818	0.07670611
151	0xbc583afe	-0.013197659
152	0x3c83daeb	0.0160956
153	0x3e6151ab	0.2200381
154	0x3dd03197	0.101657085
155	0x3b0b5ea7	0.0021266134
156	0x3c14b092	0.009075301
157	0x3d759ce2	0.05996407
158	0x3e130316	0.14356646
159	0x3d8b6a15	0.06807343
160	0xbdcccb05	-0.099996604
161	0xbe0deb94	-0.13859397
162	0x3e22c733	0.15896301
163	0x3e769e6b	0.24083869
164	0xbcd6f74a	-0.026240963
165	0x3d220bb9	0.03956196
166	0xbd8081bd	-0.062747456
167	0x3d0327b3	0.032020282
168	0xbe5eb2bb	-0.21747868
169	0x349c5132	2.9116342e-07
170	0xbde51624	-0.111858636
171	0xb9a088e4	-0.0003061957
172	0x3da317df	0.079635374
173	0x3df01000	0.11721802
174	0xbc307751	-0.010770635
175	0x3dce5adb	0.10075923
176	0xbe05cdc2	-0.13066772
177	0xbe582c84	-0.21110731
178	0xbd465e82	-0.048429973
179	0xbd9452e0	-0.0724237
180	0xbe3d154d	-0.18465157
181	0x3e16dde2	0.14733079
182	0x3cdd2cd3	0.026998913
183	0x3d9f331d	0.07773421
184	0xbe1a3b22	-0.1506162
185	0x3e22f465	0.15913542
186	0xbe0356dd	-0.12826104
187	0x36053563	1.984962e-06
188	0xbe3c20be	-0.18371865
189	0x3e44ce27	0.19219266
190	0x3df88b9c	0.121360034
191	0x3dbad2eb	0.09122261
192	0x3cdbc11a	0.026825476
193	0x3e532d0c	0.20622653
194	0x3ca471ff	0.020073889
195	0xbe362f3b	-0.17791454
196	0x3dc171dd	0.09445546
197	0xbd04ee0d	-0.032453585
198	0x3d10ab00	0.03531933
199	0xbe1fbd01	-0.15599443
200	0x3e30d082	0.1726704
201	0x3d9f5dfb	0.07781597
202	0xbdb43152	-0.087984696
203	0x3c590343	0.013245407
204	0x3c8a499a	0.0168808
205	0xbc58444b	-0.013199876
206	0x3db15fad	0.08660827
207	0x3d71f0e2	0.059067614
208	0x3e2d7d34	0.16942292
209	0x3e5c8b71	0.21537568
210	0x3e0c8a0c	0.13724536
211	0x3d2cf14b	0.042222302
212	0x3e41849a	0.1889824
213	0x3cecfc0e	0.028928783
214	0x3e17899c	0.14798588
215	0x3d49fc43	0.04931284
216	0xbd847a2d	-0.06468616
217	0xbe008d03	-0.12553792
218	0x3e0100c0	0.12597942
219	0x39c7566a	0.0003802062
220	0x3e427467	0.18989716
221	0xbe184cd2	-0.14873055
222	0xbd95790a	-0.07298477
223	0x3d0b02e6	0.03393831
224	0x3dcdcb26	0.10048513
225	0x3e00373a	0.12521067
226	0xbe16c775	-0.14724524
227	0x3da1ec1e	0.07906364
228	0x3ca78d6b	0.020453176
229	0xbc8025c0	-0.015643
230	0xbd333409	-0.043750796
231	0x3e005053	0.12530641
232	0x3e0dcdd5	0.1384805
233	0x3dd25a66	0.102711484
234	0x3d1e515f	0.03865182
235	0xbdddf97d	-0.10838602
236	0xbc9915b7	-0.018687112
237	0x3d997521	0.07493044
238	0x3e234217	0.1594318
239	0xbdf2b274	-0.118504435
240	0x3e32b791	0.17452838
241	0xbc5b17b5	-0.013372351
242	0xbd921740	-0.07133341
243	0x3dab1d51	0.08355201
244	0x3d01ab88	0.031657726
245	0xba9d4298	-0.0011997996
246	0x3e620609	0.22072615
247	0x3e120b51	0.1426213
248	0x3d7786f9	0.060431454
249	0xbdb3b63d	-0.087749936
250	0x3d73af43	0.059493314
251	0x3d230248	0.039797097
252	0x3dda8c3e	0.1067128
253	0xbdcb8b48	-0.09938675
254	0x3de977ec	0.113998264
255	0x3e3534e5	0.17695959

graphlayers.1.bias f4 [32]
0	0x36f4b151	7.292409e-06
1	0x3d703a9b	0.05864964
2	0x3d3032a3	0.04301704
3	0x3e0e9799	0.13925017
4	0xbd45f942	-0.048333414
5	0x3e82bfdd	0.25537005
6	0xbd13af1e	-0.036055677
7	0x3d14e89a	0.03635464
8	0x3da1e0f7	0.07904237
9	0xbd29b4ee	-0.041432314
10	0xbb06d78e	-0.0020575258
11	0xbd86c0d3	-0.06579747
12	0x3dd67e47	0.10473304
13	0xbe244a83	-0.16044049
14	0x3da14b6d	0.078757145
15	0xbd1e6214	-0.038667753
16	0x3e4ace29	0.19805206
17	0x3e2ac5b8	0.16676986
18	0x3d9ee070	0.07757652
19	0xbd7b43b2	-0.061343856
20	0x3d817f5b	0.06323119
21	0x3d53a081	0.05166674
22	0x3e3f9ab8	0.18711364
23	0x3e1e5622	0.15462545
24	0x3e5fb1f2	0.21845224
25	0x3e6cd29c	0.23127216
26	0x3e788186	0.2426816
27	0xbdd1fbf7	-0.102531366
28	0x3d5b126c	0.053484365
29	0x3dcb6878	0.09932035
30	0x3d4c0f91	0.049819533
31	0x3e3bead9	0.18351306

linlayers.0.weight f4 [16, 32]
0	0xbdb686f2	-0.089124575
1	0x3dfcd28c	0.12344846
2	0xbd4312f5	-0.0476255
3	0xbad3a831	-0.0016148147
4	0xbb1e435f	-0.0024149043
5	0x3e1dc97b	0.1540889
6	0xba4d37c2	-0.0007828438
7	0xbe21c435	-0.15797503
8	0xbd9469a2	-0.0724671
9	0x3db5518c	0.088534445
10	0x382d4090	4.1306543e-05
11	0xbdd9835b	-0.10620757
12	0x3dab25dc	0.083568305
13	0xbcfc28a6	-0.030781101
14	0x3de94e6a	0.113919094
15	0x3c8bb708	0.01705505
16	0xb984d79d	-0.00025337646
17	0x3d5d33c6	0.054004453
18	0x3d9c0f2a	0.0762008
19	0x3dc51382	0.096228614
20	0x3dfe55cc	0.12418708
21	0xbe37f65e	-0.17965075
22	0xbd0ceb5a	-0.034404136
23	0xbdcc6357	-0.09979885
24	0x3d47125d	0.048601497
25	0xbc30ded8	-0.010795318
26	0xbd35dfa7	-0.044402745
27	0x3c5a736c	0.013333183
28	0x3e48aa16	0.19596133
29	0xbd9eb8a7	-0.077500634
30	0x3d7d1b82	0.06179381
31	0xbe14985c	-0.14511245
32	0x3d25f5d3	0.04051764
33	0x3db5138f	0.08841621
34	0x3d5807e3	0.052741896
35	0xb78360f7	-1.566157e-05
36	0xbcb9fb67	-0.022702886
37	0x3d87c35a	0.06629057
38	0x3cbeb2d8	0.023278639
39	0xbdf4ef00	-0.11959648
40	0xbddd543e	-0.108070835
41	0xbde801b0	-0.11328447
42	0x3ccbcc31	0.02487764
43	0x3d14c1cf	0.036317643
44	0xbded4246	-0.11584906
45	0x3cf9d2e6	0.030496072
46	0x3d185b15	0.037196238
47	0xbb0702e4	-0.0020601088
48	0x3d5e81ab	0.05432288
49	0xbd5bf347	-0.053698804
50	0xb988a302	-0.00026061392
51	0x3df295ce	0.11844979
52	0xbdd1d7a9	-0.10246212
53	0xbd09015f	-0.033448573
54	0xbbb323e3	-0.0054669245
55	0x3d7b31a4	0.061326638
56	0x3cb8580c	0.022502922
57	0x3da3bcd4	0.079950005
58	0xbdc8279c	-0.0977318
59	0x3d1ff33f	0.039050337
60	0x3dd907cb	0.105971895
61	0x3c71bc9a	0.014754439
62	0xbdba92d3	-0.09110036
63	0xbd88073c	-0.06642005
64	0xbdceb61f	-0.100933306
65	0x3e25ad37	0.16179357
66	0xbdad68c8	-0.08467251
67	0xbcac0efc	-0.021003239
68	0x3dc1ba42	0.09459354
69	0x3d6a8500	0.057255745
70	0x3d987f39	0.07446141
71	0xbdf704c4	-0.12061456
72	0x3ccfb627	0.025355412
73	0xbc4e34cd	-0.012585831
74	0x3de8ff3e	0.113768086
75	0xbd1dea38	-0.038553447
76	0xbd059c14	-0.03261955
77	0xbd903553	-0.07041421
78	0x3c8f08ad	0.017460192
79	0xbdea8949	-0.11451966
80	0xbd6cf018	-0.05784616
81	0x3ccfd052	0.02536789
82	0xbd336fc8	-0.043807775
83	0xb911f9af	-0.00013921292
84	0x3e05386b	0.13009803
85	0xbe03caed	-0.12870379
86	0x3c401856	0.011724552
87	0x3d92fb4d	0.07176838
88	0x3dc8d140	0.09805536
89	0x3dc99365	0.098425664
90	0x3da56172	0.08075227
91	0xbdf47d75	-0.119379915
92	0x3c9f119c	0.019417576
93	0x3d6326a4	0.055456772
94	0xbe02ba0b	-0.12766282
95	0xbd23dedc	-0.040007457
96	0x3ce9e913	0.028553521
97	0x3cd8b22f	0.026452152
98	0x3c9d760f	0.019221334
99	0x3e55e844	0.20889384
100	0x3d04f473	0.032459687
101	0x3df8456e	0.12122618
102	0xbdda45ae	-0.106578216
103	0x3c8795d2	0.016550932
104	0xbdfe2e8e	-0.12411223
105	0xb6ba1399	-5.5455134e-06
106	0xbc8e7442	-0.01738942
107	0x3d67b40e	0.056568198
108	0xbdc2ee88	-0.095181525
109	0xbd6abe8c	-0.057310626
110	0x3dc63cf9	0.09679598
111	0xbd8c9588	-0.06864458
112	0x3cc90bd0	0.024541765
113	0xbc27ecac	-0.010249298
114	0x3dbe88b6	0.09303419
115	0xb6a8fd27	-5.036261e-06
116	0xbd98666a	-0.07441409
117	0xbdb48462	-0.088143125
118	0xbca14a27	-0.019688679
119	0x3e2453d6	0.16047606
120	0xbd8240ee	-0.063600406
121	0x3e301239	0.17194451
122	0x3e0aa3b4	0.1353901
123	0x3cf11e35	0.02943335
124	0xbdf1f87b	-0.11814972
125	0x3e5934cf	0.21211551
126	0x3d2669e5	0.040628333
127	0x3dd15dd8	0.102229774
128	0x3d007869	0.031364832
129	0xbbf651a6	-0.0075170575
130	0xbe14fc9f	-0.14549492
131	0xbe6c3a68	-0.23069155
132	0xbbce5ebe	-0.0062979152
133	0x3e33cb16	0.1755794
134	0x3a5c7373	0.0008409537
135	0x3cece6b3	0.0289186
136	0x3e3a80b2	0.18213156
137	0x3d48eeee	0.049055986
138	0x3cf14c8e	0.02945545
139	0x3ce6cb3b	0.02817308
140	0x3c2d1068	0.010562994
141	0xbcd08985	-0.0254562
142	0x3e3a71cd	0.18207474
143	0x3d80317a	0.06259437
144	0xbd9b077f	-0.07569789
145	0x3d3923f5	0.045200307
146	0xbbf8a290	-0.0075877383
147	0xbd29cea9	-0.041456852
148	0xbd647e77	-0.05578467
149	0xbe357f85	-0.17724426
150	0x3e6f6cf4	0.23381406
151	0xbe0127f8	-0.12612903
152	0x3d52d952	0.051476784
153	0xbd8bd075	-0.068268694
154	0x3d9d0ac9	0.07668073
155	0xbc095829	-0.008382835
156	0x3db080c9	0.08618314
157	0xbad6980e	-0.001637222
158	0xbdd42131	-0.10357893
159	0xbddbdbda	-0.10735293
160	0xbb9aae52	-0.0047204876
161	0xbcef0d04	-0.029181011
162	0xbda40840	-0.08009386
163	0xbb8f0be7	-0.0043654325
164	0x3c01489d	0.0078908475
165	0x3d26dcb5	0.040737826
166	0x3bc6bc31	0.0060649146
167	0xbe123c83	-0.14280896
168	0x3cd5f746	0.026118886
169	0xbc9c0308	-0.019044414
170	0x3df5c9c1	0.12001372
171	0x3dbb10b6	0.09134047
172	0x3c3376ae	0.010953588
173	0xbd274d73	-0.040845346
174	0x3d885544	0.06656888
175	0x3d344fe0	0.044021487
176	0x3d6f71af	0.058458026
177	0xbe23656d	-0.1595666
178	0x3d8eb86d	0.0696877
179	0x3d616a80	0.055033207
180	0xbe0dcf48	-0.13848603
181	0x3cafb14a	0.021446843
182	0xbe07f111	-0.13275553
183	0x3d7b486f	0.061348375
184	0xb41edd93	-1.4795505e-07
185	0x3d9cfc01	0.076652534
186	0xbcf70d5d	-0.03015774
187	0xb9d3ab7b	-0.0004037282
188	0xbdb5c390	-0.08875191
189	0x3da9d46a	0.08292468
190	0x3d60c245	0.05487277
191	0xbd52fb9f	-0.051509496
192	0x3d8dc44c	0.06922206
193	0xbd8f1ee3	-0.06988313
194	0x3d13e6f1	0.036108915
195	0xb821811f	-3.8505645e-05
196	0xbdf8d08d	-0.12149153
197	0xbd2d2119	-0.042267893
198	0xbd269539	-0.040669654
199	0xb7484b35	-1.19384395e-05
200	0xbdf5c3a3	-0.12000205
201	0xbcbea80f	-0.023273496
202	0x3db7de22	0.08977915
203	0x3bc13012	0.005895623
204	0xb7b244ab	-2.125123e-05
205	0x3cefaa44	0.029255994
206	0xbd93e013	-0.07220473
207	0x39a2df9d	0.00031065653
208	0xbdf771cd	-0.12082253
209	0xb557de34	-8.041709e-07
210	0xbdf4a9bd	-0.119464375
211	0xb7045feb	-7.890146e-06
212	0x37359498	1.0823038e-05
213	0x3c8d6df2	0.01726434
214	0x37608baa	1.33839585e-05
215	0x3ab3bdbe	0.0013713164
216	0xb75dc327	-1.3218064e-05
217	0xbd47e492	-0.048801966
218	0x394b6f50	0.00019401056
219	0x3d591249	0.052995954
220	0xbc9a1e17	-0.018813176
221	0xbd72496c	-0.05915205
222	0xbd3b687c	-0.04575394
223	0x3c4cb357	0.01249393
224	0x3d99cda2	0.075099245
225	0x3a54f0a9	0.00081230194
226	0xbd8b26aa	-0.06794484
227	0xbd8b2fb0	-0.06796205
228	0x371240c2	8.717356e-06
229	0xbd07ce43	-0.03315569
230	0xbd914d56	-0.07094829
231	0x3cf316fd	0.029674048
232	0x36d2faa2	6.287665e-06
233	0x3c3dfc47	0.011595792
234	0x3d94e31b	0.072698794
235	0xbcadb0e7	-0.021202518
236	0xbd2aa8e5	-0.041664977
237	0x3ddee51d	0.10883544
238	0xbc71d47e	-0.014760135
239	0x3db7c264	0.08972624
240	0x3c3ca3f1	0.011513696
241	0xbdf3c04e	-0.119019136
242	0x3d86f1dd	0.065891005
243	0x3d901471	0.07035149
244	0x3d94d3bc	0.072669476
245	0x39adf1c2	0.00033177255
246	0xbd9f671b	-0.07783338
247	0xbdefd88b	-0.11711224
248	0xb9b99ab8	-0.00035401224
249	0xb731ee06	-1.0605441e-05
250	0x3c98416f	0.018585889
251	0x3de74556	0.11292522
252	0xb9df093f	-0.00042540763
253	0x3c8caac9	0.01717128
254	0xbdf2b8e5	-0.11851672
255	0x3a8ff6b6	0.001098356

linlayers.0.bias f4 [16]
0	0x3e1eb530	0.15498805
1	0xbdb58308	-0.08862883
2	0xbd455560	-0.048177123
3	0xbde7a959	-0.113115974
4	0x3dbd3b1b	0.09239789
5	0xbe1fe848	-0.15615952
6	0xbbdc73ff	-0.006727695
7	0xbdfa7af1	-0.122304805
8	0xbe00f716	-0.12594256
9	0xbd85b9b8	-0.06529564
10	0x3dac06ea	0.08399756
11	0x3e2ee753	0.1708043
12	0x3d3071f3	0.04307742
13	0xbdaf6a07	-0.08565145
14	0x3e0af8e1	0.13571502
15	0xbdb6bbe5	-0.08922557

linlayers.1.weight f4 [2, 16]
0	0x3d69df11	0.0570975
1	0xb70eea53	-8.518417e-06
2	0x3daa708a	0.083222464
3	0xbe63316b	-0.2218682
4	0x3e3e2c3f	0.18571566
5	0x3e246594	0.16054374
6	0xb75c33b7	-1.3125063e-05
7	0xbe0de689	-0.13857473
8	0x3e01b963	0.12668376
9	0x3dbfe31e	0.09369491
10	0x3e8b3f64	0.271968
11	0x3ea32a3a	0.31868154
12	0x3ea10df6	0.31455964
13	0xbd07a31d	-0.03311454
14	0xbe74c80c	-0.23904437
15	0x3e29f882	0.16598704
16	0x3dfef585	0.12449173
17	0x3dbf4a59	0.093403526
18	0xbd096cbf	-0.033550974
19	0xbe13ab14	-0.1442073
20	0x3e16dd5d	0.14732881
21	0x3d9aee30	0.07564962
22	0x3e3be7e6	0.18350181
23	0x3e29880a	0.16555801
24	0x3dde61ba	0.108584836
25	0x3e25bbb8	0.1618489
26	0xbe46bfa5	-0.19409044
27	0x3e196a69	0.14981999
28	0xbcb58759	-0.022159265
29	0x3e137fcd	0.14404221
30	0xbdcf6cf1	-0.10128201
31	0xbdac98fb	-0.08427616

linlayers.1.bias f4 [2]
0	0x3dd61a20	0.10454202
1	0xbe2d6e27	-0.16936551
