weigths_N8_L8.pt (torch, 138436 bytes, 6 tensors)

graphlayers.0.weight f4 [512, 64]
000000 22 32 3a 88 6a 71 2c 85 86 56 db 85 90 b4 0a 00
       -5.603127e-34 -8.108232e-36 -2.0626445e-35 9.83129e-40
000010 8b e2 05 04 70 35 0b 86 84 72 db 85 8e 25 70 8a
       1.5738098e-36 -2.6182254e-35 -2.0636727e-35 -1.1562643e-32
000020 d1 75 82 84 a7 63 ff 87 55 e8 9f 87 5c 91 d6 05
       -3.067105e-36 -3.8426706e-34 -2.4060214e-34 2.017786e-35
000030 7f 17 40 85 30 b3 57 06 76 68 1e 00 47 17 b6 07
       -9.032112e-36 4.0568652e-35 2.792538e-39 2.7397998e-34
000040 f2 3d 20 0c 24 15 32 86 cc 74 62 86 36 1a 4e 04
       1.2344593e-31 -3.349361e-35 -4.2591685e-35 2.4227219e-36
000050 3d a8 cb 86 41 03 0d 07 e4 9f 0b 00 57 fa 9d 0b
       -7.6607317e-35 1.0608617e-34 1.067548e-39 6.085087e-32
000060 af 71 0c 80 d4 6b 49 09 a1 92 49 05 dc 08 0b 00
       -1.142808e-39 2.4245195e-33 9.477906e-36 1.013369e-39
000070 bd 3e 3b 06 0e 0a a6 84 14 df 0a 80 d5 f7 ec 05
       3.5216884e-35 -3.9035646e-36 -9.9838e-40 2.2284372e-35
000080 71 88 90 05 f7 2c 21 00 99 ce db 8b d1 11 94 86
       1.3591816e-35 3.046702e-39 -8.4666585e-32 -5.569759e-35
000090 1d 02 16 0a 46 65 1c 85 83 4c 0b 87 50 3d 41 08
       7.222635e-33 -7.353686e-36 -1.0479683e-34 5.8150897e-34
0000a0 a2 2e 0b 80 6c 6b f3 8a 3f 6e 40 02 62 21 16 83
       -1.026919e-39 -2.3440456e-32 1.4137571e-37 -4.411936e-37
0000b0 eb 46 0a 84 b1 b5 0d 80 2e ff 3f 8a 50 2b 0b 80
       -1.6254386e-36 -1.25904e-39 -9.2443094e-33 -1.025728e-39
0000c0 c0 74 f5 84 28 ef 50 00 6d aa 0d 80 b1 01 39 05
       -5.770644e-36 7.432633e-39 -1.254999e-39 8.698969e-36
0000d0 ec 9c 0d 00 db bf 5b 83 7d ef 0d 81 e7 62 0b 00
       1.250154e-39 -6.4578555e-37 -2.6069434e-38 1.04567e-39
0000e0 0b 19 60 03 50 68 16 01 f8 8c f5 85 80 44 24 07
       6.585643e-37 2.762549e-38 -2.3091473e-35 1.2358119e-34
0000f0 b2 54 0c 04 7f 49 e9 03 63 3a 20 80 46 ed 2b 89
       1.6495811e-36 1.3711383e-36 -2.959681e-39 -2.0694942e-33
000100 2a ac 33 ba 4c 66 c5 bc 49 01 92 3c 92 65 a1 bc
       -0.00068539625 -0.02409663 0.017822878 -0.019701753
000110 3e b2 1f 3b 7e 09 89 b4 c6 81 bb 3d a3 fc 9d bc
       0.0024367715 -2.5525145e-07 0.09155612 -0.019285506
000120 da 0f 8d 3b 00 3e 7b 3b c2 58 89 bb 8a f2 b4 3d
       0.004304868 0.0038336515 -0.004191489 0.08835323
000130 53 78 84 3c a6 1e 15 3c 6a de c2 bc ff 25 df bc
       0.016170656 0.009101545 -0.023787696 -0.027239798
000140 18 d5 cb 36 11 75 b3 3d e1 aa e3 bc 76 2b c6 36
       6.074679e-06 0.08762563 -0.027791442 5.9059194e-06
000150 c3 34 af bc e8 36 d0 bc 3d 3e 08 b5 b7 01 86 3d
       -0.021387463 -0.025416806 -5.0754517e-07 0.06543296
000160 3a bf 3e bb 13 a3 a7 3b eb 23 73 3d 2e 76 29 3d
       -0.002910568 0.0051158755 0.059360426 0.04137247
000170 49 34 b4 3d 5b b1 5e 3c 60 ce 89 ba 36 72 10 3c
       0.08799035 0.0135920895 -0.0010513775 0.0088162925
000180 51 f0 05 3c 29 e2 af bc 07 26 0e 3c 7a 74 41 3c
       0.008174972 -0.021470146 0.008676059 0.011807555
000190 84 1a db bc 8c 82 ac 33 44 23 3e 3b 34 49 b9 3d
       -0.026746042 8.0331205e-08 0.002901272 0.090471655
0001a0 07 13 00 b6 b9 21 62 3c c9 7c d9 3b cd dd 5d 3d
       -1.9084562e-06 0.013801985 0.00663719 0.054166604
0001b0 21 86 90 3c 86 39 cb 3d 79 db b9 3d a5 38 8d 3d
       0.017642083 0.09923081 0.09075064 0.0689557
0001c0 8f 10 b7 3d 02 94 a1 b5 cb 1f 2d 3a 5b d7 df 3b
       0.08938705 -1.2038511e-06 0.0006604164 0.0068310923
0001d0 7e b9 0e bb 6f ec 8b bc f9 fd 5f 3d 98 b7 92 b5
       -0.0021778042 -0.017080514 0.054685567 -1.093128e-06
0001e0 74 e7 35 b5 c9 c6 81 3d d6 c1 03 bb fd c0 cd bc
       -6.7764563e-07 0.063367434 -0.002010455 -0.025116438
0001f0 bf 06 7d 3d 84 4d 9a b5 1f 61 05 3c c5 0b e2 bc
       0.06177401 -1.1496454e-06 0.008140831 -0.027593503
000200 83 5f 1e 09 49 65 03 08 8d 37 0c 85 c7 9f 4b 83
       1.9063468e-33 3.954044e-34 -6.5929714e-36 -5.9839754e-37
000210 d4 12 95 06 e7 14 0b 00 96 c5 a9 85 61 f8 45 0a
       5.6075236e-35 1.017689e-39 -1.5965265e-35 9.53192e-33
000220 c6 86 95 0b bb d2 40 00 2b fb b5 83 56 6f a4 86
       5.7595497e-32 5.953068e-39 -1.0695889e-36 -6.1853537e-35
000230 3f 60 7f 87 cb 5c cb 0b 17 8a 30 88 79 47 0b 80
       -1.9212352e-34 7.8332375e-32 -5.3125397e-34 -1.03583e-39
000240 6e a2 0b 80 83 4e 86 00 42 53 0b 00 71 11 13 00
       -1.068459e-39 1.2334121e-38 1.040058e-39 1.751131e-39
000250 69 50 1f 0c f7 87 1e 8c d2 aa 02 09 3d 14 0b 00
       1.2273112e-31 -1.2212793e-31 1.57285e-33 1.01745e-39
000260 f9 1c 6b 86 6c 52 0b 00 d3 c4 a8 07 29 6d 68 8b
       -4.4219873e-35 1.039758e-39 2.5393513e-34 -4.4763698e-32
000270 f9 71 0b 80 1a 15 82 82 9b 3a 01 03 e1 36 bb 85
       -1.051076e-39 -1.9113895e-37 3.797697e-37 -1.7605555e-35
000280 c9 b0 fb 85 aa 29 25 86 de 6f 0d 02 92 5e 05 01
       -2.3668867e-35 -3.106366e-35 1.0391148e-37 2.4496093e-38
000290 1a ce fd 86 7e 5f f3 04 0c 10 19 0c ae 23 03 86
       -9.547086e-35 5.721672e-36 1.179152e-31 -2.4664575e-35
0002a0 c8 7e 8b 06 07 ae 3e 87 d1 b4 88 88 4c 3f 0a 04
       5.2472277e-35 -1.4345153e-34 -8.227712e-34 1.6250887e-36
0002b0 a5 86 f9 06 eb 3f 1d 0c 3b 58 2f 88 03 e5 fe 8b
       9.386123e-35 1.2114075e-31 -5.276586e-34 -9.818182e-32
0002c0 d4 25 9e 07 a1 9c 9f 06 18 d8 d0 83 b9 ec c6 04
       2.379543e-34 6.00393e-35 -1.2274754e-36 4.676697e-36
0002d0 70 57 0e 83 fd 51 86 06 3c 62 b3 0b dc 63 0b 00
       -4.1830423e-37 5.052567e-35 6.90961e-32 1.046013e-39
0002e0 eb f4 44 80 79 c7 31 0b 41 b8 f2 8a 80 b1 03 04
       -6.332674e-39 3.4239027e-32 -2.3373061e-32 1.548048e-36
0002f0 c5 57 00 0c cf bd 76 06 1c fb 93 03 2a ef 18 87
       9.887173e-32 4.6406907e-35 8.697535e-37 -1.1505493e-34
000300 82 c0 2a 08 0c b1 dc 83 82 ae 99 87 8e 2e 58 82
       5.1383806e-34 -1.2971086e-36 -2.3123448e-34 -1.5882534e-37
000310 2e 66 2c 05 e1 61 33 05 c4 0b 4d 82 01 e8 1a 05
       8.1061686e-36 8.434517e-36 -1.5064398e-37 7.2836576e-36
000320 1c 1d 3f 06 28 63 0b 00 ba 83 20 80 8e 57 1b 01
       3.5944494e-35 1.045761e-39 -2.98599e-39 2.853182e-38
000330 b8 bb 2b 06 09 d1 01 08 37 ef 2e 88 2e 08 08 89
       3.229944e-35 3.9065245e-34 -5.2642416e-34 -1.637425e-33
000340 29 1c 03 81 51 d4 c6 00 78 94 0d 09 45 44 52 00
       -2.4081104e-38 1.8259593e-38 1.7042067e-33 7.555001e-39
000350 4a 5e e4 08 12 d5 27 06 d4 d6 0a 00 f6 88 84 08
       1.3744418e-33 3.1565748e-35 9.95421e-40 7.97666e-34
000360 f0 97 e5 0b e8 32 0d 80 f2 28 f4 03 8c 3e 0b 00
       8.84362e-32 -1.212123e-39 1.4350432e-36 1.032628e-39
000370 b4 5c 3d 89 8c 42 58 85 4f ea 3f 07 17 38 89 06
       -2.2793636e-33 -1.0168494e-35 1.44381e-34 5.161609e-35
000380 e7 ee 0b 80 1d 35 1c 80 7f 9e 42 88 42 0b 1d 85
       -1.095892e-39 -2.590447e-39 -5.8566063e-34 -7.384172e-36
000390 ca e9 0d 8c 4f 5e 05 00 05 d9 12 05 99 dc ff 89
       -1.0932598e-31 4.93009e-40 6.904747e-36 -6.1596466e-33
0003a0 30 aa f8 00 9b 31 11 01 ab a4 1a 00 ba ff 45 09
       2.2836255e-38 2.6667884e-38 2.446795e-39 2.3833254e-33
0003b0 b2 eb a3 88 81 bc 15 8c 15 b2 9e 86 60 e6 b0 06
       -9.865617e-34 -1.1535268e-31 -5.969466e-35 6.654235e-35
0003c0 55 1b fe 07 57 56 bc 80 d9 a9 e2 83 27 d4 0e 85
       3.8233737e-34 -1.7296046e-38 -1.3322081e-36 -6.715774e-36
0003d0 14 cb e7 01 43 77 e1 09 fd 52 67 81 8c e4 33 83
       8.51474e-38 5.4278933e-33 -4.248754e-38 -5.286573e-37
0003e0 98 23 64 8a 80 ee 0a 80 22 9c 1e 0c ac 3b 20 87
       -1.0984495e-32 -1.003913e-39 1.2218862e-31 -1.2054598e-34
0003f0 60 35 a1 07 34 aa cd 86 48 a9 a6 84 47 de d5 07
       2.4255959e-34 -7.736252e-35 -3.9181873e-36 3.217932e-34

graphlayers.0.bias f4 [64]
000000 9e f5 ec bc 8d ab b3 3e 73 2d da bd 16 f4 bb 3e
       -0.028925713 0.3509182 -0.106532 0.3670966
000010 52 09 b4 3e 3c 55 4d be b3 50 b7 3d 95 e3 b4 3e
       0.3516336 -0.20052046 0.08950939 0.3532988
000020 a2 c5 8c 3e c2 a7 a0 3e 3a ef 2a be b2 c3 7b 3d
       0.27494532 0.3137799 -0.1669282 0.061465926
000030 2f fc c2 3c 43 7f 89 3e b2 6e 54 3e 3d 1a ac 3e
       0.023801891 0.26854905 0.20745352 0.33613768
000040 2a c5 64 be 58 e1 01 be 40 6e c6 3e 38 90 4d be
       -0.22340837 -0.12683618 0.3875599 -0.20074546
000050 a4 a8 a6 3e a4 28 ae 3e b8 31 7a be 5a 2f dc bd
       0.32550538 0.3401538 -0.24433029 -0.10751219
000060 17 64 09 be e0 3c 6f 3d 3b 80 5c be 44 28 ed bd
       -0.13417087 0.058407664 -0.21533291 -0.11579946
000070 d5 42 80 3d ae 04 6c 3e 44 7e ac bd 32 e8 29 3e
       0.06262747 0.2304866 -0.08422521 0.16592482
000080 30 3b f8 bd 4b 0c 8e 3e ed 10 8e 3e d4 8a 4c 3b
       -0.12120664 0.27743754 0.27747288 0.0031210678
000090 4e c8 a7 3e 45 2d 71 be 2b 88 1e 3e 6a 19 ec 3c
       0.32770008 -0.23552425 0.15481631 0.028820712
0000a0 1f a0 8b be c9 4f 66 3e cd 0a a1 3e 3b 6a 3f be
       -0.272706 0.22491373 0.31453553 -0.18692867
0000b0 12 39 f5 3d 48 51 22 3d 3b a7 81 3d 41 b1 82 3e
       0.11973776 0.039628297 0.06330725 0.2552586
0000c0 e1 be c5 3d 11 22 85 be 27 b8 a7 3e 34 a5 a3 3d
       0.09655548 -0.26002553 0.32757685 0.07990494
0000d0 8f 3f 1d be cc 59 cd 3e 09 4c 18 be f8 56 56 be
       -0.15356277 0.40107572 -0.14872755 -0.20931613
0000e0 15 17 84 be ac 71 12 be 5c ef 9b 3e 85 6f c6 3e
       -0.2579886 -0.14301175 0.30456054 0.38756958
0000f0 7b ff 37 be 9f a9 0f be f1 0e 82 bd b6 8e a9 3e
       -0.17968552 -0.14029549 -0.06350506 0.33116692

graphlayers.1.weight f4 [64, 16]
000000 11 72 c4 b7 27 4f a1 3e b0 de 97 3e 63 a2 75 3e
       -2.3418137e-05 0.315057 0.29662085 0.23987727
000010 5e 9c 0c 3d b7 65 b3 bd a4 cb 99 3e 13 9e 74 3d
       0.03432881 -0.08759635 0.30038178 0.059721064
000020 f0 5f 87 bd 3c 01 bb bd 1f 10 c8 bd 06 3b 2a be
       -0.066100955 -0.09131095 -0.097687 -0.16624078
000030 fa 29 23 b7 4c 88 0c 3b 15 0f 0a be 6f e7 2a b8
       -9.7253305e-06 0.0021443544 -0.13482316 -4.0746698e-05
000040 f7 80 6d bc 7a f6 89 3e 60 5a 62 3e df f1 5e 3e
       -0.01449608 0.2694586 0.22104788 0.21771954
000050 d6 d4 b2 3e 32 0f 3f bb c4 53 96 3e fc fc 58 3e
       0.34928006 -0.0029153344 0.29360783 0.21190256
000060 43 ac be 3a 55 dd 35 be 8f f5 d3 bd 5c 0c 07 be
       0.0014547188 -0.17760213 -0.10349571 -0.13188308
000070 3e 08 48 bc 56 f0 33 be a5 04 4e bc 4f 09 cf bc
       -0.012208996 -0.1757215 -0.0125743495 -0.025272993
000080 c0 0b 1c 3d 80 ba 8c 3e 96 45 90 3e ec 64 ca 3e
       0.038097143 0.27486038 0.2817809 0.39530122
000090 76 7d 6a bd a5 bf f5 bd 9a ea 8c 3e 51 6f 1a 3d
       -0.057248555 -0.11999444 0.27522737 0.037703816
0000a0 a0 ba 56 be 62 97 8a be ee f6 80 be 53 19 26 be
       -0.2096963 -0.2706862 -0.25188392 -0.16220598
0000b0 53 4f 26 3a 0c 43 89 3c 53 0b 18 be 67 d9 9f b9
       0.00063442177 0.016755603 -0.1484807 -0.0003048882
0000c0 6b 4d c6 bc fb 83 6d 3e 1c 4e 81 3e 4a a1 8e 3e
       -0.024206838 0.23194878 0.25254905 0.2785743
0000d0 ce f9 88 3e f3 ef bf bb eb 9e 52 3e 55 78 31 3e
       0.26753086 -0.0058574616 0.20568435 0.1733106
0000e0 52 1e b7 bb c9 12 c1 bc 97 a7 7d bd e6 15 5b bd
       -0.0055883313 -0.023568528 -0.061927404 -0.05348768
0000f0 d3 d3 10 be 84 e3 33 be c7 0c e1 bd e4 cc 13 be
       -0.14143305 -0.17567259 -0.10988765 -0.14433628
000100 e3 4c 8b bd 5d e7 8e bc ec 63 4b bc f6 84 48 bd
       -0.06801774 -0.017444307 -0.01241396 -0.048954926
000110 3b b0 b3 3e 6a 2d 9d 3e 37 70 89 bd 08 33 a2 3e
       0.3509539 0.3069871 -0.067108564 0.3167956
000120 81 2a 6d 3e 46 6b b0 3e fb 43 96 3e 79 73 6c 3e
       0.23160745 0.34456843 0.2934874 0.23090924
000130 39 e5 1f be 9a 6e df bc 23 32 54 3e 35 84 3c be
       -0.15614785 -0.027274419 0.2072225 -0.18409808
000140 4b 49 c0 3c 52 10 ac 3d 53 0d 0f 3e a3 24 31 3e
       0.023472449 0.0840155 0.13969927 0.17299132
000150 67 d7 c5 bb 95 0b b7 bd d8 4d ac 3d 60 03 73 bd
       -0.006037641 -0.08937756 0.08413285 -0.05932939
000160 ee 6b a4 bd 3f 53 cd bd 54 e8 0a be a9 09 41 be
       -0.080283985 -0.100256436 -0.13565189 -0.18851341
000170 ad 2b a1 3d 8e c4 49 3d 33 98 14 be 07 ad 03 3e
       0.078696586 0.049259715 -0.14511184 0.12858973
000180 29 83 8e b6 19 35 0d be 85 8d 10 be 61 05 12 be
       -4.247199e-06 -0.13789786 -0.14116485 -0.14259864
000190 e5 bb e8 3d 1d 47 c9 3e e4 f3 25 be 11 69 fd 3d
       0.11363963 0.39312068 -0.16206318 0.123735555
0001a0 fb 22 9d 3e ea f9 99 3e 31 7e bb 3e b1 8a c2 3e
       0.3069075 0.30073482 0.36619714 0.37996438
0001b0 67 a0 91 b5 ea a0 fe b8 fa a1 9e 3e 93 96 01 38
       -1.0850025e-06 -0.000121416364 0.30982953 3.089623e-05
0001c0 fd f3 1b bc fa 36 5f 3e c2 6d 95 3e 75 1f 57 3e
       -0.009518621 0.21798316 0.291853 0.21008094
0001d0 a2 50 82 3e 2c e3 cc bd 3b 22 59 3e cb fa 92 3e
       0.25452143 -0.10004267 0.21204464 0.28706965
0001e0 e5 8b b7 3a 3f 1d b8 bd 7a fe 2c bd 97 e1 cd bb
       0.0014003484 -0.08989953 -0.042234875 -0.006282996
0001f0 cd e5 1f bc c8 48 c2 bd 4d 39 b6 3b 17 21 3b be
       -0.009759379 -0.09486538 0.00556103 -0.18274342
000200 89 bb b1 bd ff 82 83 bd 23 d8 80 bd 91 8c 1d be
       -0.086783476 -0.0642147 -0.06291225 -0.15385653
000210 90 15 35 3e e5 93 a5 3e f1 be 26 bd 53 33 95 3e
       0.17684007 0.32339397 -0.04070944 0.2914072
000220 ae e1 9f 3e 19 e1 8a 3e fe f9 6e 3e 8c 68 8e 3e
       0.31226867 0.2712486 0.23337552 0.27814138
000230 f0 ce cc bb 03 c8 33 bd 80 9d 8c 3e 95 d8 97 bd
       -0.006250255 -0.043891918 0.27463913 -0.074143566
000240 91 fb 60 be 83 84 3b be 91 74 30 bd 58 b9 30 be
       -0.21970965 -0.18312268 -0.043079916 -0.17258203
000250 75 c7 61 3e 0d d5 66 3e 96 20 f2 bc 50 e4 8e 3e
       0.22048743 0.2254221 -0.029556554 0.27908564
000260 85 3f 81 3e 6c 3e 85 3e 36 60 b4 3e 6c 36 7b 3e
       0.25243774 0.26024187 0.35229653 0.24532479
000270 42 fa fb bc 83 19 3f bd 75 ce 5c 3e 48 af f0 bc
       -0.03075898 -0.04665519 0.21563132 -0.029380456
000280 3a 36 5d 3e b2 a1 b5 3e 6a 12 a7 3e 04 d4 84 3e
       0.21602717 0.35474926 0.32631236 0.25943005
000290 81 6b ce 3c 57 b9 db bd 4b 8b b7 3e 3b 26 33 3c
       0.025197746 -0.1072871 0.3584846 0.010934408
0002a0 ca 26 23 be 59 53 09 be df 87 ad bd c5 b8 66 be
       -0.15932766 -0.13410701 -0.08473181 -0.22531421
0002b0 49 62 13 3e 36 0f 40 3d 31 84 69 be 30 3d 34 3c
       0.14392962 0.046889506 -0.22804333 0.011000916
0002c0 dc 63 03 36 c1 4a 0a be 1b c1 cb bd c5 1f 02 be
       1.9578647e-06 -0.13505079 -0.09948941 -0.12707432
0002d0 0c 84 db 3d f0 80 ae 3e 18 87 56 be 11 80 eb 3d
       0.10718545 0.34082747 -0.20949972 0.11499036
0002e0 11 22 88 3e cc 5f 79 3e c6 05 b9 3e 1c 2e b1 3e
       0.2658849 0.2435295 0.36137217 0.3460549
0002f0 ee 20 03 36 c5 fc b0 b5 bd 46 75 3e 83 eb 96 35
       1.9539689e-06 -1.3186587e-06 0.23952766 1.1244414e-06
000300 a5 b8 c2 b5 fd 3c 92 3e 39 fc 96 3e 3f f3 94 3e
       -1.4507865e-06 0.28562155 0.29489306 0.29091832
000310 2b 86 95 3d c3 ad 64 be 24 60 a1 3e bf d3 91 3d
       0.07300981 -0.2233191 0.31518662 0.071204655
000320 22 a7 87 be 3c d5 51 be d7 31 84 be d5 e8 08 be
       -0.264947 -0.20491499 -0.25819275 -0.13370068
000330 c6 34 da b5 bc 2d 25 b8 b8 c6 37 be 4f 7c 55 35
       -1.6257625e-06 -3.938166e-05 -0.17946899 7.9529576e-07
000340 97 5d 3e bd 37 d5 5c bd a3 3d 32 be 10 90 71 be
       -0.046475973 -0.053914275 -0.17406325 -0.23590112
000350 65 0b 2a 3e d9 68 88 3e df f0 70 bd 5f bc 80 3e
       0.16605909 0.26642492 -0.058823463 0.25143716
000360 6a 45 84 3e c5 dc 7e 3e 1f fe 9e 3e 3b 22 ad 3e
       0.2583421 0.24888904 0.31053254 0.33815178
000370 79 e8 e4 bc 26 e4 87 bc 79 4c 9b 3e 4e 0f 21 be
       -0.027942883 -0.016588282 0.30331782 -0.15728495
000380 61 a2 99 bc 9d 4b 90 3e c4 c9 b0 3e 1c 75 a5 3e
       -0.018754186 0.28182688 0.34528935 0.3231591
000390 a6 8c 06 3e 75 38 5c be cd 03 91 3e 29 3a 00 3e
       0.1313959 -0.21505912 0.28323212 0.12522186
0003a0 91 db 66 be 31 50 18 be e3 68 2e be 9a 53 3c be
       -0.22544695 -0.1487434 -0.17032199 -0.18391266
0003b0 fa d7 20 37 f4 69 b4 bd 2a 58 f4 bd c5 ea b6 ba
       9.587029e-06 -0.088092715 -0.119308785 -0.0013955465
0003c0 32 30 25 bc b1 9e a8 3e 5a e2 93 3e 8a 72 ba 3e
       -0.010082291 0.32933572 0.2888363 0.3641551
0003d0 6a 5f 2b 3e 82 42 20 be b4 90 80 3e 5a 3c a6 3e
       0.16735616 -0.1565037 0.251104 0.3246792
0003e0 38 38 31 be 55 b2 4e bd 4d 44 42 be 13 e3 cc bd
       -0.17306602 -0.05046304 -0.18971367 -0.100042485
0003f0 f1 79 b9 bc 44 86 41 be b4 39 42 bd 21 69 36 be
       -0.022641154 -0.18898875 -0.04741831 -0.17813541

graphlayers.1.bias f4 [16]
000000 c0 ca 86 be b0 a5 a2 3d 2f d3 88 3d dc 41 84 3d
       -0.2632656 0.07941759 0.06680905 0.06457874
000010 a3 1c be 3e be 39 00 3e 41 02 b4 3d c6 45 f2 3e
       0.37131223 0.12522027 0.087894924 0.47318858
000020 f1 ae e9 3d 29 93 01 3e 38 c2 02 3e ad a5 0c 3e
       0.114103206 0.12653793 0.12769401 0.13735075
000030 11 b1 85 be 89 79 35 be 23 95 11 3e 4b 32 43 be
       -0.26111653 -0.17722143 0.14217047 -0.19062154

linlayers.0.weight f4 [2, 16]
000000 84 a1 7b bf d2 f7 8a 3f 86 4c 8c 3f 4f 50 7a 3f
       -0.9829333 1.0856879 1.0960853 0.9777879
000010 58 72 9a 3f c0 83 78 bf 5a 4a 82 3f b4 65 97 3f
       1.2066145 -0.97076035 1.017894 1.1827912
000020 cd 2f 5b bf bc ce 63 bf d2 27 64 bf dd c1 76 bf
       -0.85619813 -0.88987327 -0.8912326 -0.9638956
000030 88 d7 72 bf 2a e5 80 bf cb 6b 5d bf 34 bf 83 bf
       -0.94860125 -1.0069935 -0.86492604 -1.0292726
000040 5f 8c 84 bf e2 0f 82 bf 9c d5 8f bf de f2 8e bf
       -1.0355338 -1.0161097 -1.1237063 -1.1167867
000050 04 21 49 3f 09 e2 8e 3f bb 3c 6a bf 2b ce 76 3f
       0.78566 1.116273 -0.9149892 0.9640834
000060 16 02 94 3f 26 d1 8a 3f 3b 39 8e 3f cc 26 98 3f
       1.1563137 1.0845077 1.1111215 1.188684
000070 6c bd 81 bf 43 6e 77 bf ff b8 77 3f bc d5 36 bf
       -1.0135932 -0.9665262 0.96766657 -0.7141988

linlayers.0.bias f4 [2]
000000 39 0e 6a 3f 3d ba 65 3f
       0.9142795 0.897373
