weigths_K4U_N8_L8.pt (torch, 138604 bytes, 6 tensors)

graphlayers.0.weight f4 [512, 64]
00000000: 6e04 a9bd f865 94bd 70d0 9fbd 1468 02bd
00000010: ce7b d7bd 80e2 703d 1c8c 54bd 8ecf c63d
00000020: b030 6abd de34 a5bd 90ef 68bc 8831 fabd
00000030: 7cfc 3bbd c0a5 ac3c de06 d5bd be6d ffbd
00000040: 3057 e8bc 2cdc 54bd f844 d43d b4e4 66bd
00000050: 58b4 783d 805c 0bbc b4ed 593d 1c25 463d
00000060: 28db 833c 1cda c93d 4059 4f3c 3cbd 463d
00000070: 403b d13c 5846 993d b4ba ab3d 747d 2cbd
00000080: 488e 24bd 201e cebd 74fe a63d 62bc e8bd
00000090: 4088 a63b 209e 4dbd 3673 ea3d 72eb 89bd
000000a0: dc2a fc3d 90b0 d2bd 40cc dcbd de65 8ebd
000000b0: 84f0 a23d 081a 62bd 782a 85bc 0018 2cbd
000000c0: 5092 f33c b01d 4e3d f430 cb3d b862 45bd
000000d0: d8df 243d 48ae ea3d e4f2 983d 0c40 25bd
000000e0: ea60 cabd 3ec1 873d 60c9 dcbd 907e 6b3d
000000f0: 0e61 a0bd a24a b43d 1871 82bd de95 ddbd
00000100: ac0d 83bd 3cc3 b23d 645d 21bd 687f a2bc
00000110: 9c8b 723d 00a6 f23a 8a48 bcbd 7800 033d
00000120: bc08 d13d b096 d13d aecc bc3d a040 a23b
00000130: 8402 2ebd 6030 98bb fcf9 3fbd 4c2c adbd
00000140: 9c56 563d 00fe a7b9 b0e4 cebd 22a7 d53d
00000150: 46da d03d 2c1e ef3d 604b 92bb 40d3 8bbb
00000160: e032 9f3d 1ce2 34bd 608f c5bd b6ff f9bd
00000170: 5ee3 df3d ecd2 893d bc53 113d 90e4 a7bc
00000180: 2e9d 9fbd 50e5 f53c b4d4 323d 5ae6 b7bd
00000190: 148d cb3d b858 d83d d0d0 153d c48c ce3d
000001a0: 96b3 a2bd 9802 5dbd b021 2b3d d460 d0bd
000001b0: 348e 24bd 6011 9e3b 8c3b 1dbd 0a60 89bd
000001c0: c0df 633b 046b 09bd 4c88 c53d b09f cfbd
000001d0: 6e66 81bd bc4b 163d 4a07 e5bd 0465 153d
000001e0: be33 b23d 8e55 ab3d 2057 62bd 00b8 3f39
000001f0: 80b6 673c f0b8 513d cc64 acbd 802f f63d
00000200: 34a8 27bd 080f c93d f803 dcbc 22b9 8c3d
00000210: 3c8f 583d 3c83 66bd a08c e1bd 184a 6cbd
00000220: 12db 98bd c0de febc d073 b93d 8cc2 7fbd
00000230: 2448 60bd 5c97 c6bd ac30 e23d 808e c7ba
00000240: b88c 4e3d 70ad 6cbd 2ace d23d 4040 7a3d
00000250: 3c19 c1bd c08a 7fbb 1cdb 213d 7aea c3bd
00000260: 080a ccbd b087 f53d 3630 fbbd acc6 a43d
00000270: d232 bfbd 7075 1ebd b4e9 463d 966c 843d
00000280: ecdb 07bd 005a 12bb 7eca 9c3d d021 c9bc
00000290: 2420 02bd 60d9 bcbd 56f9 adbd fcec 673d
000002a0: a2a2 dfbd c0fd cbbd 903e 13bd 9657 bb3d
000002b0: eca1 763d d0f2 debc e694 f6bd d0ff 14bc
000002c0: d685 dcbd 009a 75bd a201 903d 801d 0c3c
000002d0: f816 9b3d 5a1d a0bd ae18 c7bd 7a62 b6bd
000002e0: f6e9 afbd 00ec 88b9 6452 efbd 90b4 ba3c
000002f0: e025 753d 184f 42bd 8a49 cf3d 880f 06bd
00000300: bc4d 51bd 86b2 fbbd f831 8b3c b04e 05bd
00000310: 0a3f 94bd d600 c5bd ec80 8fbd e45d 9b3d
00000320: 18bd 2ebd 54d2 4d3d deaf c5bd d612 9d3d
00000330: 2c3c 23bd 80dc 6dbb 2075 82bd 187a ad3d
00000340: eeb9 973d 70f3 a2bc cc74 4abd d020 4d3c
00000350: c031 01bb 48fa aa3c 4c17 ffbd d8c5 333d
00000360: 0081 49bd 6047 e0bd 88a9 843c 50c3 533c
00000370: 648a 0bbd 8017 c53a 4054 193b fa47 e3bd
00000380: eed6 c33d 1c53 44bd 6c5d 9a3d f403 10bd
00000390: 4ca0 b73d a09c 8e3c 78fc f03d 6632 af3d
000003a0: 985b 203d 0062 3bbd c878 fa3d 8841 423d
000003b0: a81f 3bbd dc6f 123d c03a 48bc d2cb cf3d
000003c0: 0484 f4bd 46b9 913d e0e9 5b3c 2cc9 4b3d
000003d0: 0ab7 ae3d c0ec 603d 30b1 be3c 8cb3 fbbd
000003e0: 9493 2f3d 828a 913d 3ef0 fa3d 1c88 5bbd
000003f0: 28f2 be3c 7858 513d 02d0 9f3d f49d 403d
-0.08252798 -0.072460115 -0.07803428 -0.031837538 -0.10521661 0.058809757 -0.05189143 0.09707557
-0.05717534 -0.08066724 -0.014217272 -0.122164786 -0.045895085 0.02107513 -0.104017004 -0.124721035
-0.028361887 -0.051967785 0.10364717 -0.056370452 0.060718864 -0.00850594 0.053205207 0.048375234
0.016095713 0.09856054 0.012655556 0.04852031 0.025540948 0.0748412 0.0838522 -0.04211183
-0.040174752 -0.1006434 0.08154002 -0.11364056 0.0050821602 -0.050199628 0.11447756 -0.06734361
0.12312862 -0.10287583 -0.10781145 -0.069530234 0.07956031 -0.055200607 -0.016255602 -0.042015076
0.029732853 0.05032128 0.099214464 -0.04818985 0.040252537 0.11459023 0.07468203 -0.040344283
-0.09881766 0.06628655 -0.10780597 0.057493746 -0.07831012 0.088032976 -0.06369227 -0.108196005
-0.06399092 0.08728644 -0.039395705 -0.019836143 0.059215173 0.0018512607 -0.09193523 0.03198287
0.10206744 0.102338195 0.09218727 0.0049515516 -0.042482868 -0.0046444386 -0.046869263 -0.084557146
0.05232869 -0.00032041967 -0.101022124 0.10432269 0.10197882 0.11675677 -0.004464552 -0.0042671263
0.077733755 -0.044160947 -0.09646487 -0.12206976 0.10932039 0.06729683 0.035480246 -0.02049473
-0.077936515 0.030016571 0.04365988 -0.08979483 0.09939018 0.10563797 0.036576092 0.10085443
-0.079444095 -0.05395755 0.041780174 -0.101747185 -0.040174678 0.0048238486 -0.038386866 -0.06707771
0.0034770817 -0.033549324 0.09645137 -0.1013788 -0.06318365 0.03669332 -0.11183031 0.03647329
0.08701275 0.08365928 -0.05525887 0.00018283725 0.0141426325 0.05120176 -0.08417663 0.12020779
-0.040931895 0.0981732 -0.026857361 0.06871249 0.052870974 -0.0562775 -0.1101315 -0.05768785
-0.07463659 -0.031112075 0.090552926 -0.062441394 -0.0547563 -0.09696838 0.1104444 -0.0015224963
0.05042717 -0.05778259 0.10293229 0.06109643 -0.09428641 -0.0038992614 0.0395156 -0.09566207
-0.09962851 0.11988771 -0.12265055 0.08045706 -0.09335865 -0.038686216 0.04856272 0.064660236
-0.03316872 -0.0022331476 0.0765581 -0.024552256 -0.031768933 -0.092211485 -0.08494823 0.05662249
-0.109196916 -0.09960508 -0.035948336 0.09147565 0.060213014 -0.027215391 -0.12040119 -0.009094194
-0.10767715 -0.05996132 0.070315614 0.008551955 0.0757274 -0.07818098 -0.09721504 -0.08905502
-0.085895464 -0.00026115775 -0.11685637 0.022791177 0.059850574 -0.04743871 0.10121448 -0.032729656
-0.051099524 -0.1228991 0.0169916 -0.032545745 -0.07238586 -0.096193 -0.07007012 0.075862676
-0.042660803 0.050249413 -0.09652685 0.07669608 -0.039852306 -0.0036294758 -0.06369996 0.08470553
0.0740851 -0.01989147 -0.049427792 0.01252003 -0.0019713491 0.020871297 -0.124556154 0.04388985
-0.04919529 -0.10951114 0.01619412 0.012924984 -0.034067526 0.0015036911 0.0023396164 -0.11097713
0.09562479 -0.04793082 0.0753735 -0.03516002 0.08966121 0.017408669 0.117669046 0.085545346
0.03914985 -0.045747757 0.122300684 0.047425777 -0.045684487 0.03575121 -0.012221038 0.101462975
-0.119392425 0.07115416 0.013422459 0.0497524 0.08531006 0.054913282 0.023277849 -0.12290105
0.04286535 0.071064964 0.12252854 -0.0535966 0.023308828 0.05110976 0.07803346 0.047025636

graphlayers.0.bias f4 [64]
00000000: 9603 cf3d 7842 bbbd d89a 4d3d bc70 e83d
00000010: 70ef 543d ac12 fbbd 2eff e33d 3a8a ac3d
00000020: b00c 87bd b4e4 ff3d 18db 71bd 009a 41ba
00000030: a091 7dbd a236 e53d cac9 85bd 0012 35bb
00000040: 1ccf 333d 8004 da3b 406f b9bd f0fe c93d
00000050: b0e4 823c 5c27 70bd 6cf9 33bd 5096 ffbc
00000060: 38ad d43d 722b 9cbd 1296 ba3d 40e2 ecbc
00000070: a49a 733d 760e b0bd b8bf 643d 00b2 ac3a
00000080: a072 9abb 9637 e23d 7025 c0bc 30b3 913c
00000090: 9a91 e0bd 0420 ee3d 98b3 5bbd 7210 cbbd
000000a0: a44a 20bd 8431 543d 7809 9dbd 383c bb3c
000000b0: f673 db3d c0ff 003b 0c19 ea3d 50ce 333d
000000c0: 02a6 9a3d 960e cbbd a27d fbbd 8257 95bd
000000d0: 80e2 0cbd 40fa 113d 0063 103b 40cd 753b
000000e0: 005a 883a 803b 1bbb e065 b9bd 5626 f13d
000000f0: 9efa ac3d 420a af3d 0013 dd3c 2ec1 f03d
0.10108106 -0.09143537 0.0501965 0.113496274 0.051986158 -0.12259421 0.11132656 0.08424802
-0.06594217 0.124947935 -0.059046835 -0.00073853135 -0.061906457 0.11192061 -0.06532629 -0.0027629137
0.043898687 0.0066533685 -0.090544224 0.098630786 0.015978187 -0.058631286 -0.04393904 -0.031199604
0.10384601 -0.07625474 0.09110655 -0.028916478 0.05947365 -0.08596508 0.0558469 0.0013175607
-0.0047133714 0.110457584 -0.023455352 0.017785639 -0.10965271 0.116272 -0.05363807 -0.09915246
-0.039133683 0.051805034 -0.07667822 0.022855863 0.10715477 0.001968369 0.114305586 0.043897927
0.07551195 -0.099148914 -0.12279822 -0.072920814 -0.034395695 0.035639048 0.0022031665 0.0037506372
0.0010402799 -0.0023686588 -0.09052634 0.1177489 0.08446239 0.085468784 0.026986599 0.11755596

graphlayers.1.weight f4 [64, 16]
00000000: ccdb 11be 5431 28be 4cc7 8b3d d21c 0f3e
00000010: 6632 483e 00da a8bc 10dd 29bd 701c 8c3d
00000020: e214 163e 26f1 593e 6c44 fabd 9859 cb3d
00000030: 20a7 6abd a0a7 063c 5044 4c3d 5c2c 7abe
00000040: 70b3 51be 50f6 f1bd c8ab 4f3e e6c2 403e
00000050: e23c 50be 343a 92bd e4ec 2c3e 2c8a 6ebe
00000060: 78e6 4b3e 2ce0 d1bd 14eb 8cbd 3a8a 533e
00000070: 00d2 793e d80a 2f3e 0836 c93d 785c debd
00000080: e4ad 4ebe e46a 40be 5cba 00be bc93 d9bd
00000090: b2aa 6abe 5ae7 62be e899 6abe 98df 0d3d
000000a0: 220f 74be 40cb 053e e0d7 aebd 3058 dabc
000000b0: d093 03be 004d 55bc a865 113d 3cff 873d
000000c0: a0e1 713c c847 35bd 266c 633e ec79 423e
000000d0: cafd 463e 60be 013c a0bd 78be 3052 763e
000000e0: 00ca 19be 442e 88bd b0d2 babc 7e97 52be
000000f0: 340a efbd 745b fdbd 84ec 18be 24a4 b03d
00000100: fa2a 3abe fa04 203e 603e e5bc 2266 513e
00000110: a0bf 9e3d 8049 803c b43b 9cbd d49e 22be
00000120: e8bc 483e 900f 3cbd 749c 203e 7463 363e
00000130: ac58 45be b848 e33d a68d 5dbe 4074 e13b
00000140: 3eb7 503e 5cb3 e5bd 0024 e73a b0b6 2ebe
00000150: 6c69 e0bd 8877 b6bd 6433 643e a0d2 9abd
00000160: 10d8 473e d888 2dbe 0891 153d b053 cc3c
00000170: cae1 74be 2e95 39be 1a7c 11be 00d0 d438
00000180: 5670 7e3e 1893 63bd 7aee 78be 885a f33d
00000190: 5a6c 413e e01f b13c 90d1 b7bd 429c 61be
000001a0: d071 283d f6dd 1c3e 90fd 833d c8ca 05be
000001b0: 58b5 2fbd 189e 7d3e 380b 6f3e 569c 263e
000001c0: 8aec 463e 509f 3c3e f4cd 643e 38a1 57bd
000001d0: 7032 2fbe 08bf 543e 56ee 743e 0075 0b3e
000001e0: 5c77 54be 9881 6b3d a04c 813d 7045 9c3d
000001f0: ecc0 363e 90d0 10bd fa99 56be c043 60be
00000200: d4f1 633e b085 c13d 021b 663e eec6 5dbe
00000210: 3ab4 473e dc40 81bd 2027 313d 6816 613d
00000220: 0ed6 1abe 687a 5e3d c2fe 2a3e 5894 08bd
00000230: ac84 5e3e 10b0 dcbc 28a3 e2bd 4207 283e
00000240: a0f0 52bc 2040 2ebd 32ec 11be e0a2 65bc
00000250: fcd9 d83d b0ca 053d 4a0c 113e 3062 153d
00000260: 7c5e d93d 5029 f53c 4028 f6bd 76d2 07be
00000270: f097 ca3d 7001 f5bd 40e4 79bc 480c f7bd
00000280: 1c0d 053e 48d2 2bbe c4de 573e 38f1 f0bd
00000290: 4828 c0bd 305f 653e 1cdd ac3d d657 58be
000002a0: 6e99 723e 40ba 4d3c 5c1d 6d3e 56b7 123e
000002b0: 3cb0 d2bd e8ea 353d d0da 773d fafa 773e
000002c0: 9064 1f3e b0c9 b93d 6811 27bd f079 563d
000002d0: 14b4 873d a61f 1ebe 908c 3b3d b098 3cbe
000002e0: 781a 65be f280 70be b89f 213d 7872 663e
000002f0: 9089 8b3d dc67 3fbe a88e 5d3d 488c 9b3d
00000300: 3cf3 983d a8cc 27bd 2896 0bbe 887a 4abd
00000310: c07e 283c 7ed6 60be d43e ccbd 1854 f8bd
00000320: 80ee 68bd d8c6 3fbd 0abb 5f3e 4a97 473e
00000330: d0d8 eebc 482f a63d 26ea 69be 4833 2f3e
00000340: f409 a93d fc26 763e c076 cabb 10fa 9ebc
00000350: a6bd 6dbe 520f 7a3e d0e6 c7bc 0063 bb3b
00000360: 4e48 35be 5a3b 0dbe 6c8c 62be 0041 84bd
00000370: 1809 1f3d 6042 59be da15 703e d2a5 6fbe
00000380: a820 513e ee44 02be 90c2 9e3d 60a4 143e
00000390: b24b 7abe 02d6 57be a2dc 1fbe b074 dbbd
000003a0: d033 e43d 7cff dc3d 9c70 40be 4468 75be
000003b0: a62d 1b3e 2053 71be 685c eebd 88ec be3d
000003c0: 706b bfbd 3425 75be cc7b c33d 2e62 13be
000003d0: f8bf 753e d253 62be 40cc 4bbd 429d 2ebe
000003e0: 807d d83d 4827 bdbd 402a f2bd fc9d 64be
000003f0: c472 2f3e 009d 48be bc59 30be d835 6fbe
-0.14244002 -0.16425067 0.06825122 0.13975838 0.19550475 -0.020611763 -0.041470587 0.068413615
0.14656404 0.21283397 -0.12220082 0.09929198 -0.05728829 0.008218676 0.049869835 -0.24430984
-0.20478606 -0.118145585 0.20280373 0.18824348 -0.20335725 -0.071400076 0.16887242 -0.23294896
0.19912136 -0.102478355 -0.06880775 0.20658198 0.24396515 0.1709398 0.09824759 -0.10857481
-0.20183522 -0.18790776 -0.1257109 -0.10623881 -0.22916678 -0.22158566 -0.22910273 0.034637064
-0.23833898 0.13065815 -0.08537269 -0.02665338 -0.12849355 -0.0130188465 0.035497338 0.06640479
0.014763266 -0.04425791 0.22209224 0.18991822 0.1943275 0.007918924 -0.24291086 0.2405479
-0.15018463 -0.066494495 -0.022805542 -0.20565602 -0.11671868 -0.12370959 -0.14933974 0.08625057
-0.18180457 0.15626898 -0.027983844 0.20449117 0.07751393 0.015660048 -0.07628575 -0.158809
0.19603312 -0.04591328 0.15684682 0.17811376 -0.19272107 0.110978544 -0.21636066 0.006880313
0.20382401 -0.11215851 0.001763463 -0.17061877 -0.109576076 -0.089095175 0.22285229 -0.07559705
0.19516015 -0.16946733 0.036515266 0.024942249 -0.23914257 -0.18123314 -0.14207497 0.00010147691
0.2484754 -0.0555602 -0.24309722 0.11882502 0.18888989 0.021621644 -0.08975518 -0.22032264
0.041124165 0.15319046 0.064448476 -0.13065636 -0.042897552 0.24767339 0.23344123 0.16270575
0.1942617 0.18420148 0.2234419 -0.052643985 -0.17109084 0.20775998 0.23919043 0.1361885
-0.20748657 0.057496637 0.06313443 0.07630432 0.17847031 -0.03535515 -0.20957175 -0.21900845
0.22260219 0.09449327 0.2247124 -0.21657917 0.19502345 -0.06311199 0.043250203 0.05495301
-0.15120718 0.054315954 0.16698745 -0.033344597 0.21730298 -0.026939422 -0.11066276 0.16409019
-0.012874752 -0.042541623 -0.14250258 -0.014015883 0.10588452 0.032664 0.14164844 0.036470592
0.106137246 0.029926926 -0.12019396 -0.13263878 0.09892261 -0.11963165 -0.015252173 -0.12062889
0.12993282 -0.16779435 0.21081072 -0.11764759 -0.09382683 0.22399592 0.08440611 -0.21127257
0.23691341 0.0125566125 0.23155731 0.1432775 -0.1028752 0.044413477 0.06051141 0.24216834
0.15565705 0.09071672 -0.040788084 0.052362382 0.06626144 -0.1544176 0.045788348 -0.1841762
-0.22373378 -0.23486689 0.03945896 0.22504604 0.06813347 -0.18691963 0.054091126 0.07595116
0.07468268 -0.04096666 -0.13631499 -0.04943326 0.010284126 -0.21956822 -0.09972921 -0.121254146
-0.056868076 -0.04682049 0.21848693 0.19491306 -0.029156119 0.08114487 -0.22843227 0.17109406
0.082538515 0.24038309 -0.006178707 -0.019406348 -0.23216876 0.24419907 -0.024402052 0.005718589
-0.17703363 -0.13792172 -0.22123879 -0.0645771 0.03882703 -0.21216726 0.23445836 -0.23403099
0.20422614 -0.12721607 0.077519536 0.14515829 -0.24442938 -0.21077731 -0.15611508 -0.10715616
0.11142695 0.10790917 -0.18792957 -0.23965555 0.15154132 -0.23566866 -0.11638719 0.093224585
-0.09346664 -0.23939973 0.09545097 -0.14392921 0.23999012 -0.22102287 -0.049755335 -0.17052177
0.10570812 -0.09236008 -0.11824465 -0.22325891 0.17133623 -0.19591141 -0.17221731 -0.23360384

graphlayers.1.bias f4 [16]
00000000: 48ec 18bd c8b9 443e 406c c23b de19 083e
00000010: c634 6ebe c442 963d d065 593d d8a7 563d
00000020: 5426 74be 9843 44be 80b4 a93b 0875 f8bd
00000030: d475 363e ccf7 e13d e0a0 3f3d 9089 abbd
-0.03733471 0.19211495 0.0059333146 0.13291118 -0.23262319 0.07336953 0.05307561 0.052406162
-0.23842746 -0.1916641 0.005178988 -0.12131697 0.17818385 0.11033592 0.04678428 -0.08375847

linlayers.0.weight f4 [4, 16]
00000000: 0c1f c63d c89e 223d 32f0 263e 1445 903d
00000010: 8035 d03c 5443 b4bd 441f 5fbe 509e 3dbe
00000020: 90a9 33bd 4055 d53c 483a a5bd 9cc3 56be
00000030: 0c64 45be e2f1 7abe 70c5 c63c 044f dd3d
00000040: 82c4 153e 92d0 623e cc00 23be 0091 453b
00000050: 5038 1f3e 86ae 793e dce7 793e 80c6 61bd
00000060: 0c43 c33d 4007 4abd 4004 e83b 2095 fabc
00000070: 48ba 6e3e 7493 4cbe 3c7e f4bd 00ab bc3d
00000080: 4e66 3e3e 4262 073e 285f 5cbd 6066 a03d
00000090: c692 073e c03c f13b 60c4 b93d c053 6cbc
000000a0: 105c 703e a0d1 44bd b077 603e 785d 7fbe
000000b0: 00ed dfbc d4ed 523e e0be e8bc 98d1 05be
000000c0: 56d9 743e 5c05 41be 4e56 3abe 82bd 693e
000000d0: 7024 733e 76e0 7f3e f422 edbd d09e 3cbd
000000e0: 9ce5 b03d 5ac7 19be f830 9bbd ba01 55be
000000f0: b09a d2bc ac6f 51be f4bd 1abe d0fc 6fbd
0.096738905 0.039702207 0.16302565 0.070444256 0.025416136 -0.08801904 -0.2178927 -0.18517423
-0.04386288 0.026041627 -0.08067757 -0.20973057 -0.19276446 -0.24506333 0.024264067 0.10806087
0.14625743 0.22149876 -0.15918273 0.0030146241 0.15548825 0.24382982 0.24404854 -0.055120945
0.095342726 -0.04932332 0.0070805848 -0.030588686 0.23313248 -0.19978124 -0.1193814 0.09212303
0.18593714 0.13221076 -0.053801686 0.078320265 0.13239583 0.0073619783 0.09070659 -0.014424264
0.23472619 -0.048051476 0.21920657 -0.24937999 -0.02733469 0.20598537 -0.028411329 -0.13068235
0.23911032 -0.188497 -0.18196985 0.22826198 0.23744369 0.24987969 -0.115789324 -0.046049893
0.086375445 -0.15017453 -0.075776994 -0.2080144 -0.025708526 -0.20452756 -0.15111524 -0.05859071

linlayers.0.bias f4 [4]
00000000: 2abd 63be 58e3 38be 064f 63be 1e8a 19be
-0.22240129 -0.18055475 -0.22198114 -0.14994094
