Data/w_100_40.pt (torch, 30540 bytes, 8 tensors)

graphlayers.0.weight f4 [64, 64]
000000 03 da 54 be 55 c0 06 3e 95 16 1c be 68 e5 e6 bd
       -0.2078629 0.13159306 -0.1524299 -0.112742245
000010 22 6b c3 bd b7 28 a5 bd 62 14 06 be d6 a9 31 3d
       -0.09541918 -0.08064406 -0.13093713 0.04337486
000020 9f 0e 24 be 57 3b 93 3d 19 80 45 be 60 f5 2a 3d
       -0.16021203 0.071890526 -0.19287147 0.041737914
000030 bc 78 c1 bd f8 0b f5 3d d4 97 9c bd 28 85 94 bd
       -0.094468564 0.119651735 -0.076461464 -0.0725196
000040 ce 87 0e 3e 57 e7 9a 3d b6 3e 3c be 4e ec 34 be
       0.13918993 0.07563656 -0.18383297 -0.17668268
000050 69 24 bf bb 11 84 8a bd 92 e6 9d bd 97 b1 ee 3d
       -0.005833198 -0.06763471 -0.077099934 0.11654966
000060 c7 6b 99 3c 1c 22 4b bd 1b 26 9d 3d 58 a1 26 be
       0.01872815 -0.049593076 0.07673284 -0.16272485
000070 2e b0 98 3b 92 50 88 bd 9f 62 ca 3d 97 bd 6f 3d
       0.004659674 -0.066559926 0.09882092 0.058530416
000080 d7 fd a0 bd 0f 4d 95 3d 40 da 6f bd 7f 87 5d 3d
       -0.07860916 0.072900884 -0.05855775 0.054084297
000090 00 46 2e 3e c7 87 ad 3d fb cf c4 3a 62 3d ca 3d
       0.1701889 0.08473163 0.0015015596 0.09874989
0000a0 e6 92 66 bd cd 60 63 be 85 07 eb 3d 77 ed 06 3d
       -0.056292437 -0.22204895 0.114760436 0.032941308
0000b0 d0 46 8a 3a 8b 67 31 3d db 7b 5e be 82 17 52 bd
       0.0010549668 0.043311637 -0.21726935 -0.05129195
0000c0 27 b0 03 3e cd 9a 76 3d 71 92 a9 3d fa 02 d3 bd
       0.12860166 0.060206223 0.082798846 -0.10303302
0000d0 2b ea e3 3d 9f 55 31 be a9 16 bb bd 0e 15 ec bd
       0.11128648 -0.17317818 -0.091351815 -0.11527453
0000e0 ba 03 f1 3d 69 7d 80 3b 24 a2 d7 3d 87 4a 4f 3d
       0.11768289 0.0039212 0.10528973 0.050608184
0000f0 a6 6c 36 be 05 ac b8 3d a2 8b 6b bb e0 da 60 3d
       -0.17814884 0.09017185 -0.0035941382 0.054896235
000100 41 e3 98 bd bf 50 64 3e b9 bb f7 bd 62 41 23 be
       -0.0746522 0.22296427 -0.12096352 -0.1594291
000110 55 47 35 be 17 ad 70 be 0c 03 9d bd ae 9b 3c 3e
       -0.17702992 -0.23503529 -0.07666597 0.18418762
000120 ba 5f 82 be a3 ae 50 3e 58 3e 36 be a3 5a 62 3d
       -0.2546366 0.20379119 -0.1779722 0.05526222
000130 ba 93 90 bd 1c 70 3b 3e f1 2f a9 bd e7 f4 3a be
       -0.070594266 0.18304485 -0.08261097 -0.18257485
000140 14 fa b2 3d de e5 89 3e a3 c2 31 be 81 d0 8e be
       0.08739105 0.26933187 -0.17359404 -0.2789345
000150 48 7b 72 3e 7f e3 5d be 6a da 4a be ea 87 60 3e
       0.2367984 -0.21668814 -0.19809881 0.21926847
000160 3d 4a 5c 3e 75 dc 67 be bf f5 1b be 36 98 69 be
       0.21512695 -0.22642691 -0.15230463 -0.2281197
000170 99 81 7a 3e 76 3c 6d be b0 8e df 3d 3c 9c 0c 3e
       0.244635 -0.23167595 0.10915887 0.13731474
000180 7a 75 6b be a6 69 84 3e 3f 82 11 3d 21 e1 27 3e
       -0.22994033 0.25861853 0.035524603 0.16394474
000190 5c e7 49 3e a5 3a 29 3e 6d ab e6 ba b3 69 27 3e
       0.19717163 0.16526277 -0.0017598696 0.16348915
0001a0 c2 a3 47 be 62 eb e4 bc a2 0e 10 3e dc 27 c6 3d
       -0.19496062 -0.02794427 0.14068082 0.09675571
0001b0 3c 04 c9 bd 6b 69 36 3e 4c a1 88 be 64 5a 2b be
       -0.09815261 0.17813651 -0.2668556 -0.167337
0001c0 d4 e2 3e 3e f5 58 4f 3e 0b 1d 81 3e 3b 16 ae bd
       0.18641216 0.20248778 0.2521747 -0.08500334
0001d0 e0 5d 37 3e 23 4f a3 bd ae 98 47 be e5 ec 67 be
       0.17906904 -0.079740785 -0.19491836 -0.22648962
0001e0 0b 1e 15 3e f1 6f 6d 3e 9b 91 66 3e 4b 5b 9d 3d
       0.14562242 0.23187234 0.22516482 0.076834284
0001f0 6e 45 5e be c9 8f fb 3d e9 f4 95 bd f3 1b 01 3e
       -0.21706173 0.12283284 -0.073221035 0.12608318
000200 85 9c 78 be 89 d0 81 3e fc 75 60 be 04 60 57 be
       -0.24278457 0.25354412 -0.21920007 -0.21032721
000210 cd d9 5c be f2 fb 35 be 7d 53 55 be 3c 88 7a 3e
       -0.2156746 -0.17771891 -0.2083263 0.24466032
000220 12 bb 97 bd 7e 7e 48 3e 7e 9e 3f be 39 59 5e 3e
       -0.07408728 0.19579503 -0.18712804 0.21713723
000230 61 d4 d8 bd bd 76 91 3e e8 17 48 be 9d 5a 3e be
       -0.10587383 0.28410903 -0.1954037 -0.18589254
000240 24 81 37 3e f8 b3 25 3e f6 97 1b be 3e 4d 34 be
       0.17920357 0.16181934 -0.15194687 -0.1760759
000250 0f 2c 81 3e f5 4d 91 be 53 50 74 be 08 6b 13 3e
       0.25228927 -0.2837979 -0.23858766 0.14396298
000260 e1 58 f7 3d 9a c9 36 be 24 89 26 be 25 26 8a be
       0.12077499 -0.17850342 -0.16263252 -0.26982227
000270 c7 ed 39 3e 4e 61 28 be 17 4c 4d 3e 4f c4 6f 3e
       0.18157111 -0.16443369 0.20048557 0.2341473
000280 69 b9 64 be 3d e3 66 3e 2c 65 40 3e 42 82 24 3e
       -0.22336353 0.22547622 0.18788594 0.16065314
000290 b2 8f eb 3d 69 32 f1 3d e8 55 be 3c ec 62 f7 3d
       0.11502017 0.11777193 0.023234323 0.12079415
0002a0 c9 7c 38 be 9e e2 38 be 7c e0 88 3e 1f 69 c9 3d
       -0.18016352 -0.18055198 0.26733768 0.098345034
0002b0 11 4a 22 be 9b f5 7f 3e a1 af 87 be a3 30 86 be
       -0.15848567 0.24996035 -0.26501182 -0.26208982
0002c0 48 89 d4 3d 08 bc 58 3e f0 73 14 3e 75 e4 59 be
       0.10377747 0.21165478 0.14497352 -0.21278556
0002d0 9e 6b 1e 3e 04 87 77 be 69 93 93 bd d8 6b 3c be
       0.1547074 -0.24172598 -0.07205851 -0.18400514
0002e0 63 7c 23 3e 3a 77 81 3e 2a c1 9d 3d e4 5a 49 bd
       0.15965419 0.25286275 0.07702859 -0.049158946
0002f0 74 07 8f bd a2 42 c9 3d 1e d9 f6 bc d1 f8 82 3d
       -0.069838434 0.09827162 -0.030132826 0.06395114
000300 96 04 45 be 68 29 3d 3d d6 8e 40 be 2f 10 05 be
       -0.1924003 0.046182066 -0.18804488 -0.12994455
000310 b5 4f 1c be a5 e5 2a be 27 f0 0c be 29 9c 8a 3d
       -0.15264781 -0.16689165 -0.13763486 0.067680664
000320 3d a5 21 be 9b 75 98 bd 81 38 eb bd 88 e1 e1 bb
       -0.1578569 -0.074443065 -0.11485387 -0.0068933405
000330 c9 cf 3e be 89 17 27 3e 34 a3 d3 bd de ca 1f bd
       -0.18633951 0.16317572 -0.10333863 -0.03901183
000340 17 c0 12 be 31 29 1f be 44 a2 71 be 30 f0 13 be
       -0.14331089 -0.15543057 -0.23597056 -0.14447093
000350 0a 40 f9 bc b8 8b b5 bd f4 82 07 be 5b 91 ca bd
       -0.030426044 -0.0886454 -0.13233548 -0.098910056
000360 c1 cf d4 3d 83 5f ff bd b5 8b da bc ef 71 03 be
       0.103911884 -0.12469389 -0.026677946 -0.12836431
000370 8d ce a1 3d 00 09 28 be 08 45 b5 bd 81 02 02 3e
       0.079007246 -0.16409683 -0.08851057 0.12696268
000380 c4 be 1e be 5e 6e 74 3d cd 07 04 ba f0 6f d8 3c
       -0.15502459 0.059675567 -0.0005036563 0.026420563
000390 e4 c3 0b bd f8 3b e8 bd 95 98 31 3d 4e eb 1a be
       -0.034122363 -0.11339563 0.043358404 -0.15128824
0003a0 89 ca 03 be b7 85 20 be fc 6d 61 3d 09 50 26 3b
       -0.1287023 -0.15676008 0.05503653 0.0025377295
0003b0 d8 3d 2f 3e ea 0f f9 bc 4f db 4c be e1 25 3a be
       0.17113435 -0.030403096 -0.20005535 -0.18178512
0003c0 64 55 26 be 47 48 93 bb f1 87 5b 3d e0 97 f7 bd
       -0.16243511 -0.0044947 0.05359644 -0.12089515
0003d0 b1 88 8e bd df 23 67 bd 69 db 17 be 1f a6 27 be
       -0.069596656 -0.056430694 -0.14829792 -0.16371964
0003e0 22 f9 36 3b 3f 9f d2 3d 61 ef 9d 3d 4e cf 4d be
       0.002791949 0.1028428 0.077116735 -0.20098612
0003f0 c7 85 55 be 00 8d bf 3d 75 59 41 3c 5c 1f a6 3d
       -0.20851813 0.093530655 0.011801113 0.0811145

graphlayers.0.bias f4 [64]
000000 af d7 b7 3d 7e bf 25 3e 7b c7 6d 3e f5 fc 2c 3e
       0.08976685 0.1618633 0.23220627 0.1689337
000010 4c a5 2a 3e b5 96 3e 3e 64 d2 29 3e 01 a1 7c 3d
       0.16664618 0.18612178 0.16584164 0.061676983
000020 4a 71 5e 3e 78 62 ae 3d 9a 51 99 3d 49 76 c5 3c
       0.21722904 0.08514875 0.074862674 0.024104254
000030 89 3f 12 3e 9e 72 e9 3d d3 71 09 3e ed 4d 1a 3e
       0.14282049 0.113988146 0.13422327 0.15068789
000040 b5 24 b9 3d 3e be b5 3d e3 db 90 3e dd d2 8e 3e
       0.090402044 0.088741764 0.2829276 0.2789525
000050 72 19 19 3e 14 08 7b 3e 4f ba cc 3d 19 da b0 3d
       0.14951113 0.245148 0.09996473 0.08635349
000060 9b 5c 59 3d 05 1c 28 3e 26 54 4f 3d 5c ac ae 3d
       0.05306683 0.16416939 0.05061736 0.08528969
000070 a6 ce 94 3d 06 f1 d5 3d f8 9d 1c 3e 2d 47 d0 3d
       0.072659776 0.10446362 0.15294635 0.10169826
000080 7e c2 4a 3e 1e b0 c6 3d 4b 73 55 bc 79 b1 1a 3e
       0.19800755 0.097015604 -0.013027976 0.15106763
000090 4a 9f 0c 3e 55 96 d5 3d 33 8e 43 be 09 23 c8 3d
       0.13732639 0.10429064 -0.19097213 0.097723074
0000a0 0b fa 6c 3d d8 9f 30 3e d0 f7 e0 3d ab b4 36 be
       0.057855647 0.17248476 0.109847665 -0.17842357
0000b0 7b 71 91 3d 3e c5 9a 3d a5 16 86 3e a3 b3 1d 3e
       0.07101723 0.07557152 0.2618915 0.15400557
0000c0 0c 6f 9c 3d 7b 65 d2 3d 61 a6 e3 3d b3 53 52 3e
       0.07638368 0.10273262 0.11115719 0.20539741
0000d0 e0 d0 cf 3d e0 2e 5f 3e 26 46 25 3e 0c b9 6b 3e
       0.101472616 0.21795225 0.16140041 0.23019809
0000e0 94 ce c5 3d f9 34 38 3d d8 d4 e1 3d 68 26 fa 3d
       0.09658542 0.044972394 0.11026925 0.12214357
0000f0 8b b7 3c 3e 5f 58 e0 3d 1e b5 20 be 1c ba 84 3d
       0.18429391 0.109543554 -0.1569409 0.0648081

graphlayers.1.weight f4 [64, 32]
000000 df 92 58 bb b2 1c 2c 3e 62 bb 31 be e8 8f 12 be
       -0.0033046526 0.16807821 -0.17356637 -0.14312708
000010 11 73 39 3e 5c 51 8a 3e eb 9c 38 3d 8e 73 66 bd
       0.181103 0.27015197 0.045071524 -0.056262545
000020 b7 53 a1 bb 37 14 f1 3c 40 84 4f 3e 82 93 74 bd
       -0.0049233097 0.029428585 0.20265293 -0.059710987
000030 8d 00 1f 3e 23 f0 b7 3b a1 8e 3f bd 9d d3 e1 bd
       0.15527554 0.0056133433 -0.04676688 -0.1102669
000040 3f 34 68 3d 02 73 56 3b a2 e2 25 be 3c dd 97 3d
       0.05669045 0.0032722359 -0.16199735 0.07415244
000050 09 5e 87 3e cb 07 54 3e f9 b1 59 3d c8 1d 96 3d
       0.2643893 0.20706098 0.053148244 0.07329899
000060 96 49 17 3d 76 06 7d bd e3 c0 61 3e 42 85 79 3e
       0.03693541 -0.06177374 0.22046237 0.2436724
000070 ad 36 39 bd f1 de ca bd b4 64 04 3d 5a 33 e0 b8
       -0.04521816 -0.09905804 0.0323226 -0.00010690717
000080 83 5c 17 be 02 04 09 be f9 b4 79 3e ae be 82 3e
       -0.14781384 -0.13380435 0.24385442 0.25536102
000090 0e 7a 27 bb af 46 23 3e 50 77 f8 bd ab 50 e4 3c
       -0.0025554928 0.15944932 -0.12132132 0.027870497
0000a0 66 fc 93 3c 56 95 86 bd 7d 22 6b 3d 0c c7 56 bd
       0.018064689 -0.06571452 0.057405937 -0.05243592
0000b0 db 2d 00 be b0 1b 79 bd 5d df 9c bd 84 dd aa 3d
       -0.12517492 -0.06081742 -0.07659791 0.08343032
0000c0 08 52 22 be 8f c2 22 bd ab ab 57 3e ac ad 8a 34
       -0.15851605 -0.039736327 0.2106158 2.5830866e-07
0000d0 a8 74 a2 bd fa 00 87 3d df 18 03 3d 19 8d 0f 3e
       -0.07932407 0.06591983 0.03200614 0.14018668
0000e0 d3 71 cc bc 39 61 86 3e 68 c4 01 be 53 a7 b7 bd
       -0.02495662 0.2624605 -0.1267258 -0.089674614
0000f0 b3 72 a6 3e 90 90 ad 3e c0 7a 27 3d 68 20 5b 34
       0.32509384 0.33899355 0.040888548 2.0407754e-07
000100 8d 67 97 bd 8e 02 76 3d 52 5d e8 bd d3 97 2f bd
       -0.073927976 0.06006103 -0.113459244 -0.0428694
000110 f7 49 31 3e de fe 24 3e 40 57 ab bd 31 d0 67 be
       0.17313372 0.16112849 -0.08366251 -0.22638012
000120 34 5d ac bd 94 9b 26 3e 75 99 50 3e 13 51 34 be
       -0.084162146 0.16270286 0.20371039 -0.17609052
000130 05 13 c6 3c bb 9c 72 bd b9 d1 25 bc 86 d6 a1 3d
       0.024178991 -0.0592315 -0.010120803 0.07902245
000140 d7 ef 94 3e 81 dc a5 bd ca 9e dc bd da 96 f5 3b
       0.29089233 -0.080986984 -0.10772474 0.0074947895
000150 ae ff fa 3d 30 a6 1c 3e 2b b7 9b bc 7a 64 ca 3d
       0.12255798 0.1529777 -0.01900824 0.09882446
000160 8a 87 35 bd 9f 4f a5 3d 25 98 cb 3d 74 89 67 3e
       -0.044318713 0.08071827 0.09941129 0.22611028
000170 d8 f3 27 be ff 1f d9 bd fd 67 4e bd f8 56 22 37
       -0.16401613 -0.10601806 -0.05039214 9.676201e-06
000180 12 e0 c3 bd 8b b9 19 3e 6f 9e 0b bc 34 ab 0c be
       -0.095642224 0.15012185 -0.00852166 -0.13737184
000190 8c 9f 37 3d 87 06 25 3e cb b1 7d bd d0 de cc bd
       0.04482989 0.16115771 -0.061937135 -0.100034356
0001a0 1b b7 36 3d 51 cd 86 3e 5e 86 ef 3d 51 70 f7 bd
       0.044608217 0.2632852 0.116955504 -0.120819695
0001b0 26 2a 70 3e 89 59 07 bd 7e 7b 12 bc 3f b9 d2 bd
       0.23453578 -0.03304437 -0.008940576 -0.10289239
0001c0 84 18 2f 3e 6d 78 88 3d ab 41 a9 bd 9f ae 2a bc
       0.17099196 0.066635944 -0.08264478 -0.0104176095
0001d0 17 5b 93 3e 83 53 06 3e f8 39 58 3e 6e 79 33 3e
       0.28780434 0.13117795 0.21115863 0.1752679
0001e0 41 00 b0 bc a9 04 83 bd 6c ec d6 3d 86 d8 e9 3c
       -0.021484496 -0.06397373 0.10494313 0.02854563
0001f0 f9 1f 0e be 58 ee f3 bd 68 41 3d bd 22 5a 64 bd
       -0.13879384 -0.11910695 -0.046204954 -0.05575002
000200 6a 99 34 3c 81 9f 9b 3e 68 99 de bd 09 ca e1 bd
       0.011022905 0.3039513 -0.10869104 -0.11024863
000210 20 67 4c 3e 02 1d b0 3d c0 0d 8c bd d2 4b f1 bd
       0.19961214 0.08599283 -0.0683856 -0.1178204
000220 af 94 0f bc 4a 94 4e 3d 72 11 35 3e ae 3e 3a bd
       -0.008763476 0.05043439 0.17682436 -0.045469932
000230 3f a0 87 3e 74 dd b9 bd 15 89 28 bc 23 8a 06 be
       0.26489446 -0.09075442 -0.010286589 -0.13138632
000240 e1 31 98 3d 32 34 51 35 09 5f 12 bd c7 e7 53 bd
       0.07431389 7.793452e-07 -0.035735164 -0.051734712
000250 57 fa 44 3e 2f 7d 90 3e e1 09 85 3e ab 66 39 3e
       0.19236122 0.28220508 0.259841 0.18105571
000260 f7 e4 ed bb c7 76 2b 3d da 9d 9a 3e 75 76 4f 3e
       -0.0072599608 0.04186132 0.30198556 0.20260032
000270 0a a5 74 be 80 75 9b bd d1 09 ad ba 8d cc 31 bc
       -0.23891082 -0.07590771 -0.0013201778 -0.010851991
000280 2d ab d1 bd 68 37 5a 3e e5 b1 8f be e6 72 0f 3d
       -0.10237727 0.21310198 -0.2806541 0.035021685
000290 6f fb 63 3d b8 77 9d 3e 57 83 48 bd 09 07 56 be
       0.055659708 0.307554 -0.04895338 -0.20901121
0002a0 62 d3 72 bd be f1 ed 3d 68 0f 62 3e 0b cb 75 bc
       -0.05928362 0.11618374 0.2207619 -0.0150020225
0002b0 88 28 9e 3e f1 3c c5 3c 73 c2 99 3c 48 02 5d be
       0.30890298 0.02407691 0.018769478 -0.21582901
0002c0 b3 12 96 3e a8 73 92 bd 12 f1 5f be 93 6c 1b bd
       0.2931114 -0.07150966 -0.21869305 -0.03794534
0002d0 99 4a 86 3e 78 5e 64 3e da ec 40 3e 0f 0c 35 3e
       0.26228788 0.22301662 0.18840352 0.17680381
0002e0 93 5c b6 bd 99 7a 93 bd 5d 6b 37 3e fc 86 93 3e
       -0.08904376 -0.07201118 0.1791205 0.28813922
0002f0 37 19 02 bd 38 35 5a be 9e 3c 9c bc d4 3d 88 3c
       -0.031762328 -0.21309364 -0.019071873 0.016631044
000300 d4 5c 9b 3d 67 83 34 3e ec b1 31 be d6 35 89 bd
       0.07586065 0.17628251 -0.17353028 -0.066997215
000310 e4 d4 74 3e e1 44 8d 3d 75 3d 9e bd e8 db 85 be
       0.23909336 0.06897903 -0.07726566 -0.26144338
000320 71 c8 40 bd 97 cc 57 3e ee 4b d3 3d 95 36 a8 bd
       -0.047066156 0.21074139 0.10317217 -0.08213536
000330 82 f0 27 3e e3 47 7f bc 9f b1 b5 ba cf cd 32 bd
       0.1640034 -0.015581104 -0.0013862139 -0.043653306
000340 72 f5 9d 3d 5f f6 10 bd c4 09 e2 bd fd e7 bb bc
       0.077128306 -0.035391208 -0.11037019 -0.02293777
000350 49 e9 75 3e 5c 98 04 3d 03 08 31 3e 76 5b 38 3e
       0.24014772 0.032371864 0.17288212 0.1800364
000360 7d 70 2d be 47 5c 29 be e8 75 9b 3e 7b 2d aa 3d
       -0.16937442 -0.16539107 0.30363393 0.08309456
000370 7b c4 2b be 82 58 7c bd 56 6a 2c 3d 37 46 27 bb
       -0.1677417 -0.061607845 0.042093597 -0.002552403
000380 ab 6e 70 3d e7 0c 61 be 10 a5 08 3e fc 1f 33 3e
       0.05869929 -0.21977578 0.13344216 0.1749267
000390 14 a3 0d be 43 d2 bb bd f4 0d 8b bd 24 e7 80 3e
       -0.1383174 -0.091709636 -0.06789771 0.25176346
0003a0 2e 80 44 be 87 9b 28 be f6 45 10 be 09 07 8b 3b
       -0.19189522 -0.16465579 -0.14089188 0.004242782
0003b0 0e 8b 62 be 84 54 59 3d e4 70 3c ba cb 7d be 3c
       -0.22123358 0.053059116 -0.0007188453 0.023253342
0003c0 db 8e 27 be 67 c3 95 3d 22 1d 7d 3d 3b 8d 8d bc
       -0.16363089 0.07312661 0.06179536 -0.017279258
0003d0 ec 8b 58 be 50 b7 b5 bd a8 ba 6e 3e a2 e9 6d bd
       -0.21147126 -0.08872855 0.23313391 -0.058084138
0003e0 34 03 d7 bc 3c 6a 70 3e db b5 92 be 68 d5 62 bd
       -0.026246645 0.23478025 -0.2865437 -0.0553793
0003f0 14 1f 54 3e 62 99 b9 3d 29 58 29 3a 5e ec d1 ba
       0.2071498 0.090624586 0.0006459975 -0.0016015877

graphlayers.1.bias f4 [32]
000000 b5 a4 13 be 88 1d 58 3e ba 00 33 3e 61 12 18 3e
       -0.144183 0.21105015 0.17480746 0.14850761
000010 c9 85 5c 3e 2c a7 92 3e 81 e3 14 be f0 09 03 3e
       0.2153541 0.28643167 -0.14539911 0.1279676
000020 d6 08 80 bd 17 37 69 3e 6e 9b 88 3e 30 ea 26 be
       -0.06251685 0.22774921 0.26681083 -0.16300273
000030 25 2f 66 3e fe 5b 29 be ba 28 bf bd d1 4c 70 3e
       0.22478922 -0.16538998 -0.0933394 0.23466803
000040 0e 03 49 3e 30 b8 4c bd 3e 95 85 3e cd 94 2a b5
       0.19630072 -0.049980342 0.26090425 -6.354647e-07
000050 a0 68 3f 3e 00 f0 bc 3d 0f c0 01 3e 68 d2 04 3e
       0.18692255 0.09225464 0.12670921 0.12970889
000060 36 e5 f6 bd af 5b 12 3e da 3a 17 3e 9f cb a5 3e
       -0.12055437 0.14292787 0.14768544 0.32381913
000070 77 64 33 3e a3 08 51 3e 9e 00 2b b8 01 9f 14 bd
       0.17518793 0.20413451 -4.0770152e-05 -0.03628445

linlayers.0.weight f4 [16, 32]
000000 3d 23 9b bd 43 a4 89 be b8 7f 1c 3d 00 11 18 3e
       -0.075750805 -0.26883134 0.03820774 0.14850235
000010 6c e1 35 bd a9 26 f1 3d 96 d2 22 3d 80 23 23 3e
       -0.044404432 0.11774952 0.03975161 0.15931511
000020 33 f9 22 bd 1d a0 1c 3d d1 64 df bd 5c 22 a8 bd
       -0.039788436 0.038238633 -0.10907901 -0.082096785
000030 fe 11 9c bc f3 7f 3d bd 95 a5 20 3d c5 e3 16 3e
       -0.019051548 -0.0462646 0.03922041 0.14735325
000040 c4 a6 c5 bd e2 f8 79 3d 5a f4 42 3e 27 8e 8f 3d
       -0.09650949 0.06102837 0.19038525 0.07009535
000050 aa 34 4b be 8c 8b 1e 3d cf 89 09 3e b1 dd 2b bd
       -0.19844308 0.0387073 0.13431476 -0.04195947
000060 f3 e6 fc 3c 38 bc c8 3d 06 01 71 be ee de ba 3d
       0.030871844 0.09801525 -0.23535547 0.09124552
000070 ad 94 32 3e f8 bb e3 3d db 49 b1 bd 58 87 b3 b3
       0.17439528 0.111198366 -0.08656665 -8.359956e-08
000080 63 07 ae 3d 74 9b 9a 3e 43 a4 2e be f3 5f 8c be
       0.08497503 0.30196726 -0.17054848 -0.27416953
000090 5d 10 a5 3d e2 7f a3 3e 93 29 06 bd 20 5e d3 bd
       0.08059762 0.31933504 -0.032754492 -0.10320687
0000a0 ef 95 c1 bd 7b 52 76 3e 1f c4 ec 3d 40 f0 10 3d
       -0.09452426 0.24054901 0.11560845 0.03538537
0000b0 60 ee 17 3e ec a8 25 3d 39 db ac bd 7c 65 e9 bc
       0.14837027 0.0404443 -0.08440251 -0.028490774
0000c0 85 f3 62 3e 1a 62 b6 3d 43 4f 85 be 2c 71 02 39
       0.22163208 0.0890543 -0.26037034 0.00012439926
0000d0 3b 57 58 3e 0d d1 5d 3e 98 db 19 3e 93 38 8b 3e
       0.21127026 0.21661778 0.15025175 0.271916
0000e0 40 0b 56 3e a1 47 3b be 3a 47 98 3d e0 ff 1e 3e
       0.20902729 -0.18289043 0.074354604 0.15527296
0000f0 36 82 9e be c9 12 43 be 04 82 d9 34 52 d6 98 b8
       -0.30958718 -0.19050135 4.0513999e-07 -7.287845e-05
000100 ec 42 70 3b 37 07 26 be a8 8f 8c 3e 77 4d 50 3e
       0.0036660982 -0.1621369 0.2745335 0.2034205
000110 57 92 75 3c a7 15 2b bd fb 02 a0 3d 64 8d ed 3c
       0.014988503 -0.041768696 0.078130685 0.028998084
000120 88 47 b8 bd 26 ce 6e bc 94 2d db bd 62 af 35 bd
       -0.089980185 -0.014575517 -0.10702053 -0.04435671
000130 8f b6 d4 bd e5 61 32 bd 15 7d 10 3d 20 45 4a 3e
       -0.10386383 -0.04355039 0.035275538 0.19752932
000140 c7 00 2c 3d 4d 06 45 b4 a8 fc 6f 3e f2 79 fa 3a
       0.04199293 -1.8349347e-07 0.23436224 0.0019109829
000150 7e 33 51 bb 55 6f 6b bc a9 a6 90 3d c5 92 2d be
       -0.003192156 -0.014369805 0.07063038 -0.1695052
000160 14 15 f8 3c 21 9e 9c 3d 5b ec c5 bc 2e 33 10 be
       0.030283488 0.07647348 -0.024160555 -0.14082024
000170 2e c2 f7 3d e5 d8 80 3e ee 3d 6e 3b c8 34 1b 3d
       0.12097584 0.25165477 0.003635283 0.037892133
000180 34 d6 76 3c e2 d8 52 be 20 c0 01 3e ad 9f 69 3d
       0.015065718 -0.20590547 0.12670946 0.057037044
000190 47 db ba bd 88 50 5a 3e 0a 66 a3 39 aa b1 90 3e
       -0.09123855 0.21319783 0.00031165808 0.28260547
0001a0 b5 3b 9e bd 89 1d 5e 3e 4d b8 20 3d 11 26 3e bd
       -0.07726232 0.21690954 0.039238263 -0.04642302
0001b0 4a f7 11 3d ff fb 0e 3d 03 70 e5 3b c4 34 70 3e
       0.035636224 0.03490829 0.007001878 0.23457628
0001c0 b0 3d 3d be 97 4d 9c bd 9e 39 33 3e 7d 0c 00 3a
       -0.18480563 -0.076319866 0.17502448 0.00048846734
0001d0 f7 d9 84 be f9 31 9e bd 40 12 de 3d d9 ef 9e 3d
       -0.25947544 -0.07724375 0.10843325 0.07760591
0001e0 48 96 9d bd 42 b0 9c 3e d7 47 63 be 58 a0 5a 3e
       -0.076946795 0.30603224 -0.22195373 0.21350229
0001f0 f2 07 1b 3d f4 da aa 3e 21 bd 62 bd 52 c3 76 bd
       0.037849374 0.33370173 -0.05535615 -0.060244866
000200 3b 58 e3 bc 48 50 53 3e 24 f5 66 be 35 e6 fb bd
       -0.027752033 0.20636094 -0.22554451 -0.12299768
000210 16 c3 e4 3d a4 b6 48 3e 3a 16 01 bd ad 85 8e bc
       0.11170022 0.19600922 -0.031515338 -0.017397726
000220 33 1c 84 bd bf 36 06 3e 0a 4a a4 3e 7b 38 f5 bb
       -0.06450691 0.13106821 0.32087737 -0.0074835396
000230 16 04 82 3e bd 60 8f 3d 08 e3 3d bb cb f9 73 be
       0.25393742 0.07000873 -0.0028974432 -0.23825757
000240 db fb 20 3e c1 07 77 3d 48 1d 93 be 5a 08 e7 3b
       0.15721075 0.06031013 -0.28733277 0.007050556
000250 0b b0 83 3e 12 84 f5 3d 1c 0c 95 3e 91 6a 23 3e
       0.25720248 0.11988081 0.291108 0.1595862
000260 6d 8e 1a bd 09 fb 4e be f6 e0 6f 3e 0b 29 5c 3e
       -0.037733484 -0.2021295 0.2342566 0.21500032
000270 a0 af 67 be ef d4 a0 be 7c 6b 7c 3d db ce 9d bc
       -0.2262559 -0.31412455 0.061625943 -0.019263675
000280 a1 cf 36 3d f0 82 b5 bd 4c 2e a2 3e 4a e3 16 3d
       0.044631604 -0.08862865 0.31675947 0.036837853
000290 ca eb 61 be e1 7d 25 3d 80 d4 45 3d 18 eb 96 3e
       -0.22062603 0.04040325 0.04829836 0.29476237
0002a0 c9 f9 10 3e 2f 52 88 3b aa ff 99 bd f1 9a 22 bd
       0.14157785 0.0041601877 -0.07519467 -0.039698545
0002b0 a9 28 41 3d 65 1f fe 3b 76 69 c6 3c 4e 34 99 3e
       0.047157917 0.0077552074 0.02422021 0.29922718
0002c0 23 a3 99 bd d8 e4 11 bd 38 30 63 3e f9 3e a1 3d
       -0.07501819 -0.035618633 0.22186363 0.07873339
0002d0 f9 e6 95 bd dd f5 51 bc 56 5f 33 3e a7 8e 5e 3d
       -0.07319445 -0.012814966 0.17516837 0.054335263
0002e0 6b 28 08 bd de 38 3f 3e 64 cf a6 bd e8 2e 98 3c
       -0.03324167 0.18674037 -0.08145025 0.018577054
0002f0 97 4c 87 3e a5 9d 77 3e 53 c4 ab bc 98 de 7c bd
       0.2642562 0.2418123 -0.020967638 -0.06173572
000300 04 5e e5 3b c0 55 66 bd 8d ee 22 3d bd 70 01 3c
       0.006999733 -0.05623412 0.03977828 0.007900414
000310 a1 47 41 3c 59 2a 00 3d 6e ab 0e bc 8a 25 7f 3d
       0.011796863 0.031290386 -0.008707864 0.06229166
000320 38 ec c8 3c ca 44 04 3d 8e 1a 20 bb f3 dc eb 3c
       0.0245267 0.032292165 -0.002442989 0.02879188
000330 53 4a 05 bd 28 19 03 ba 31 79 1d b6 44 eb a6 3c
       -0.032541584 -0.0005001002 -2.3465366e-06 0.020375855
000340 e5 82 2a bd a9 c3 94 39 d9 f3 db 3d 9b 20 99 3d
       -0.041628737 0.00028374538 0.107398696 0.07476922
000350 e4 95 33 3d 8e ec 81 bc 89 ac 82 bd 2a 32 1a bd
       0.04384412 -0.015859868 -0.06380565 -0.037645496
000360 ed 07 4d b4 8f 4d ac 3d 4a e3 b4 bc 0a 21 1c 3d
       -1.9094996e-07 0.08413231 -0.022081036 0.038117446
000370 c5 b9 4f 3c e4 fc 50 3d 1f 03 37 3d 0c b9 dc 34
       0.012678568 0.051022425 0.04468071 4.1112833e-07
000380 85 d7 ad 3d a8 1c 6b 3d 77 03 3b 3c 3f dc 93 3d
       0.08488373 0.057400376 0.0114144 0.07219743
000390 88 72 a5 bb b1 b4 21 bc 49 09 91 39 36 2f 55 bb
       -0.0050490536 -0.00986974 0.00027663473 -0.003252936
0003a0 18 56 ae bd 20 0f 9d bd 3b 05 fa bc a9 92 16 bc
       -0.08512515 -0.076689005 -0.030520072 -0.00919024
0003b0 e2 52 90 3d b6 d3 dd bc a7 44 ac 3d a5 88 66 3a
       0.07047059 -0.02707849 0.08411532 0.00087941653
0003c0 40 e1 82 bd c7 8d 27 37 73 09 2d bc a1 78 5b bd
       -0.06390619 9.986986e-06 -0.010561335 -0.053581838
0003d0 7c 15 56 bd 22 7a 74 3a c3 ec 16 bd ee ba 82 bd
       -0.052266583 0.00093260605 -0.036846887 -0.0638331
0003e0 9a d1 26 b6 47 8a 24 3b bc 69 23 bc 82 34 db 3c
       -2.4857932e-06 0.0025106834 -0.0099739395 0.026758436
0003f0 f4 e6 64 bd 14 56 90 3b 7f cb 07 bd 85 75 99 b5
       -0.055884317 0.0044047926 -0.033153053 -1.1433591e-06

linlayers.0.bias f4 [16]
000000 b3 73 95 3d f8 e7 9e 3e f8 c7 6d 3e fa 32 f1 3d
       0.072974585 0.31036353 0.23220813 0.11777301
000010 23 d3 7d 3e 8e 2a 8a 3e a1 db 7c bd 26 10 91 bd
       0.24787574 0.26985592 -0.061732892 -0.07083158
000020 99 40 1a 34 e4 21 70 3e 45 0b 4b 3d 0c 98 8f b4
       1.4365868e-07 0.23450428 0.049571294 -2.6746454e-07
000030 bd 01 48 3e 2e d8 91 3e c8 f7 6d 3d eb 23 9c ba
       0.19531913 0.28485245 0.05809763 -0.001191256

linlayers.1.weight f4 [2, 16]
000000 b9 32 83 be 5e 16 c1 3e 80 80 26 be 10 30 48 be
       -0.25624636 0.37712377 -0.16259956 -0.19549584
000010 40 f4 a5 3e 2d 7f 86 be 3f f0 6d bb e1 fa 68 bd
       0.3241291 -0.26268902 -0.0036306528 -0.05687988
000020 91 2a 31 bd 8a 81 9e 3e a4 e3 24 3e 34 1c a8 3d
       -0.043253485 0.30958205 0.16102463 0.08208504
000030 1a 74 a0 3e b2 6a a3 3e c6 d6 1b be e2 f0 97 bc
       0.31338578 0.3191734 -0.15218648 -0.018547479
000040 31 f5 c2 bc 62 92 da bd 6b 58 6f 3d 6f 57 51 3e
       -0.023798557 -0.106724516 0.05843393 0.2044351
000050 5b a2 00 3e 04 32 bd 3d f9 dd 44 3d 57 5e 3f 3d
       0.12561934 0.09238055 0.048063252 0.04672083
000060 31 4b b8 bd 7b bc 6b be e6 aa 91 3d 1e 4a 9d 3c
       -0.089987166 -0.23021118 0.071126744 0.01920038
000070 76 0c c8 3d 04 db 34 be 54 74 65 3e 04 6d 25 bc
       0.09768002 -0.17661673 0.22407657 -0.010096792

linlayers.1.bias f4 [2]
000000 af fa f4 3d a5 10 df bd
       0.119618766 -0.108918466
