Data/weigths_K4_N8_L8.pt (torch, 138594 bytes, 6 tensors)

graphlayers.0.weight f4 [512, 64]
000000 0b 0e d9 30 37 84 7b af 83 ec 84 ac 24 bb eb a5
       1.5792819e-09 -2.2875289e-10 -3.7779237e-12 -4.0892813e-16
000010 f5 3c 5f ab f2 d6 10 ac 61 4b 85 ac 6a 0b ab 32
       -7.931011e-13 -2.058295e-12 -3.788456e-12 1.991221e-08
000020 21 87 9a ae a9 ea 8f 30 5a b4 44 30 98 37 89 2c
       -7.027113e-11 1.0471314e-09 7.156068e-10 3.8999463e-12
000030 8d cd d5 2b 05 a9 9d 2e 7a fb 8b 28 0a f5 01 b1
       1.5191612e-12 7.169557e-11 1.554116e-14 -1.891126e-09
000040 71 7e c3 33 cf fe 76 ac 49 d7 d3 ad c3 11 b3 2b
       9.103395e-08 -3.510015e-12 -2.4083529e-11 1.2723645e-12
000050 8a 0c 73 2f 13 4b 52 af f4 46 1e 27 db 90 88 b1
       2.2105176e-10 -1.912606e-10 2.1965369e-15 -3.974589e-09
000060 ab a0 10 a7 04 48 3d 30 ea 4a 34 2c 96 0a 82 a6
       -2.0071113e-15 6.886014e-10 2.5621124e-12 -9.023431e-16
000070 e3 08 8b 2c 2d ad 7e ab da 25 36 a7 31 4e c5 2b
       3.9516042e-12 -9.0479257e-13 -2.5278093e-15 1.4019394e-12
000080 42 a9 9f 2e 86 41 8c 28 98 e0 1d b3 87 76 26 ae
       7.260549e-11 1.5571539e-14 -3.6758678e-08 -3.7849304e-11
000090 2f df 37 b2 16 1e a2 2a 38 f4 64 af 26 38 ea b0
       -1.0702748e-08 2.8797857e-13 -2.0823243e-10 -1.7041699e-09
0000a0 6a 90 d0 25 bc 44 12 33 44 be c0 2a 8e 73 57 ab
       3.6180107e-16 3.4055788e-08 3.4238075e-13 -7.654371e-13
0000b0 07 d0 c0 2b 15 76 3f a7 60 c1 82 32 95 59 91 26
       1.370016e-12 -2.6570587e-15 1.5221929e-08 1.0085677e-15
0000c0 0f d9 e6 b0 0a be 6e 28 86 79 48 a7 89 73 88 2c
       -1.6796394e-09 1.3252862e-14 -2.7821454e-15 3.8781795e-12
0000d0 73 6e c9 a7 d6 56 4c ab c2 df e7 a9 f8 bc 94 27
       -5.5908456e-15 -7.259587e-13 -1.02972765e-13 4.1283132e-15
0000e0 a3 d7 f4 ab a1 35 99 2a 35 b6 e4 b0 6e f4 22 2f
       -1.7397094e-12 2.7215472e-13 -1.664097e-09 1.4820653e-10
0000f0 bb 2d ca 2b 0c 71 a6 aa 0a 0e 83 a8 45 fd b7 30
       1.4365656e-12 -2.9565966e-13 -1.455001e-14 1.3386986e-09
000100 32 31 98 3e 86 b8 0f bd 5a 18 77 be e6 63 38 be
       0.29725033 -0.035088085 -0.24130383 -0.18006858
000110 6a 21 b1 be a0 67 73 3e 7d 0f 3e be 2f 47 7e be
       -0.34595805 0.23769999 -0.18560596 -0.24831842
000120 aa 47 c8 be 53 b9 a8 3e 57 d9 89 3e f6 7c f3 bb
       -0.39117175 0.3295389 0.2692363 -0.007430668
000130 db d3 ed 3b 4c 89 95 be 98 59 82 be 76 8b 49 be
       0.007257921 -0.29206312 -0.2545898 -0.19682106
000140 2f 55 77 be 68 45 8c bd b5 ef ac be a8 4b c0 bd
       -0.24153589 -0.06849176 -0.33776632 -0.0938943
000150 fa 61 d7 3e f0 78 b3 be 50 9d 74 3b c2 f2 a5 ae
       0.42066938 -0.35053205 0.003732521 -7.546454e-11
000160 a1 02 39 be f4 49 5d 3e c6 f0 49 3d 94 c7 75 3e
       -0.18067409 0.21610242 0.049301885 0.24001914
000170 e4 3e 8a 3e 01 34 7b 3d 4a ea de 3d ae 36 a7 be
       0.27001107 0.06132889 0.10884531 -0.32658905
000180 fd d7 c3 be dc d1 4f 3e 23 ca c0 be 9b 4a 3d 3e
       -0.38250723 0.20294899 -0.37654218 0.18485491
000190 0d 76 88 be 3a 3e 8d 3e f3 52 38 bd b5 d4 6d be
       -0.26652566 0.27586538 -0.04500098 -0.23225673
0001a0 8d 4b 36 3d 89 30 99 3e 6c 95 b6 be ab ec 3e bd
       0.044505645 0.29919842 -0.35660875 -0.046612423
0001b0 ed 4c c4 3e f9 c4 4e be b3 fc 8a 3d 1b b9 86 be
       0.3833994 -0.20192327 0.0678648 -0.263131
0001c0 08 f8 8a bd 4d be 7d 3e fa d5 0d 3e bc ea 97 3e
       -0.067855895 0.24779625 0.13851157 0.29671276
0001d0 a9 61 9b 3e 83 fa 4d be 16 27 2e 3e cb 08 a2 3c
       0.30347946 -0.20115094 0.17007098 0.019779583
0001e0 47 3d 82 3d 4a f0 20 be be c5 a5 3e 14 78 89 be
       0.06359344 -0.15716663 0.32377428 -0.26849425
0001f0 3f 64 b6 be 8d 7c c9 3d 87 10 9d 3e 32 67 25 be
       -0.35623357 0.09838209 0.30676672 -0.16152647
000200 cc cc dd b1 43 c1 05 b1 96 43 86 ac ee 00 53 ab
       -6.4552292e-09 -1.9463904e-09 -3.8160126e-12 -7.496355e-13
000210 f4 b9 4f 2f 8f 70 8c 27 9f 41 8c ac 5c 05 88 b2
       1.8892604e-10 3.8979842e-15 -3.9863247e-12 -1.5834921e-08
000220 6e 22 1a b2 67 e6 c6 a6 61 7d f1 2b 78 62 bf 31
       -8.971808e-09 -1.3801461e-15 1.715888e-12 5.570026e-09
000230 4f 98 28 30 3b 59 db 32 dd 44 c9 30 99 93 00 27
       6.133449e-10 2.5535533e-08 1.4644247e-09 1.7843581e-15
000240 41 11 f4 a6 03 e5 10 28 02 1d d7 a7 c2 91 b5 26
       -1.6935578e-15 8.043265e-15 -5.970594e-15 1.2598906e-15
000250 13 39 c7 33 22 85 b9 b3 cd c8 5e af b3 e5 3a a6
       9.2770414e-08 -8.6389505e-08 -2.0262121e-10 -6.4843014e-16
000260 35 06 9b ae 70 ef 88 a7 bb f8 e0 af 92 8d dd 32
       -7.0496865e-11 -3.800718e-15 -4.0922096e-10 2.5792165e-08
000270 5a 01 16 a8 58 36 05 ab b6 a9 4f 2b 0e b1 0a ac
       -8.326966e-15 -4.732651e-13 7.3776694e-13 -1.9709265e-12
000280 28 52 5b ad 07 97 51 ac 01 1c 7b 2a dd 2e 9a 2a
       -1.2466951e-11 -2.9784523e-12 2.2302994e-13 2.7388413e-13
000290 97 b4 60 2f 45 84 c6 2a 1f b2 bf 33 d0 d0 a1 ae
       2.043684e-10 3.5263646e-13 8.9265306e-08 -7.358525e-11
0002a0 5c 94 fc 2e 53 9f d4 2e 0c 9f 56 b0 b4 ea c0 ab
       1.1485987e-10 9.6689455e-11 -7.8078766e-10 -1.3707564e-12
0002b0 43 e0 8f 2e 71 9d b4 33 bb 89 c7 30 d7 6e 81 b3
       6.542724e-11 8.4105416e-08 1.4518301e-09 -6.027192e-08
0002c0 6e 9e 23 b0 d1 92 62 2e 82 19 ed 2b ce f3 40 2b
       -5.9524197e-10 5.151685e-11 1.6846943e-12 6.855045e-13
0002d0 4e 3e 55 ab 58 cc 23 ae 02 30 23 32 2c 6c af 24
       -7.5759266e-13 -3.7243403e-11 9.498764e-09 7.60774e-17
0002e0 aa 08 44 2a 38 3f 12 b3 b1 1e 12 33 fc f6 cc 2b
       1.7411303e-13 -3.405077e-08 3.4021188e-08 1.4563624e-12
0002f0 d6 ea 83 33 ab 7d 0b 2f 31 2a f4 ab 8c c1 42 af
       6.142879e-08 1.2686623e-10 -1.7348953e-12 -1.7712959e-10
000300 22 5f 9e 30 c6 3b ea 2b 9a 19 3f 30 58 c8 dc aa
       1.1523051e-09 1.664329e-12 6.9521777e-10 -3.9218867e-13
000310 15 18 02 ab ab 95 1f ac f3 e7 cf aa 9b 0b 3a ac
       -4.62187e-13 -2.2678341e-12 -3.6931534e-13 -2.6438632e-12
000320 ce d4 92 2c b8 d0 82 a5 59 bb 8d a8 0e d9 1b 2a
       4.1731956e-12 -2.2692839e-16 -1.5735394e-14 1.3842071e-13
000330 cc f8 63 2c ba a7 05 b1 95 50 05 31 15 31 a9 2f
       3.239675e-12 -1.9449389e-09 1.9399853e-09 3.0775796e-10
000340 02 6c bb a9 4e 33 95 2a 01 7c e4 b1 e0 73 fe 27
       -8.3232046e-14 2.6503317e-13 -6.649771e-09 7.0624794e-15
000350 40 21 9e 2e db 38 82 af 5f 7f 4d 25 1d 57 dd b1
       7.1909145e-11 -2.368726e-10 1.782407e-16 -6.44185e-09
000360 23 82 3a 33 9b b0 84 a8 12 6e f4 aa 38 71 3f 27
       4.342486e-08 -1.4731534e-14 -4.3419484e-13 2.656795e-15
000370 b0 e8 bc 31 c1 e5 38 ac 31 4a 23 b0 0c 60 92 2e
       5.4979736e-09 -2.6275512e-12 -5.9404487e-10 6.656373e-11
000380 3f a6 7a 28 a7 ee 8d a8 fc 92 f2 30 66 e8 a9 2a
       1.3913837e-14 -1.5757644e-14 1.7649593e-09 3.018169e-13
000390 6d 7f a7 b3 5e e8 8b a7 46 8a d1 a9 0d f6 0c 32
       -7.799722e-08 -3.8832183e-15 -9.305451e-14 8.205018e-09
0003a0 db bd ea a9 5b 27 fe 29 c7 d9 30 a8 85 d2 53 b1
       -1.0424622e-13 1.1286693e-13 -9.8171856e-15 -3.0824208e-09
0003b0 16 ca 1d b0 af 3e b9 b3 5c 90 70 ae 0a d3 3e 2f
       -5.740345e-10 -8.626136e-08 -5.46979e-11 1.7355375e-10
0003c0 9b c3 b2 30 9d b4 93 aa 62 77 e8 2b a6 40 8d 28
       1.3006799e-09 -2.623777e-13 1.6517727e-12 1.5682181e-14
0003d0 e2 84 2c 2a 62 c0 dd b1 ed 35 93 28 37 b9 58 ab
       1.5322772e-13 -6.453818e-09 1.6343665e-14 -7.699565e-13
0003e0 6b 78 a1 32 22 dc a3 27 9a 1c c7 33 4e d7 37 2f
       1.8797627e-08 4.5480257e-15 9.271862e-08 1.6720245e-10
0003f0 a8 98 c1 af cf d9 2c ab ea 9a 7d ab 7a d2 76 b0
       -3.5214964e-10 -6.1408945e-13 -9.009864e-13 -8.9793384e-10

graphlayers.0.bias f4 [64]
000000 fc a2 de 3d 31 6b b5 3e bd 8d 03 3e ad 43 a8 3e
       0.108709306 0.35433343 0.12847038 0.32864133
000010 07 d6 a0 3e c2 30 87 3e 4a ed 99 3e 00 ff a7 3e
       0.3141329 0.26404387 0.3006385 0.32811737
000020 68 00 c0 3e 84 bf d3 3e 33 82 88 3e 2d e6 80 3e
       0.3750031 0.41357052 0.26661834 0.2517561
000030 dc c1 87 3e 44 7c d1 3e 27 37 9f 3e ee 1c 93 3e
       0.2651509 0.4091512 0.31096765 0.2873301
000040 af c3 9a 3d 3a ee 8a 3e e1 8c af 3e 6f de 62 3c
       0.07556855 0.27134877 0.3428717 0.013846978
000050 d3 64 a8 3e 6a 70 ad 3e 48 48 8c 3d 47 0b 63 ba
       0.32889423 0.33874828 0.06849724 -0.0008661043
000060 07 b6 dd 3d 57 15 8f 3e 0c 6e 6b bd 9a 6d ab 3e
       0.108257346 0.27945969 -0.057477996 0.33482057
000070 c0 58 c8 3e 28 1c d0 3e 46 1b 25 3e c0 66 39 3e
       0.3913021 0.40646482 0.16123685 0.18105602
000080 a9 28 71 3e 59 c0 af 3e 8b 51 7d 3e 63 e0 aa 3e
       0.23550667 0.34326437 0.24738137 0.33374318
000090 54 4c 99 3e b0 4d 82 3e 80 1e 34 3e 2e 59 5d 3e
       0.29941046 0.25449896 0.1758976 0.2161605
0000a0 94 bd 74 3e a0 94 a9 3e e5 cf ce 3e 63 c0 eb 3c
       0.23900443 0.33121204 0.40392986 0.02877826
0000b0 4f 55 cc 3e 02 35 6f 3e 4b d5 d6 3e 56 3b ab 3e
       0.39908835 0.23360065 0.41959605 0.33443707
0000c0 3f 75 2a 3e 47 ab 41 3e 20 bb b1 3e 5d 87 c9 3e
       0.16646288 0.18912993 0.34713078 0.39361086
0000d0 27 73 97 3e 67 ac bd 3e 44 59 6b 3e 0c 4c 6d 3e
       0.29580042 0.37045595 0.22983271 0.23173541
0000e0 32 1e e9 3d 0f 84 99 3e 98 8f c7 3e e1 2f ac 3e
       0.113827124 0.29983565 0.3897674 0.3363028
0000f0 db 75 a1 3e ae f8 a8 3e 95 e6 a0 3e ea e2 b0 3e
       0.3153523 0.33002228 0.3142592 0.34548122

graphlayers.1.weight f4 [64, 16]
000000 8b ff 4d a5 8e fc 03 3c f1 3a 15 3e e8 3e a7 2c
       -1.7867497e-16 0.008055819 0.14573266 4.7534095e-12
000010 75 7c 80 3d b7 eb 6e 3e 09 3e 03 b8 d6 75 fd bd
       0.06273738 0.23332106 -3.129061e-05 -0.12375991
000020 39 ab 8f b8 e0 ed 66 3e 38 06 1d ab cc 29 fe be
       -6.850664e-05 0.2255168 -5.5786235e-13 -0.49641263
000030 9e 50 04 b1 2a 56 d6 3e ae 9e 66 3e db 13 ae 3d
       -1.9254354e-09 0.41862613 0.22521469 0.08499881
000040 70 75 df 2f 2a e5 b3 34 fe 88 bc 3d 82 fc 4f b7
       4.0646908e-10 3.3508087e-07 0.09205817 -1.2396953e-05
000050 93 b4 fc 3e 50 6c b5 3e 67 8f 26 35 bb b8 9f 3e
       0.49356517 0.35434198 6.2048497e-07 0.31195626
000060 fd 67 04 38 f6 09 87 bd 31 24 09 38 de 52 d7 bc
       3.15681e-05 -0.06593697 3.269705e-05 -0.026284631
000070 f4 2b bf 3a fc 4d bb 3c 4e 14 ac 3e 9b 2a 81 3e
       0.0014585243 0.022864334 0.3360924 0.25227818
000080 05 af 37 2b 7d 8c 95 2b 03 3e ad 3d ef 2a ce 3c
       6.525755e-13 1.062608e-12 0.084590934 0.025166957
000090 5c 5d 39 3e 21 c4 9b 3e 87 53 04 ab a1 43 e6 3e
       0.1810202 0.30423072 -4.701174e-13 0.44973472
0000a0 36 6d b9 b3 3d a0 c8 bd c7 71 62 bc ee a4 16 3e
       -8.634599e-08 -0.09796188 -0.013821072 0.14711353
0000b0 e9 48 8a ac b0 e5 14 3e 41 77 b1 3e 2b 7b bb bd
       -3.9302906e-12 0.14540744 0.34661296 -0.09154352
0000c0 03 94 2c 27 c6 86 16 33 77 34 10 bc 99 49 10 35
       2.3950032e-15 3.5047172e-08 -0.008801571 5.375128e-07
0000d0 ac 10 e6 3e cb 10 99 3e 9c 6e c0 30 f8 d0 83 3e
       0.44934595 0.29895625 1.4001276e-09 0.25745368
0000e0 e5 55 61 af d4 e5 b3 bd de 40 2f 30 39 cf 92 3e
       -2.0494147e-10 -0.087840706 6.375681e-10 0.28673723
0000f0 72 c9 b2 bb 2b 46 01 bf 21 9b 07 3d 58 ac a1 be
       -0.005456143 -0.5049769 0.033106927 -0.315768
000100 aa af 0d 33 ee 42 11 ae 79 b4 21 3e a1 f1 0f 35
       3.2988886e-08 -3.302863e-11 0.15791501 5.362327e-07
000110 8e c0 09 3f 61 36 d3 3e f3 8e f6 ae cf bb 03 3f
       0.5380944 0.41252425 -1.1212178e-10 0.5145845
000120 7f c9 8d a8 9e bf 94 3e 15 ca 06 b8 05 9c b5 3e
       -1.574153e-14 0.29052442 -3.2136293e-05 0.35470596
000130 45 dd 75 bc 07 2e 03 3d 03 96 be 3d ac 8b 5b be
       -0.015006368 0.032026317 0.09305956 -0.2144
000140 65 21 26 27 23 f3 4b 30 2f 41 32 3e 2e 6e 87 b3
       2.305523e-15 7.419649e-10 0.17407678 -6.306469e-08
000150 84 cf c4 3e 6c 69 8a 3e ef 72 3a b8 b9 6d bd be
       0.38439572 0.27033556 -4.4452896e-05 -0.36997774
000160 8d 6f a8 b2 65 9f 90 3e 19 f8 7c 2f d1 47 c2 be
       -1.9608501e-08 0.28246608 2.3007408e-10 -0.37945417
000170 ca 0d 95 2f 06 9c f0 3e 3e dd 87 3e 05 7b d6 3e
       2.711274e-10 0.46994036 0.26535982 0.4189073
000180 08 7d a4 31 23 a8 f9 32 55 39 ce bd ff de 0f 35
       4.7872426e-09 2.9063875e-08 -0.10069529 5.3596153e-07
000190 a4 c3 d0 3e a6 9d e1 3e 15 ed e5 a8 88 35 81 3e
       0.40774262 0.4406559 -2.5526925e-14 0.25236154
0001a0 c8 d5 d0 21 32 aa 91 be 66 c1 bc 36 fa b0 08 3f
       1.4151216e-18 -0.2845016 5.625351e-06 0.53395045
0001b0 f0 9a 05 b5 b3 ea 56 be 10 d7 61 3e 8f e6 e0 be
       -4.9771825e-07 -0.20987968 0.22054696 -0.43925902
0001c0 70 02 0c 3b 89 fc 72 2f 6a 17 1d 3d 6e 65 0b 35
       0.0021363758 2.209949e-10 0.038352408 5.1929135e-07
0001d0 e4 88 d3 3e bd 47 a3 3d af ca 27 a7 60 31 ec 3e
       0.41315377 0.07972667 -2.328578e-15 0.4613142
0001e0 e1 ad 1d 2e cd f8 1f be 6e b2 28 b0 ac 63 d3 3e
       3.5852103e-11 -0.15622254 -6.137161e-10 0.4128698
0001f0 67 10 83 b1 da 2a 8e be 98 cd 62 3e f2 4d 7c be
       -3.8144665e-09 -0.27767068 0.2214874 -0.24639109
000200 ef 7a 27 b0 26 72 12 33 3e 44 86 bd 8d ce 88 38
       -6.0928945e-10 3.409709e-08 -0.06555985 6.5234584e-05
000210 7b 27 6b 3e 9a 09 b6 3e 6c 16 b9 34 3d 1a f4 3e
       0.2296428 0.355542 3.447525e-07 0.47676268
000220 2d 9f d5 2f 1d f4 2c be b2 b0 1d b5 c2 73 c3 3e
       3.8857575e-10 -0.16889997 -5.8744183e-07 0.38174254
000230 9d 6f 3b 38 4e e5 a5 be 51 d5 5e 3e 8e 8c 88 be
       4.4688222e-05 -0.32401508 0.21761061 -0.26669735
000240 cc 99 c6 bc 46 d0 a6 bc 01 89 73 3e ed de 38 39
       -0.024243258 -0.020362984 0.23782732 0.00017630654
000250 a7 25 a2 3e 8e 77 0e 3e ee 1d d6 b7 20 66 d5 3d
       0.3166935 0.13912794 -2.5524725e-05 0.104198694
000260 18 bb c7 30 17 60 97 3e 38 ce 8d 39 e3 8a d1 bd
       1.4532331e-09 0.29565498 0.0002704726 -0.10231569
000270 85 b4 1f ad 92 e6 9f 3e 24 83 c2 3c ea b8 d6 3e
       -9.078187e-12 0.312306 0.023744173 0.41937953
000280 43 a6 f4 3c da 5e db 3c 9a 25 76 3e f7 93 66 a8
       0.029864436 0.026778627 0.24037781 -1.27996495e-14
000290 7b c7 10 3e 27 86 97 3e 18 35 c4 3b b7 b7 9c be
       0.14138596 0.29594538 0.0059877746 -0.30608913
0002a0 b3 05 12 b3 c0 0e a8 3e a8 a3 e0 3b 9f ac d6 be
       -3.3998457e-08 0.32823753 0.006855447 -0.41928574
0002b0 e5 5d de b5 4f 51 e4 3e e4 e1 0c 3e 31 40 88 3e
       -1.6567616e-06 0.44593284 0.13758045 0.26611474
0002c0 f3 00 84 a8 0b ab 86 a6 33 ee 1e 3e d6 db 0f 35
       -1.4655356e-14 -9.344479e-16 0.15520553 5.3591555e-07
0002d0 58 d6 43 3e c4 b3 c6 3e 35 c2 2e bd 66 22 d0 3d
       0.19124734 0.38809025 -0.04266568 0.10162811
0002e0 4f 80 27 b5 5e 23 92 3d 5c 43 1c 39 34 c4 ff 3e
       -6.239906e-07 0.07135652 0.00014902413 0.4995438
0002f0 61 95 4c 3c e1 2d 06 3e 7c 16 7e bc eb 49 01 3f
       0.012486787 0.13103439 -0.01550829 0.50503415
000300 88 eb b4 35 4a 77 47 39 d8 e7 2e be df ca 82 35
       1.3479594e-06 0.00019022558 -0.17080629 9.744798e-07
000310 61 4b 20 3e f9 09 ee 3d a9 f5 e5 a6 06 ba 96 3e
       0.15653755 0.11622996 -1.5956653e-15 0.294388
000320 fc 16 ed bc e9 47 bf be 58 46 8b bd f2 2e a9 3e
       -0.028941624 -0.3735955 -0.068005264 0.3304363
000330 95 fc 2b 34 e1 9f 97 be 08 d1 74 3e 1a 06 c5 be
       1.6017505e-07 -0.29614165 0.23907864 -0.38481218
000340 27 f5 8e 2a 7c 76 fb b8 87 39 8e be 1d 66 78 bd
       2.5394376e-13 -0.00011990682 -0.27778265 -0.060644258
000350 bc 5f 21 3e b6 3f 7e 3e 63 ef c3 33 e6 bb e3 3e
       0.15759176 0.24828991 9.123939e-08 0.44479293
000360 d0 5e 04 b6 bb 4f 7a 3d 3f f3 62 2e b9 99 f4 3e
       -1.972472e-06 0.061111193 5.1602497e-11 0.4777353
000370 55 71 81 2f c7 b1 70 3d 54 90 92 3e 83 5c 4c be
       2.354549e-10 0.05876329 0.2862574 -0.19957165
000380 dd ad 86 bc e2 89 4e 39 09 48 49 3e bf 67 0f 35
       -0.016440326 0.00019697056 0.19656385 5.342262e-07
000390 b7 97 ed 3e 9d 1b b4 3d 0b 74 c2 b3 9e 66 71 3e
       0.46404812 0.08794329 -9.054937e-08 0.23574302
0003a0 3c 3d 8d bd f6 b5 9e 3d 79 bf 82 34 c1 c2 9a 3d
       -0.06896445 0.0774955 2.4353702e-07 0.075566776
0003b0 ed 97 08 b2 ed 9a 13 bd ee e5 c6 3e 49 0c 5c 3d
       -7.950786e-09 -0.03603642 0.38847297 0.053722654
0003c0 f2 75 0c 30 07 d3 84 38 fd 35 d6 bd 62 a5 dd b5
       5.1099314e-10 6.3335574e-05 -0.10459516 -1.6513916e-06
0003d0 c9 2d 06 3e 28 e3 e2 3d d9 0f 1b 2c b5 51 f5 3e
       0.13103403 0.11078483 2.2035622e-12 0.479139
0003e0 29 71 a6 bd a6 6b 98 bc 2d 4e 0d bd 36 47 5b 3e
       -0.08127052 -0.018606018 -0.034498382 0.21413884
0003f0 a5 d2 39 ac 2d dd ef be ea be e6 3e c5 69 cb be
       -2.6407012e-12 -0.4684843 0.4506753 -0.39729133

graphlayers.1.bias f4 [16]
000000 c6 5b 4e b7 cc 97 71 bd 41 27 86 3e 69 18 01 bc
       -1.22999245e-05 -0.058982655 0.26201823 -0.007879355
000010 cc ad 76 3e f1 0d 04 3e 00 00 8a 38 21 bc ee 3e
       0.24089736 0.12895943 6.580353e-05 0.46627906
000020 0f eb 56 b6 60 2b ae 3e 4f 57 62 34 e2 d6 db 3e
       -3.2025307e-06 0.34017467 2.1079653e-07 0.4293738
000030 1d aa 71 bb 52 fb dc 3e c8 f6 08 3f dd 74 ec 3e
       -0.0036875077 0.43160492 0.5350156 0.4618291

linlayers.0.weight f4 [4, 16]
000000 6b 7a 80 b8 83 bf a1 37 de af 4b 3d a8 8c 3a b4
       -6.126318e-05 1.9281875e-05 0.049728267 -1.737377e-07
000010 d0 32 d7 3e f7 2b f6 bc 16 6b 72 2c 06 83 da 3e
       0.42030954 -0.030050261 3.4449713e-12 0.42678088
000020 ac 61 14 31 1b de 86 be 07 59 ee b4 fb 59 bf bc
       2.1592355e-09 -0.26341328 -4.439573e-07 -0.023358336
000030 e0 de 52 ba c2 6f ba be 28 df f2 3d 72 c0 cf be
       -0.0008044075 -0.3641339 0.1185897 -0.40576512
000040 b5 0d dc bc 4c 36 d0 af 05 18 9e be ad e0 e2 b9
       -0.026862005 -3.787356e-10 -0.308777 -0.00043273476
000050 fe be fb 3e 31 3e ab 3e 11 80 87 28 3b 8e ee 3e
       0.49169153 0.33445886 1.504355e-14 0.46592888
000060 cf 08 e2 36 72 63 b1 3b 92 27 cd b3 97 39 08 3f
       6.7363503e-06 0.005413466 -9.553254e-08 0.53212875
000070 24 e0 3b bb 91 73 f0 be 19 13 9b 3e c3 e9 01 bf
       -0.0028667534 -0.4696317 0.30288008 -0.5074732
000080 87 f0 79 ac a7 5e fb 2b e5 c9 3d 3e 8c ea 72 b8
       -3.5518548e-12 1.7860894e-12 0.18534048 -5.7915735e-05
000090 14 d0 60 3e bb 35 a5 3e c2 79 40 bc 18 bf 93 be
       0.21954376 0.32267556 -0.011747779 -0.2885673
0000a0 b9 cf 62 ad de a6 a7 3e f2 36 0c 2f 27 8e 05 bf
       -1.2892736e-11 0.32744497 1.2752446e-10 -0.5217003
0000b0 02 4b 53 bc 35 45 01 3f a9 ef a9 3e 04 10 05 3f
       -0.012896301 0.50496227 0.3319066 0.5197756
0000c0 de 30 02 38 fd d7 9b 3c 5d 76 1d be fc fa f9 29
       3.1039926e-05 0.01902389 -0.15377183 1.110136e-13
0000d0 05 88 99 be ca 31 c0 bc 3c e2 9f b2 3a 69 3e bb
       -0.29986587 -0.023461241 -1.8612916e-08 -0.002905442
0000e0 39 6c b9 b0 b8 a4 29 3e 62 9d 78 2c 35 38 4c 3d
       -1.349128e-09 0.16566741 3.5330285e-12 0.04985829
0000f0 8e 27 d1 bb bf e1 e1 3d 1a 20 98 be 9b a9 23 3e
       -0.006382889 0.11029386 -0.29711992 0.15982668

linlayers.0.bias f4 [4]
000000 ea e3 c2 3e 3d 34 ed 3e 15 3f c3 3e f0 8f e3 3c
       0.3806451 0.46328917 0.38134065 0.027778596
