Data/weigths_N8_L1.pt (torch, 138436 bytes, 6 tensors)

graphlayers.0.weight f4 [512, 64]
000000 62 7d a3 8b 88 6d 97 88 25 98 40 89 a0 42 fd 80
       -6.297397e-32 -9.113733e-34 -2.3182697e-33 -2.3258281e-38
000010 ed 1c 6b 07 01 78 74 89 d8 af 40 89 8d dc d2 8d
       1.7687936e-34 -2.9426857e-33 -2.319384e-33 -1.2995345e-30
000020 5d 19 e5 87 e5 3e 60 8b 62 68 0c 8b 31 67 3c 09
       -3.4470998e-34 -4.3188147e-32 -2.7041548e-32 2.2678197e-33
000030 07 ae a8 88 fc 65 bd 09 38 85 b1 02 b4 e2 1f 0b
       -1.0152046e-33 4.5596e-33 2.6084276e-37 3.079284e-32
000040 70 b3 8c 0f f1 5d 9c 89 44 d7 c6 89 22 f6 b4 07
       1.3874183e-29 -3.7643976e-33 -4.78692e-33 2.7228054e-34
000050 82 d2 32 8a 38 a2 77 0a f6 65 7d 02 81 b6 0a 0f
       -8.6099804e-33 1.1923127e-32 1.8616766e-37 6.839074e-30
000060 d8 b5 82 82 c6 db b0 0c 76 ff b0 08 5f 28 32 80
       -1.9206156e-37 2.7249365e-31 1.0652673e-33 -4.606257e-39
000070 e5 69 a4 09 94 d0 11 88 84 dd d4 00 1b 12 50 09
       3.9581147e-33 -4.3879533e-34 1.954859e-38 2.5045602e-33
000080 63 d3 fd 08 80 b4 05 03 8e 00 41 8f 7b 03 02 8a
       1.527658e-33 3.929239e-37 -9.5157415e-30 -6.259927e-33
000090 16 b7 83 0d 80 54 89 88 a0 9f 74 8a b1 ac a9 0b
       8.117575e-31 -8.265253e-34 -1.1778195e-32 6.535627e-32
0000a0 d9 1f e5 00 3d bc 55 8e bc 2d a9 05 10 f2 83 86
       2.1041753e-38 -2.634491e-30 1.5909484e-35 -4.96324e-35
0000b0 70 d9 72 87 cc 1f af 80 5a 95 a8 8d 80 2c da 00
       -1.8269956e-34 -1.6082618e-38 -1.0389754e-30 2.0036102e-38
0000c0 b3 88 57 88 e1 9c 95 03 44 62 61 82 30 72 a2 08
       -6.48599e-34 8.7934505e-37 -1.655859e-37 9.776866e-34
0000d0 5c 11 3f 02 ac d8 c0 86 af d8 77 84 1c 5f 06 02
       1.4037446e-37 -7.2540744e-35 -2.9134207e-36 9.87206e-38
0000e0 af fc c4 06 15 ff 85 04 18 9b 57 89 58 3c 90 0a
       7.409829e-35 3.1502406e-36 -2.5952608e-33 1.3889394e-32
0000f0 ad 75 76 07 e0 da 4c 07 8c 26 f2 82 f7 f5 96 8c
       1.8541565e-34 1.5411576e-34 -3.558083e-37 -2.3259194e-31
000100 5d f5 0f 3d a2 2b d5 3c b0 d5 0e 3d 44 57 f5 3c
       0.035146106 0.026021782 0.034871757 0.029948838
000110 8a 05 8d 3d b5 28 ec b7 30 41 a0 3d f0 8b 01 3d
       0.06885822 -2.8152348e-05 0.078249335 0.031627595
000120 b7 34 2b bd 44 44 30 bd b7 05 23 3d 6f de 9e 3d
       -0.04179832 -0.043033853 0.039800372 0.077572696
000130 df af dc 3c 74 1f 23 bd eb 1e 9f 3c 39 57 9f 3c
       0.02693933 -0.039824918 0.019423923 0.01945077
000140 e2 17 39 3a e3 f5 cc bc da a0 9b 3c 5b d6 2e 3a
       0.0007060749 -0.025019592 0.018997598 0.00066695147
000150 f2 f0 ea 3c 00 bd bc 3c 3d 04 67 b8 e1 e8 be 3d
       0.028679345 0.023039341 -5.507864e-05 0.09321762
000160 9d fc 1f 3d b3 37 c1 3c fc ea c6 bc f5 79 24 3d
       0.03905927 0.02358613 -0.024281971 0.04015537
000170 18 82 a2 3d 2b 8d 15 bd 79 65 0e 3d 3d fa 91 3d
       0.0793497 -0.03651158 0.03476474 0.07127807
000180 81 cb 20 3d 44 ea 98 3c ac bd 27 bd 36 c2 d1 3c
       0.039256576 0.018666394 -0.04095237 0.025605302
000190 e4 6f b0 3c 8c 88 16 37 4f 78 a7 3c 3e 95 a7 3d
       0.021537729 8.972489e-06 0.02044311 0.081827626
0001a0 c1 f6 4c b9 4e 2b 17 bd a7 01 28 bd 4f b8 e8 bc
       -0.00019546879 -0.036906533 -0.0410172 -0.028408198
0001b0 c3 27 9d 3d 10 78 b0 3d f1 5a a4 3d 0c 5f 1e bd
       0.076735996 0.0861665 0.08025158 -0.038664863
0001c0 52 dc 9c 3d 28 51 04 b9 a9 0f 2b bd 41 d1 48 3d
       0.0765921 -0.00012618734 -0.04176298 0.049027685
0001d0 20 4b 22 3d 6e bb 0c 3d f4 06 bd bc 54 6a f1 b8
       0.039622426 0.034358434 -0.023074605 -0.00011511581
0001e0 b5 b9 98 b8 b0 9f ff bb 04 72 3d bd 82 3e cc 3c
       -7.2825154e-05 -0.0078010187 -0.046251312 0.02493215
0001f0 7a d7 c4 bc 08 49 fd b8 9d e8 17 3d 91 1c 99 3c
       -0.024028528 -0.00012077583 0.03708707 0.01869038
000200 5b 0f 8b 0c ac be 66 0b f0 3c 76 88 ed d9 b2 86
       2.1425583e-31 4.4439834e-32 -7.4099564e-34 -6.727637e-35
000210 bc e4 02 0a 8a ad 19 02 66 11 15 89 0c d4 ad 0d
       6.3022925e-33 1.1290468e-37 -1.7943403e-33 1.0712997e-30
000220 c9 4a 03 0f 67 d0 62 03 bc c9 1f 87 15 62 10 8a
       6.473202e-30 6.6654665e-37 -1.2021115e-34 -6.951795e-33
000230 d5 3b e0 8a 27 90 32 0f d0 02 9b 8b 53 e1 8d 01
       -2.1592922e-32 8.80384e-30 -5.970806e-32 5.2118544e-38
000240 4b 97 87 82 0a 67 fe 03 3b e3 ed 01 57 1e 8e 02
       -1.9923305e-37 1.4952435e-36 8.738611e-38 2.088244e-37
000250 e4 e2 8b 0f dd 32 8b 8f 2c 77 65 0c d2 dc 53 00
       1.3793853e-29 -1.372605e-29 1.767738e-31 7.701562e-39
000260 16 71 ce 89 ac 3b b0 01 24 30 14 0b 29 15 cc 8e
       -4.969904e-33 6.4737814e-38 2.853998e-32 -5.031026e-30
000270 cc a3 24 00 81 5f e4 85 54 16 63 06 66 63 24 89
       3.364837e-39 -2.14761e-35 4.271036e-35 -1.9787519e-33
000280 73 00 5d 89 53 05 91 89 e1 fc 79 05 72 b2 67 04
       -2.6602119e-33 -3.4912487e-33 1.175437e-35 2.7235858e-36
000290 e1 da 5e 8a a1 b6 55 08 a9 65 86 0f cc 4b 66 89
       -1.0730078e-32 6.4312035e-34 1.3252578e-29 -2.7720882e-33
0002a0 66 f8 f4 09 4d 6d a7 8a 1d 12 f0 8b 52 d0 72 07
       5.8974456e-33 -1.612263e-32 -9.247189e-32 1.8267276e-34
0002b0 01 19 5b 0a d4 12 8a 0f 42 f6 99 8b 95 cf 5f 8f
       1.0549169e-32 1.3615103e-29 -5.9303984e-32 -1.1034728e-29
0002c0 b7 dc 0a 0b bb 25 0c 0a f6 84 37 87 06 aa 2e 08
       2.674388e-32 6.747851e-33 -1.3806464e-34 5.256108e-34
0002d0 20 f1 79 86 9e e1 eb 09 28 82 1d 0f 5b f8 47 00
       -4.7008846e-35 5.678636e-33 7.765765e-30 6.609413e-39
0002e0 bd 44 86 83 78 19 9c 0e ef 1e 55 8e 3f 73 67 07
       -7.891594e-37 3.8481495e-30 -2.6269171e-30 1.7412376e-34
0002f0 39 62 61 0f fb a6 d8 09 93 f8 01 07 e0 48 86 8a
       1.11122735e-29 5.2157136e-33 9.777931e-35 -1.2931143e-32
000300 ed ed 95 0b 71 cb 41 87 c7 f0 06 8b 2f 12 be 85
       5.7750703e-32 -1.4579492e-34 -2.5988602e-32 -1.7874194e-35
000310 11 61 97 08 31 83 9d 08 5c 43 b4 85 ce 06 88 08
       9.110802e-34 9.479937e-34 -1.6951863e-35 8.186802e-34
000320 e0 ce a7 09 c4 4c 8e 00 3d 5e 05 83 81 bf 89 04
       4.0398332e-33 1.3068179e-38 -3.9193367e-37 3.2384414e-36
000330 a0 ca 96 09 c5 f8 63 0b 11 9a 99 8b f5 e2 6e 8c
       3.6301734e-33 4.3905763e-32 -5.916527e-32 -1.840315e-31
000340 3c 3d 65 84 d7 91 31 04 23 a1 78 0c 04 9f 8f 03
       -2.6946938e-36 2.0873216e-36 1.9153715e-31 8.441293e-37
000350 fc 84 48 0c 83 5d 93 09 d4 d6 0a 00 d4 be e8 0b
       1.5447458e-31 3.54769e-33 9.95421e-40 8.9650276e-32
000360 60 98 49 0f 53 f7 48 82 19 63 56 07 02 55 9e 00
       9.9394115e-30 -1.4764658e-37 1.6128693e-34 1.4540503e-38
000370 1b 45 a6 8c 8b e5 bd 88 17 83 a8 0a 61 f8 f0 09
       -2.561794e-31 -1.1428989e-33 1.6227122e-32 5.8011473e-33
000380 d3 04 99 01 ca 88 cc 82 c2 e2 aa 8b cf e5 89 88
       5.6210246e-38 -3.005362e-37 -6.5822805e-32 -8.299415e-34
000390 f3 36 79 8f dc ea bb 01 81 f0 80 08 fa a8 60 8d
       -1.2287231e-29 6.902996e-38 7.760262e-34 -6.9228727e-31
0003a0 19 6c 5e 04 af 27 80 04 69 a1 bb 02 83 da ad 0c
       2.614561e-36 3.01291e-36 2.7569825e-37 2.6786382e-31
0003b0 53 ee 0f 8c f7 79 83 8f c2 57 0b 8a c8 53 1b 0a
       -1.1088037e-31 -1.2964576e-29 -6.709112e-33 7.478736e-33
0003c0 90 1e 5f 0b 37 d9 26 84 3d 03 47 87 57 d4 7a 88
       4.297123e-32 -1.9612946e-36 -1.4972048e-34 -7.5481243e-34
0003d0 2d 07 4c 05 8f f8 45 0d 1d ff cf 84 c8 03 9e 86
       9.593352e-36 6.1004503e-31 -4.889975e-36 -5.943855e-35
0003e0 79 51 c8 8d 39 cb 58 82 94 44 8b 0f 7c b1 8c 8a
       -1.23455655e-30 -1.5927496e-37 1.3732874e-29 -1.3548272e-32
0003f0 bd 8c 0d 0b fd 95 34 8a fc 56 12 88 b0 c9 3b 0b
       2.7261492e-32 -8.6948944e-33 -4.4037526e-34 3.6166623e-32

graphlayers.0.bias f4 [64]
000000 09 36 97 bd 8a e9 a0 3e bc 7e 1a be 10 16 aa 3e
       -0.07383353 0.31428176 -0.15087408 0.33219957
000010 ae f0 d5 3e 20 ee 72 be 51 92 62 3d fd 14 a2 3e
       0.41785187 -0.2372365 0.05531532 0.31656638
000020 a2 2b 6e 3e c7 61 8b 3e 7e 02 56 be e5 b9 b4 3c
       0.23258832 0.27223036 -0.20899388 0.022061298
000030 b8 00 aa bc a8 48 68 3e f3 d1 2d 3e 2e 29 99 3e
       -0.020752296 0.22683966 0.1697462 0.2991423
000040 60 3e 85 be 79 90 31 be 35 fa b3 3e 6a 29 73 be
       -0.2602415 -0.17340268 0.3515183 -0.23746267
000050 d7 cb 93 3e b6 62 9b 3e 67 00 90 be 0a f8 1a be
       0.28866455 0.30348748 -0.28125307 -0.15133682
000060 ac 80 36 be 16 d0 7d 3c 40 6d 21 be 12 92 23 be
       -0.17822522 0.015491506 -0.15764332 -0.1597369
000070 3f 22 a1 3c a5 96 41 3e 39 03 04 be b1 3c 02 3e
       0.01966965 0.18905123 -0.12891854 0.12718464
000080 be 35 29 be 8d 6d 75 3e 9e 86 71 3e a6 32 2a bd
       -0.16524407 0.23967572 0.23586509 -0.04155221
000090 36 bd 95 3e 76 79 8b be 81 3f eb 3d 86 cf 6c bc
       0.2924592 -0.27241105 0.11486722 -0.014453774
0000a0 04 95 9e be a5 99 3b 3e a6 7f 8b 3e 55 34 02 be
       -0.30973065 0.1832033 0.27245826 -0.12715276
0000b0 6c e6 a2 3d 5b 57 cf ba b3 0f b1 3c f1 cc 5a 3e
       0.07954106 -0.0015818881 0.021613931 0.21367241
0000c0 6a cf 8c 3d 54 11 98 be c5 7a c4 3e eb 4c 1e 3d
       0.068754986 -0.2970072 0.38374916 0.038647573
0000d0 fc 61 49 be c0 8f ba 3e 7b 79 48 be 58 fc 7b be
       -0.19666284 0.36437798 -0.19577591 -0.2460798
0000e0 63 05 97 be 02 0c a5 bd 54 74 87 3e 66 44 b4 3e
       -0.29496297 -0.08058931 0.2645594 0.35208434
0000f0 ee 55 ef bd 61 c9 34 be 6d 44 dd bd 92 eb 96 3e
       -0.11686312 -0.17654945 -0.10804067 0.294766

graphlayers.1.weight f4 [64, 16]
000000 3b ac 19 3b 10 67 a4 3e 72 9b 98 3e f1 ce 70 3e
       0.0023448605 0.3210988 0.29806095 0.23516442
000010 c0 f3 40 bc b7 30 02 be c2 7a 9d 3e 2c 9a 82 3c
       -0.0117768645 -0.12713896 0.3075772 0.015942656
000020 a1 28 d9 bd f0 d8 05 be 20 68 0c be ab 47 52 be
       -0.106034525 -0.13071036 -0.13711596 -0.20535152
000030 16 89 f7 3a 03 9d d8 3c ad ad 31 be 88 e0 47 3b
       0.0018885459 0.026442057 -0.17351408 0.0030498821
000040 cd 70 37 bd f9 82 74 3e e0 53 40 3e 46 14 3e 3e
       -0.04478531 0.23878087 0.18781996 0.18562421
000050 60 41 a2 3e 35 2b 4b bd 63 b8 87 3e 39 8a 31 3e
       0.31690502 -0.049601752 0.26507863 0.17337884
000060 a3 df 39 bd e6 fb 62 be b0 12 18 be 5d f8 34 be
       -0.045379292 -0.22166404 -0.14850879 -0.17672868
000070 1f a5 2b bd 19 60 59 be d0 a6 70 bd 4e 37 6b bd
       -0.04190552 -0.21228065 -0.058752835 -0.05742579
000080 d8 71 92 3d 76 db 8f 3e e5 ee 93 3e 93 6d d8 3e
       0.0715062 0.28097123 0.288932 0.42271098
000090 2e 1d d1 bd a6 bf 21 be e1 48 92 3e 8d 40 0e bc
       -0.10210644 -0.15795764 0.28571227 -0.008682382
0000a0 30 81 7d be 6e e9 9d be 06 4e 94 be a0 02 4d be
       -0.24756312 -0.30842155 -0.28965777 -0.20020533
0000b0 f2 d3 b8 3c cf ba 42 3d be 91 3e be 63 51 92 3c
       0.022562 0.047541436 -0.18610284 0.017861074
0000c0 5f 47 66 bd 03 f5 4b 3e b9 09 62 3e ef b5 7f 3e
       -0.05622041 0.19917683 0.22074021 0.24971746
0000d0 3f 34 6d 3e 84 88 58 bd be 4a 30 3e fb 1c 08 3e
       0.23164462 -0.052864566 0.17216012 0.13292305
0000e0 26 b6 57 bd e0 cd 8f bd 0a 33 dd bd d1 82 cc bd
       -0.052663945 -0.070216894 -0.108007506 -0.09985889
0000f0 ac f6 35 be 2f 53 59 be e9 9b 1e be 77 f7 38 be
       -0.17769879 -0.21223138 -0.15489163 -0.1806315
000100 b6 ca d2 bd 69 8b 77 bd cd 4d 63 bd a1 c3 ba bd
       -0.1029257 -0.060435686 -0.05549412 -0.091193445
000110 f1 69 a5 3e 18 ce 8d 3e 3e de df bd 94 c5 91 3e
       0.3230739 0.276963 -0.10931061 0.28471053
000120 5e 68 49 3e 13 88 a2 3e b8 81 86 3e bb 4f 48 3e
       0.19668719 0.3174444 0.26270843 0.19561665
000130 a7 2c 45 be f1 68 74 bd 2e 20 31 3e f2 02 62 be
       -0.19255315 -0.059670392 0.17297432 -0.22071436
000140 3c dc 62 3d e0 7b f4 3d 73 2b 34 3e 3c 8f 56 3e
       0.055385813 0.1193769 0.175947 0.20953077
000150 7b 96 08 bd b5 b7 ff bd e3 ba f4 3d 7e 57 c0 bd
       -0.033346634 -0.12486211 0.11949708 -0.09391688
000160 a1 a6 ec bd 9d 38 0b be ff fa 2f be d1 8f 66 be
       -0.115552194 -0.13595815 -0.17185591 -0.22515799
000170 80 50 e9 3d de c1 aa 3d c8 c4 39 be 48 aa 28 3e
       0.11392307 0.083377585 -0.18141472 0.16471207
000180 87 b3 e2 b9 20 81 33 be 59 e1 36 be 41 02 38 be
       -0.00043239837 -0.17529726 -0.17859401 -0.1796961
000190 f6 b5 a5 3d df 9f ce 3e e6 10 4c be a0 22 b5 3d
       0.08091347 0.40356347 -0.19928321 0.08844495
0001a0 8b 6c 99 3e e8 a6 97 3e c4 d6 be 3e 98 e0 c4 3e
       0.29965624 0.29619527 0.37273228 0.384526
0001b0 9d b4 ef b8 fa 2d ee bb 38 37 a1 3e 5e 9f 2a bb
       -0.0001143005 -0.0072686644 0.3148744 -0.0026034932
0001c0 00 1c 1d bd 3f 4d 3d 3e f8 65 86 3e b1 07 36 3e
       -0.03835678 0.18486498 0.2624967 0.17776372
0001d0 28 bd 5f 3e 25 ef 14 be f9 8e 37 3e 8f d8 80 3e
       0.21849501 -0.14544351 0.17925633 0.2516522
0001e0 6e 2b 3b bd 50 9c 0a be d8 40 b5 bd 55 53 5a bd
       -0.045695715 -0.13536191 -0.088502586 -0.053302128
0001f0 64 72 1e bd 7a 98 05 be 54 0e 29 bd 79 9d 60 be
       -0.03868331 -0.13046446 -0.04127343 -0.21935071
000200 39 49 fa bd 3c e5 d8 bd d2 65 d6 bd 74 b2 46 be
       -0.12220997 -0.10590598 -0.104686394 -0.19404012
000210 51 8a 10 3e 0c 0d 97 3e bb 3f a9 bd 65 16 85 3e
       0.14115264 0.2950214 -0.08264109 0.25993648
000220 7d a6 90 3e eb c9 75 3e 38 30 4c 3e 53 ce 7b 3e
       0.2825202 0.24002807 0.19940269 0.24590425
000230 27 ec 09 bd 16 21 9f bd 9f 98 7b 3e b4 ba df bd
       -0.033672478 -0.077699825 0.24569939 -0.10924283
000240 48 57 83 be ca 1a 65 be 32 1b af bd 3f 02 5a be
       -0.25652528 -0.223735 -0.08550109 -0.2128992
000250 81 10 3f 3e 36 92 42 3e 0b 7e 93 bd 5e b8 7b 3e
       0.1865864 0.19001088 -0.07201775 0.24582049
000260 0b 5a 5f 3e 73 ab 68 3e c8 08 a6 3e dd 50 57 3e
       0.21811692 0.22721653 0.32428575 0.2102694
000270 0a 1c 82 bd be 20 a5 bd f2 b8 39 3e f1 fd 7d bd
       -0.06353004 -0.08062886 0.18136957 -0.062009756
000280 45 72 81 3e 0b 5f c6 3e bb 0f b7 3e d5 ad 93 3e
       0.25282493 0.38744387 0.3575419 0.2884356
000290 b5 23 9c bc c1 93 13 be 98 ca c8 3e 3b 41 0c bd
       -0.019059995 -0.14411832 0.39217067 -0.034241896
0002a0 b4 30 49 be 09 32 2f be 50 8b f8 bd f1 7d 86 be
       -0.19647485 -0.1710893 -0.12135947 -0.2626796
0002b0 cc 8b 38 3e a0 a2 a5 3d 66 d8 87 be d7 38 25 3d
       0.18022078 0.08087659 -0.26532286 0.04033741
0002c0 d9 02 52 39 b0 1b 30 be 15 ce 0b be 02 af 27 be
       0.00020028221 -0.17198062 -0.13652833 -0.16375354
0002d0 83 41 9d 3d 5d 01 b6 3e 1b 36 7c be 3d fe a6 3d
       0.07678511 0.35547915 -0.24630015 0.08153961
0002e0 ee f0 86 3e 33 5a 75 3e 02 db c1 3e 6e 70 b7 3e
       0.2635569 0.2396019 0.37862402 0.35827965
0002f0 fb 9c 51 39 2e 30 ba ba 90 30 78 3e 2a ff f7 38
       0.00019990273 -0.0014205032 0.24237275 0.00011825406
000300 da f9 1d b9 17 31 89 3e 8f 5d 8e 3e 9f 63 8e 3e
       -0.00015065764 0.26795265 0.27805755 0.2781038
000310 a5 21 f8 3c 50 e4 86 be 8a ac 9b 3e 27 21 e3 3c
       0.03028948 -0.26346064 0.30405074 0.02772577
000320 f4 21 9c be 83 f9 7a be 80 a3 98 be 9f f5 32 be
       -0.30494654 -0.24509244 -0.2981224 -0.1747651
000330 a5 01 30 b9 4c a5 42 3b fc be 60 be d3 20 b2 38
       -0.0001678528 0.0029700575 -0.21947855 8.4938154e-05
000340 5c bd a4 bd cd 21 c4 bd 59 a4 5b be a6 0b 8d be
       -0.0804393 -0.095767595 -0.21449412 -0.2754795
000350 6b 90 04 3e 42 de 6f 3e 29 ad cd bd d6 aa 5e 3e
       0.12945716 0.23424628 -0.10042793 0.21744856
000360 e6 91 66 3e 10 3a 5d 3e 0d f2 8f 3e a1 4d 9e 3e
       0.22516593 0.2160418 0.28114358 0.309186
000370 02 76 77 bd 76 e7 41 bd a1 75 8d 3e 50 59 46 be
       -0.060415275 -0.04733988 0.27628806 -0.19370008
000380 53 7b 4c bd 5d 3f 82 3e 9e c4 a4 3e ec 08 9a 3e
       -0.0499223 0.25438967 0.32181257 0.30084932
000390 8e 81 ba 3d 6e 95 83 be 02 95 83 3e 30 0f ac 3d
       0.09106742 -0.25699943 0.2569962 0.08401334
0003a0 78 ea 88 be b7 ce 43 be cb c1 59 be 9e c2 67 be
       -0.26741385 -0.19121824 -0.21265332 -0.22632834
0003b0 a0 f8 9c bb 2f 07 fd bd ea 9f 25 be e9 62 ca bc
       -0.0047903806 -0.12354886 -0.16174284 -0.024705367
0003c0 60 3a 20 bd 16 4e 9a 3e c0 7b 84 3e 79 2a ae 3e
       -0.03911817 0.301377 0.25875664 0.3401678
0003d0 f4 97 02 3e 32 50 4d be 21 43 61 3e 44 d1 94 3e
       0.12753278 -0.20050123 0.21998264 0.29065907
0003e0 ec 33 5e be 74 59 c4 bd 0f f4 6e be c7 6a 14 be
       -0.21699494 -0.09587374 -0.23335288 -0.14493857
0003f0 d4 f8 5e bd 32 0d 67 be f2 8b bd bd 53 dd 5b be
       -0.05443652 -0.22563627 -0.09255208 -0.21471147

graphlayers.1.bias f4 [16]
000000 78 bb 99 be a6 5d 17 3d 25 b6 c1 3c 21 71 b0 3c
       -0.3002584 0.036954544 0.023646424 0.021538319
000010 7a 66 a9 3e 48 7e a1 3d e7 c5 3b 3d f7 cf dd 3e
       0.33085996 0.07885414 0.04584303 0.43322727
000020 9b b2 89 3d 72 88 a4 3d ba cd a6 3d 75 de ba 3d
       0.067235194 0.080338374 0.08144708 0.091244616
000030 d2 a0 98 be 0f ec 5a be b9 64 c7 3d e6 bb 68 be
       -0.29810196 -0.21379112 0.09736008 -0.22727928

linlayers.0.weight f4 [2, 16]
000000 6d a4 82 bf e7 f8 86 3f ca 5b 88 3f d1 e3 71 3f
       -1.0206429 1.0544709 1.0653012 0.94488245
000010 7d c1 96 3f 6f 15 81 bf 9a 83 7c 3f c4 b6 93 3f
       1.1777798 -1.0084666 0.9863831 1.1540151
000020 69 d4 64 bf 20 74 6d bf 41 cd 6d bf 6c 34 80 bf
       -0.8938661 -0.9275532 -0.9289132 -1.0015998
000030 38 7e 7c bf 0b b9 85 bf 9c 10 67 bf 45 93 88 bf
       -0.98630095 -1.0447096 -0.9025972 -1.0669943
000040 82 60 89 bf 53 62 74 bf 8b f5 87 bf 61 14 87 bf
       -1.0732577 -0.9546253 -1.0621809 -1.0553094
000050 2e b6 5c 3f ef 36 8b 3f cb 80 5a bf 93 77 85 3f
       0.86215484 1.0876139 -0.8535277 1.0427116
000060 c4 6a 90 3f 33 31 87 3f 19 c8 8a 3f 6c ba 94 3f
       1.1282582 1.056189 1.0842315 1.1619391
000070 5e 91 86 bf a4 8a 80 bf 57 f1 6f 3f 30 76 40 bf
       -1.0513113 -1.004231 0.9372763 -0.7518034

linlayers.0.bias f4 [2]
000000 c8 c5 64 3f 56 61 7c 3f
       0.8936429 0.9858602
